models/tanh_train/best_3.pth (torch_old, 343618 bytes, 16 tensors)

encoder.0.weight f4 [256, 4]
00000000: 9e3d a2be f222 c23c 30a7 d03d d0a1 79be
00000010: d444 aa3e 7a9d b13e 0308 89be 8ba9 133d
00000020: 909a d8be a786 38bd 8c0e 293e 8053 d2bd
00000030: b61b 9cbe 964f 803e 623e 9d3e c7ec b0be
00000040: dfc9 53bf 7feb 26bf aab1 e0bd e73f 043f
00000050: 3df1 60be f545 03bf 86d3 57bd 36cf ae3c
00000060: b8db 94bc 5ee9 b63c 0117 63be a3b6 3d3f
00000070: 690d 0ebd e42e 2fbe 193c 9a3e 387c e6bd
00000080: 7073 923e fd87 ef3e 52bb a7be 3d70 b0be
00000090: 06eb a03d 504d babe a4f2 973c a3ae 833e
000000a0: 4ad5 2e3e f3e0 a0be ffe0 123d c25d 99bf
000000b0: 5190 823e d866 bbbd 5a3a 9abd f104 edbe
000000c0: 7579 afbe c0d7 133f 9708 4f3d 1393 81bd
000000d0: ae06 25be c7d6 98be 802a 8dbc 7974 8ebf
000000e0: ff9b 033e 22d8 fabe 32c6 8abe fa73 91be
000000f0: b5a7 04be 2de9 103f 9150 873d 7ca6 063f
00000100: 2f48 00bf 77a8 d8be 1907 9abc 1638 c13d
00000110: c488 1d3f 8b5d dbbc 4062 163e 5799 8c3e
00000120: 88bd cfbe f7b3 28bf 8abf 7b3e 08f4 d63e
00000130: 06af 9a3e cf7b 0b3f 16d9 40bd 2472 0abd
00000140: 7e23 5b3e fd12 073f fe00 8fbd 10a8 813e
00000150: d9ac f53e b584 ef3e 024b e2bc fe64 1f3e
00000160: df39 82bd 6c89 26bf 3249 743e 1deb 47be
00000170: c695 5bbe 9dab 1c3f 8faf febd 27b7 e3be
00000180: d3da 9dbe c9d5 86bd 027d 91bd 98e8 26bf
00000190: fa47 cc3e 2852 68be 6ef9 98bd 73bf 0dbf
000001a0: 9032 03bf 3493 4d3e 495f 8dbe 5d87 85bf
000001b0: 6d36 a53e c4a6 b7be bfbd db3d 2280 c33e
000001c0: a5c4 d4be ec50 bdbd f794 7ebd 312c 3ebf
000001d0: 5334 15bf b16d 9cbe ef07 11bd 6701 f23e
000001e0: 2beb ef3e 8638 82bd d1f2 a4be 5128 873c
000001f0: a8b4 8fbe 2a32 1c3f 594b bb3d 4c16 083e
00000200: ee23 26bd 1ab1 d63e 8e0c 303d 7178 97be
00000210: 7ade 983b d63b 8b3d f12a ec3d 9ca3 513f
00000220: c4c6 183f a96b 243f f90d 0f3c 7ebe 3e3f
00000230: 2d92 1a3e 4adf 3a3f d14f cd3d f384 903e
00000240: b293 f7be a994 3c3d 30c4 bfbd 66f7 afbe
00000250: 4791 25bd 9fc2 503e 4444 18bd 6f26 c1be
00000260: 8a6b cdbd de1e 003f 0883 32bd 81fb 4c3d
00000270: e7d9 dd3e 4a8a adbe eb89 edbe 4ce2 1f3f
00000280: 71a2 4c3e 5577 cf3d 7471 843d 7180 03bf
00000290: 01b1 a5be 8015 c63e 776f 33bd 2c92 9f3d
000002a0: 115b 433e 4899 c5bc 9f76 333d dc13 d33e
000002b0: 796c ce3e 6c99 323e 8311 09bf 861c c93e
000002c0: dde0 8b3e 7650 373f ad0e 6c3d 09db f5bd
000002d0: e7f5 01bf 51f4 583e ca94 3abe 60fc 113f
000002e0: f7d7 263e 6a3c 02bf efce 5a3d e9d2 e7bf
000002f0: bc48 c7bd b468 3dbe 66f7 2b3f 8825 a1be
00000300: 2468 ff3d 9e11 f93e 0e58 4c3e ae1e e53c
00000310: 7316 8bbe 70c6 ee3e db2f 133e 3e93 0c3f
00000320: 16dd 383c e82c 563e 15da 48bc 8b80 2d3f
00000330: 10ea 0abd 63d0 9b3e d73e 19be 1b98 e03e
00000340: 8256 363d da11 f9be dcf9 1dbe b307 87be
00000350: 0a11 a63e 2b7c 023e 1e99 03be 4a53 febc
00000360: 2b51 5cbe 5666 8cbe 4229 873e 332f a23e
00000370: 4c65 c2be 7e4d 19bf e83f 8dbe 7b16 dfbe
00000380: d991 223f cdb0 20bf 48bc f3be 3170 4abf
00000390: d291 a8bc 8853 703e 2da7 06bf dc3e 343f
000003a0: 6159 d8be 95b6 6d3e b7a5 23be 297c 50bf
000003b0: 26fc bf3d f621 de3e 9ef7 043f d982 053f
000003c0: 1106 abbd 52a1 07be 660a 03bd e90f ecbe
000003d0: df13 da3e 2d0f 8abe 2f5e 0a3d 0d01 c1be
000003e0: a314 1f3f e65d 90be a07e ffbd 8252 10bd
000003f0: d4e5 b23c 0b87 9cbe ff72 d43e cab1 b8bd
-0.31687635 0.023698304 0.101881385 -0.24378133 0.33255637 0.34690458 -0.26763925 0.03605036
-0.42305422 -0.04505029 0.16509455 -0.102698326 -0.30489892 0.2506072 0.30711657 -0.34555647
-0.82729906 -0.6520309 -0.10971387 0.5166001 -0.21967025 -0.5127862 -0.05269196 0.02133904
-0.018171176 0.022328075 -0.22176744 0.74106807 -0.034680758 -0.17107731 0.30123976 -0.112541616
0.28603697 0.46783438 -0.32760102 -0.3446063 0.07857327 -0.3638711 0.018548317 0.25719175
0.17073551 -0.31421623 0.035859104 -1.1981738 0.2550073 -0.09150475 -0.07530661 -0.46292832
-0.34272352 0.57751083 0.0505453 -0.0632688 -0.1611583 -0.29851362 -0.01723218 -1.1129295
0.12852477 -0.4899302 -0.27104336 -0.28408796 -0.129546 0.566058 0.06607164 0.52597785
-0.50110143 -0.42316028 -0.018802213 0.09434526 0.6153681 -0.026778003 0.14685917 0.2746074
-0.40574288 -0.65899605 0.24584785 0.41983056 0.30211657 0.5448579 -0.04708203 -0.03380026
0.21400258 0.5276335 -0.06982611 0.25323534 0.47983435 0.46780935 -0.027623657 0.15565869
-0.06358694 -0.6505344 0.23856047 -0.19523282 -0.21443853 0.6119936 -0.12435829 -0.44475672
-0.30831012 -0.06583745 -0.071039215 -0.6519866 0.39898664 -0.2268759 -0.0746945 -0.55370253
-0.5124903 0.20075685 -0.2761176 -1.0431935 0.32268086 -0.3586942 0.107295506 0.38183695
-0.41556278 -0.0924395 -0.062153783 -0.7428618 -0.58282965 -0.30552438 -0.035407957 0.47266695
0.46859106 -0.06358437 -0.32216504 0.016498717 -0.28067517 0.61014044 0.09145231 0.13289756
-0.04056161 0.41931993 0.042980723 -0.29584077 0.004665193 0.06798522 0.11531628 0.81890273
0.5967829 0.64226776 0.008731359 0.7450942 0.15094824 0.7299696 0.100249894 0.28226432
-0.4835487 0.04604021 -0.09363592 -0.34368438 -0.04042175 0.20386742 -0.03717448 -0.37724635
-0.10030277 0.500471 -0.043581992 0.05004454 0.4333031 -0.3389457 -0.46394286 0.62454677
0.19983841 0.10130183 0.06466952 -0.5136786 -0.32361606 0.38688278 -0.043807473 0.07791552
0.19077708 -0.024120942 0.043814298 0.4122609 0.40317133 0.17441338 -0.53542346 0.39279574
0.27319995 0.7160715 0.057631183 -0.12004668 -0.5076584 0.2118695 -0.18220821 0.5702572
0.16293322 -0.50873435 0.053420004 -1.811124 -0.0973067 -0.18496972 0.67174375 -0.31473947
0.12471035 0.48646253 0.19955465 0.02796873 -0.27165565 0.4663577 0.14373724 0.54912174
0.01128318 0.20915568 -0.012259026 0.67774266 -0.033914626 0.30432424 -0.14965378 0.43866047
0.044516094 -0.48646432 -0.15427345 -0.26373062 0.32434875 0.12742679 -0.12851378 -0.031045575
-0.21515338 -0.27421826 0.26398665 0.31676635 -0.37967908 -0.5988387 -0.2758782 -0.4357184
0.63503796 -0.62769777 -0.47604585 -0.7907744 -0.020577345 0.23469365 -0.5259884 0.70408416
-0.4225569 0.23214181 -0.15981184 -0.81439453 0.093742654 0.43385285 0.51940334 0.5215278
-0.083507665 -0.13245133 -0.03199234 -0.46105888 0.42593285 -0.26964703 0.033781227 -0.37696114
0.62140864 -0.2819664 -0.12475324 -0.035234936 0.021838106 -0.3057178 0.41493985 -0.090182856

encoder.0.bias f4 [256]
00000000: 4abd b63e 83df 123f 50a0 76be 04d8 393e
00000010: d778 f2bd bfc3 513d 1f0e 14bf 21b9 243f
00000020: c9ed 2d3e a47b 1b3f b48f 44be e879 cc3b
00000030: 8e6a 17bf 55ff 433f 3b8c a83e b242 dcbe
00000040: c7a3 9abd 4e95 023f 05af a9be cbf1 b23e
00000050: ac38 a6be 17fb 48bf 7b57 a4be 91f2 6abf
00000060: b205 d43e 5f8b 1f3f 4483 933e 4db1 94be
00000070: 5d65 2c3f 8679 bcbe aca6 033f 8804 00bf
00000080: 3c15 08bf 5523 043f f585 da3e 753a 453d
00000090: b685 223f 8e54 95be c2a9 c1bd d1e6 0d3f
000000a0: 05c7 3dbf 4fc8 573e ffd6 053f c371 e3be
000000b0: 3137 adbe 407c 8ebe 5835 683d 38ba 473e
000000c0: 4284 a7be 0292 f73e 9e33 ffbe e0ac 3ebf
000000d0: f4a1 0fbf 9a86 1b3e 10b6 8c3e 0e08 d4be
000000e0: c029 5ebe eb72 843d 98b6 07be c469 4d3e
000000f0: 435c fd3e d05a 763e 8eca f1bd 0b6a 09bf
00000100: 3e9b 96be e030 a43d 83b7 adbe f974 843e
00000110: 3a30 b63e 34a2 fcbe 9981 c6be 00c1 613e
00000120: 00f2 143f d29d 8fbe dd2f 1c3d 41b7 f43e
00000130: 70c2 1bbf bd81 b33e 562a 533e e2e9 373e
00000140: 5a0d af3e 1955 ebbe 1e9e eebe 10b8 a6be
00000150: 2ad8 d2be 44d2 09bf 9f0b b2be 566f eabd
00000160: 72c4 713e dbf9 39bc d2c0 253f 6b88 25bf
00000170: 5931 1f39 83a6 bd3c 847b 923e 9d51 ffbd
00000180: f958 eebe e3e7 7cbe 2cbf d23e 71b6 833e
00000190: 50ca 293e 3401 9bbe 526a babe 5a15 e33e
000001a0: bd05 c83d c7ad 003f 0fd8 5cbe 0303 313f
000001b0: 7a98 983e 7770 593e e00a 16bf d805 a93e
000001c0: 524a 86be 936b f6be 0e22 5ebe 1870 1cbf
000001d0: d4e6 023f 93cd 213f 8b4a 2c3c c838 05bf
000001e0: d851 293f 2c4c a4be 7583 27bc 5c64 23be
000001f0: 88ca 2bbe 90e9 6ebf 77f7 1a3f 0b30 723d
00000200: 069f 26bf ebba 133e c71b e2be 8fb0 0d3e
00000210: d731 f43e a112 ac3e ada2 973f 12e8 eebe
00000220: 6b37 793d 75cb c2be e869 0cbe 2e76 1a3f
00000230: ca7c 773e d686 513e 7f20 023f a083 00bf
00000240: c640 3fbf 226a 57bf 3c11 023f 1fdf cfbe
00000250: fdd7 033f 6da9 1ebf 6c6b e83c 51dd dabe
00000260: 25e4 71bd 748b 4a3f bbbb ff3e 4c08 2f3f
00000270: 68cb e5be e979 11be 6910 e33d 3955 f7bb
00000280: 4f62 113e dd12 033f 3d15 9cbd adfe 7e3f
00000290: 73f2 db3e 6881 f23e 8074 05bf d080 9f3d
000002a0: 32a9 ebbe 79a7 463e 01ff 4ebe 2a42 213f
000002b0: a2a4 49bf d9be d53e 3807 12bf de55 9b3e
000002c0: 794f edbe a89e 31bf 4a17 dabe 7f3d 4e3e
000002d0: 7435 923e c8d0 15bf d6f2 74be f07f 03be
000002e0: 9153 13bf 4006 8e3e 3f8a 06bf b47c df3d
000002f0: 46b1 cbbe d230 3a3e 75a7 a8be 96f7 2abf
00000300: f5a1 fe3d 6b1a 1b3f 5b3d 5d3e fe72 23bf
00000310: df16 02bf e792 863e 8e52 a83e 4ff1 8b3d
00000320: 5665 1c3f 1369 023f 6ad1 e2be 0933 b5be
00000330: 3cdd cebe 98ef 20bf 788c 003f f214 67be
00000340: 430e 0ebf 2934 be3c 708b 60be e771 a6be
00000350: 2576 513f 146c 1bbf 500f 1abf 32ea 873e
00000360: 9bfa 03bf 9e36 f6be f441 a2be 50e0 19bf
00000370: 609c ebbe cc3f cfbe e08b 213f 9ae5 8b3d
00000380: b437 b8bd bc35 6fbe 63a5 07be d59d f83e
00000390: 29cb 833e fede 8a3e 3d4a 61be f6fc e43e
000003a0: f232 c9bd cae9 41bf 6d2d 50bf d41d 193f
000003b0: 5382 e43e aa3f c83e c9b8 97be 2d25 cdbe
000003c0: 2f0f aebe d2a4 3e3f b0dd 4b3e bd5e de3e
000003d0: ec0e c2be 4d1b 903e 4732 bebe 7e90 4fbd
000003e0: 7303 b2bb 844f cc3e 6a49 293e 5f21 653e
000003f0: d49f d23e 8eaf 04bf 00e3 fe3d 4ea8 95bd
0.3569129 0.573723 -0.24084592 0.1814881 -0.118394546 0.05121207 -0.5783405 0.64344984
0.16985239 0.60735536 -0.19195443 0.0062401183 -0.59146965 0.7656148 0.32919487 -0.43019634
-0.07550769 0.5100907 -0.33141342 0.34950098 -0.32465112 -0.7850813 -0.32097992 -0.91776377
0.41410595 0.6232204 0.28811085 -0.2904152 0.6734217 -0.36811465 0.51426196 -0.50006914
-0.531574 0.5161641 0.42680326 0.048151452 0.63485277 -0.29166073 -0.09456207 0.5543032
-0.74131805 0.21072505 0.52281183 -0.4442273 -0.3383117 -0.2782917 0.056691498 0.1950463
-0.32718092 0.48353583 -0.49844068 -0.74482536 -0.56106496 0.15188065 0.27482653 -0.41412395
-0.21695614 0.06467231 -0.13253248 0.20059878 0.49484453 0.2405808 -0.11806212 -0.53677434
-0.29415315 0.08017135 -0.3392907 0.25870493 0.3558367 -0.493425 -0.3877075 0.2204628
0.5818176 -0.28050095 0.038131583 0.47796062 -0.60843563 0.3505992 0.20621619 0.17960313
0.34189874 -0.45963362 -0.4660501 -0.32562304 -0.41180545 -0.53836465 -0.3477449 -0.11447017
0.23610094 -0.011351074 0.64747345 -0.6466128 0.00015181805 0.023150688 0.2860986 -0.124667384
-0.46552256 -0.24697833 0.41161478 0.2572513 0.16581082 -0.30274355 -0.3640924 0.44352227
0.097667195 0.50265163 -0.21566795 0.6914522 0.2980383 0.21234308 -0.58610344 0.3301227
-0.26228577 -0.48128948 -0.21692678 -0.6110854 0.51133466 0.63204306 0.010515819 -0.52039766
0.6614051 -0.32089365 -0.010224213 -0.15956253 -0.16776478 -0.9332514 0.6053385 0.05912785
-0.650864 0.14426772 -0.44161817 0.13836883 0.47694275 0.33607963 1.184652 -0.4666143
0.060843866 -0.3804585 -0.13712275 0.6033658 0.24168697 0.20461592 0.50830835 -0.50200844
-0.7470821 -0.8414632 0.5080755 -0.40599915 0.51501447 -0.61977273 0.028371535 -0.42746976
-0.059055466 0.7911904 0.49947914 0.68372035 -0.4488175 -0.14206661 0.11087114 -0.007548001
0.14197658 0.5120066 -0.076212384 0.99607354 0.42958412 0.47364354 -0.5213089 0.07788241
-0.46027523 0.19399823 -0.20214464 0.62991583 -0.78766835 0.41747168 -0.57042265 0.3033895
-0.46349695 -0.69382715 -0.42595893 0.20140646 0.28556406 -0.585217 -0.2392076 -0.12841773
-0.5754939 0.27739143 -0.52554697 0.10912457 -0.39783686 0.18182686 -0.3294026 -0.66784036
0.124332346 0.60587186 0.21605437 -0.6384734 -0.5081615 0.26283953 0.32875484 0.06833135
0.61092126 0.5094158 -0.44300395 -0.353905 -0.40403163 -0.6286559 0.5021434 -0.22566584
-0.5549051 0.023218231 -0.21928191 -0.32508776 0.818209 -0.6071179 -0.60179615 0.26545864
-0.5155427 -0.48088545 -0.31690943 -0.601079 -0.46017742 -0.4047836 0.6310406 0.068309024
-0.089949995 -0.23360342 -0.13246684 0.48557916 0.25740936 0.27123255 -0.22000976 0.44724244
-0.0982417 -0.7574736 -0.81319314 0.5981114 0.4463068 0.39111072 -0.29633167 -0.40067425
-0.3399596 0.74470246 0.19908786 0.43431655 -0.3790201 0.2814583 -0.37147734 -0.050674908
-0.00543254 0.39904416 0.16531911 0.22376011 0.41137564 -0.51830375 0.124456406 -0.07307492

encoder.2.weight f4 [128, 256]
00000000: 5976 99bd 69b5 83bd 4635 c53d ffa5 353c
00000010: e7f6 89bc 918e a53d 6735 ae3d f6ed 003d
00000020: e4c3 a63c 7e6a 61bd 76df 0b3e 5bf1 8d3d
00000030: 88a9 793d 41d6 8f3d 79a7 313d 7234 493d
00000040: dcee 45bd 84c0 c9bc e107 f7bb 3e85 113c
00000050: 1b02 fabc 7781 233a d1ab 4dbd f54f 0f3d
00000060: 7dd0 c33d 83e3 53bd a6da c03c 6389 5bbd
00000070: e7a2 013d 2ad8 e43c fad0 95bd 3b18 823b
00000080: f234 853c a78f 0d3c e737 80bd d92b 863b
00000090: a581 fe3b da1c ee3d b54c 11ba 05a8 3dbd
000000a0: df62 b93c 343b 453c 655b 463c 5700 9bbb
000000b0: b968 a63b 4331 1f3d e962 313e 9a41 f03c
000000c0: 4715 8ebd 7025 853b 3162 adbd af2b d3bb
000000d0: 8456 b13d d632 20bd 38bb 25bc d3e6 513d
000000e0: 7862 65bc c636 eebd 6e3e 27bd d9af 0bbd
000000f0: c2d2 803d 82c7 ba3c 67b4 f53d 5418 cd3a
00000100: 49ed 0abd 2249 18bd 1ef5 853c 5a57 46bd
00000110: 6771 8abd e2c2 6fbd 2014 973d 84fe 6a3c
00000120: d678 d83c 15a5 dcbd 55e7 96bb 32c4 da3c
00000130: 054d c03d e17d acbc 460a 9abd fa87 f8bc
00000140: 7383 2ebb 9598 c53c 45ac ba3d 587f ffb9
00000150: f4f5 ebbc 27ce a7bc 01bf 363c d548 383d
00000160: 4486 53bc 84e0 733c 9ae4 e73d 996e b33d
00000170: 306f 433d bb52 aa3d d620 563d aa4d 66be
00000180: 8d18 393d 763d 923d e43c 443d a0e4 df3c
00000190: 6f52 c33d c3d5 99bb 2c4d 0f3e cbfb 7ebd
000001a0: f649 7b3d ac36 7cbd 6d0b 343d 0235 0fbd
000001b0: a904 4ebd 3384 b8bc 2ffc 9d3d 3ef7 5fbc
000001c0: 3cb4 4bbd 7ae1 933d 503c b2bc 9640 7dbc
000001d0: 0f10 083d c549 1b3a e30e b23e f99a 043e
000001e0: ffe1 2dbd e15a 253e cc40 ba3c 5fb0 32bc
000001f0: e753 99bc 56d7 f6bc 516a 043d 45d1 88bd
00000200: 54e6 df3c a661 2bbc 0ec5 2dbd 0d17 103c
00000210: b002 b9bd 1d0c b13c 00ca 303a 7da5 f9bc
00000220: ea82 39be c4e2 63bc ffeb 6ebb 3fa0 c8bd
00000230: 2470 c3bc 15b4 4c3d aeb6 b0bd a4ec 0d3d
00000240: cf45 103c 6ff2 5c3d 0814 943c e64f 823d
00000250: 2c86 883b c24c 9fbb 9d56 dd3c 81fc 54bc
00000260: 55f3 51bd dc8c 453d 5ad0 dcbd 3918 d7bb
00000270: a0cd 5f3d 5d64 ed3b 3050 be3c bedf 38bd
00000280: 53e4 81bd f6d9 e33c d3de 293d 0a72 7bbd
00000290: c11f c73c 6f46 82bd 419b 9dbd bf7f 113c
000002a0: 7e56 e53d 7541 3c3d 5014 233d 7eaf 6f3c
000002b0: 619a 613d a916 ddbd 1027 e0bc ff4d 0abe
000002c0: 1f45 653d c30a ae3d 804f d4bb 21aa d1bd
000002d0: ab11 bf3a 91b3 4bbd cb99 a03c 9475 52bd
000002e0: c4e4 0b3d cbad 453c 26a3 e8bc ddb6 0d3b
000002f0: dffa ef3d dd25 6bbd 2454 4ebb 207f 6d3d
00000300: 3fd5 423d c7d5 b6bc e0a1 2fbd 9635 8dba
00000310: aa73 5a3d 4119 ce3c 36e9 7dbd f996 8ebe
00000320: 2d2c 0c3d f693 d9bd f136 a13b f46f 033b
00000330: da8c 2a3d 59db 503c f07f a3bd 99f9 bf3d
00000340: b044 9f3d 42d3 3bbe 7430 c0bc 84ad 0e3c
00000350: c8da 6c3d 9951 ef3c fde6 45bc 4ad6 2abd
00000360: 4155 2ebb f618 08bd 2298 5d3d f1de 56bc
00000370: 238d 1d3d 71d5 cd3c e536 7fbc 6f8e 423e
00000380: 4c39 6ebd 52a5 d63d e3c0 a7bc e738 33bd
00000390: 0102 2c3d ac56 8dbc 9a55 cd3d c456 a13c
000003a0: 4025 f23d 78a1 353d f052 9ebd 45b9 723c
000003b0: 334d 133d 0374 ef3d 1161 2dbd c814 843d
000003c0: 3f3a edbd 67b0 88bd 13e8 17be 02e7 a13d
000003d0: 6a5c 303d 941a 35bd fed3 c0bb eec3 7fbd
000003e0: 3e7f 9fbc 651e 25bd e735 b0bc 1a7d 9b3b
000003f0: 4527 0d3e 1a22 08bd 01e9 48bd 6dc6 493d
-0.07493276 -0.064310856 0.09629302 0.01108694 -0.016841365 0.08083833 0.085062794 0.031476937
0.02035708 -0.0550332 0.13659462 0.069308005 0.060952693 0.070232876 0.043372605 0.04912228
-0.048323497 -0.024627931 -0.007538781 0.008881865 -0.030518582 0.00062372483 -0.050212685 0.034988362
0.0956125 -0.051730644 0.02354176 -0.05359782 0.031649496 0.027935106 -0.0731525 0.0039701737
0.016260598 0.008640206 -0.062606625 0.0040945825 0.0077669197 0.11626597 -0.0005542741 -0.046302814
0.022630153 0.012038041 0.012106751 -0.004730265 0.005078402 0.03886534 0.17322887 0.029328156
-0.06937652 0.004063301 -0.08465994 -0.0064444165 0.0865908 -0.03911098 -0.010115437 0.05124552
-0.014000528 -0.11631541 -0.040831022 -0.03410325 0.06290199 0.02280021 0.119973 0.0015647509
-0.0339177 -0.03717912 0.016352233 -0.04842315 -0.06759911 -0.058535464 0.073768854 0.014342908
0.026424807 -0.107736744 -0.0046052136 0.026704881 0.0938969 -0.021056117 -0.07521491 -0.030338276
-0.0026628643 0.024120608 0.09114889 -0.0004873227 -0.028803803 -0.020484043 0.011153937 0.044991333
-0.012910429 0.014885072 0.11322899 0.08761329 0.04771346 0.08316561 0.05227741 -0.22490564
0.04518943 0.07140629 0.047909632 0.027330697 0.09537207 -0.004694672 0.13994282 -0.062251847
0.06134983 -0.061575577 0.04395621 -0.03496266 -0.050297413 -0.022523975 0.07714116 -0.013669787
-0.04973243 0.072207406 -0.021757275 -0.015457293 0.03321844 0.0005923773 0.34776983 0.12949742
-0.042451855 0.16147949 0.022735976 -0.010906308 -0.018716766 -0.030131977 0.032327954 -0.0668054
0.027331509 -0.010460293 -0.042424254 0.008794558 -0.09033716 0.021612221 0.00067439675 -0.030474419
-0.18116346 -0.013909046 -0.0036456583 -0.097961895 -0.023857184 0.049976427 -0.086285934 0.034649506
0.008805706 0.05394214 0.018075958 0.06362896 0.004166385 -0.004861445 0.02701884 -0.012999655
-0.05125745 0.048230037 -0.107819274 -0.006564167 0.05463946 0.0072446303 0.023231596 -0.045135252
-0.063423775 0.027813893 0.041472267 -0.061388053 0.024307134 -0.063610904 -0.07695628 0.008880555
0.11198138 0.045960862 0.039814293 0.014629243 0.055078868 -0.10795338 -0.027362376 -0.13506316
0.055974122 0.084981464 -0.0064792037 -0.10237528 0.0014577409 -0.049731795 0.019604584 -0.051381662
0.034153715 0.012065361 -0.028398108 0.0021623888 0.11717772 -0.057409156 -0.0031483257 0.057982564
0.04756665 -0.022318734 -0.042878985 -0.0010773416 0.053332962 0.025158526 -0.061989985 -0.27849558
0.034221817 -0.106239244 0.0049198796 0.0020055743 0.041638233 0.012747609 -0.079833865 0.09373779
0.07776773 -0.18342307 -0.023460604 0.008708362 0.057825834 0.029213713 -0.012078998 -0.04170827
-0.0026601108 -0.03322693 0.054100163 -0.013114677 0.038464677 0.02512619 -0.015577053 0.18999647
-0.05816011 0.10480751 -0.020477718 -0.04375544 0.0419941 -0.017253242 0.10026093 0.019694693
0.11823511 0.04434344 -0.07730663 0.0148146795 0.035962295 0.11692049 -0.042328898 0.06449276
-0.11583375 -0.06674271 -0.14834623 0.07905389 0.043056883 -0.0442148 -0.0058846464 -0.062442712
-0.019469853 -0.04031219 -0.021510078 0.004745138 0.13784511 -0.033235647 -0.049050335 0.0492615

encoder.2.bias f4 [128]
00000000: 8fbd 03bd 3849 10be d0a8 49bd f5bc c93b
00000010: 7966 2e3d fe64 473e b4e5 523d f029 cbbc
00000020: 5e64 1cbd 5e7d 1c3d ef59 3b3d 7738 9abd
00000030: 6e45 0ebd 4355 fbbb 5470 843b af41 24bd
00000040: 024e d5bc cadc 2f3d 1584 5c3c 2184 883d
00000050: 7d05 d43d 3030 843c 4ff1 bd3d 3e62 fe3d
00000060: 386b 573e 9aa0 8cbb ff4e 0e3e e200 b43d
00000070: 94e9 c73c dadf ef3d 3168 cdbd 8ca2 06bd
00000080: e310 d53c 3cfd d43c 7b42 fcbc d1a8 873d
00000090: b061 203c cf25 433c 8057 393d 1936 31bd
000000a0: d3e6 973a c20e f5bc 2762 25bc 6756 fc3c
000000b0: bfe9 11bd 1bf9 f2ba c84d 1039 e6ca e83c
000000c0: 3497 fb3c 4049 da3c b7d0 53bc 3d84 a6bb
000000d0: 4dca fb3d 0601 26bc 6b60 a43d 8ca2 cc3b
000000e0: 6205 11bc f9b4 213d ce4b e6bc 4567 513b
000000f0: 29fc c9bc 0a6b 9b3d b870 91bd cc0b bc3d
00000100: 4445 2e3c 4a78 c43c 69c5 883d aad7 d4bd
00000110: 4e62 993c 341f 49bc 6373 423d 669c 9cbc
00000120: b2b5 ccbc ad17 19be 2e0f cf3e 6abf 6f3e
00000130: 2d91 a53b 0cb6 25bc 07c9 d5bb d7c3 0abe
00000140: fe6a 053d 9fde 0dbd 61e3 b13c ddf2 d23d
00000150: 8d70 ebb9 61ce ccbc c116 ddbd 5731 cb3b
00000160: 419c 543d d5c5 da3c 62b3 613c af5b d13c
00000170: f51c b6bd 81fb a33e a772 9b3d 561a 823d
00000180: 0239 e93d 8e51 dfbc 14e4 4dbd d0b4 84bd
00000190: 7fda dcbb e3fb 7c3d e50f 053d 9875 7c3d
000001a0: d9ae ff3d 34d1 0dbd a370 313b 9152 85bc
000001b0: e293 7d3c c5be bdba 7564 8fbd fe77 883d
000001c0: e057 e3bc e389 3a3d 4c1a 153c 7686 4b3d
000001d0: 30cc 22bd 3ee8 a3bd de13 62bc c01d f2bd
000001e0: 51ea 05bd 7a05 f5bc 1bbf 3ebd c9c3 5bbd
000001f0: a6d4 9fbd c345 ca3c 0df1 1e3d e259 b6be
-0.0321632 -0.1409043 -0.049233258 0.0061565586 0.042578194 0.19472119 0.051488593 -0.02480027
-0.038181655 0.038205497 0.045740064 -0.07530301 -0.034734182 -0.007670076 0.004041711 -0.040101703
-0.026038174 0.04293517 0.013459225 0.066658266 0.10352609 0.016136259 0.092745416 0.12421082
0.21036994 -0.004291606 0.13897322 0.08789231 0.02440337 0.11712618 -0.100296386 -0.03286986
0.026009029 0.025999658 -0.03079342 0.06623996 0.0097889155 0.01191087 0.045249462 -0.043264482
0.0011589177 -0.029914264 -0.010094202 0.030802919 -0.03562331 -0.0018537374 0.00013761886 0.028417062
0.030711748 0.026646256 -0.012928179 -0.005081682 0.12294445 -0.01013208 0.08026203 0.006244963
-0.008851381 0.03947923 -0.028112318 0.0031952423 -0.024656372 0.075887755 -0.071015775 0.091819376
0.010636631 0.02398314 0.06678278 -0.10392697 0.018723633 -0.012275506 0.047473323 -0.019117545
-0.024988983 -0.14950438 0.4044127 0.23412862 0.0050527067 -0.010114204 -0.0065242085 -0.1355127
0.03257274 -0.034636136 0.021714868 0.10300229 -0.0004490655 -0.025000753 -0.107953556 0.00620095
0.051906828 0.026705662 0.013775678 0.025556413 -0.08892242 0.3202782 0.075902276 0.063526794
0.113878265 -0.027260568 -0.05026634 -0.064798 -0.006739914 0.061763655 0.03248586 0.061635584
0.124845214 -0.03462334 0.0027075193 -0.016274722 0.015477153 -0.0014476409 -0.070015825 0.06663512
-0.027751863 0.045541655 0.009100508 0.04968878 -0.03974551 -0.08003281 -0.013798682 -0.118220806
-0.032694165 -0.029909838 -0.04656897 -0.053653512 -0.07804231 0.024691468 0.038804103 -0.3561545

encoder.4.weight f4 [64, 128]
00000000: 1306 8cbd 6ce6 32bd f900 6d3d 94f0 663c
00000010: da1d c53d 76b4 6e3c 7c91 373d d825 d93c
00000020: a32b e83a d9a0 63bd cb91 58bc 5b3a 9bbc
00000030: 062a 0d3b 851e b93c bcbe 1cbc 45ee 76bc
00000040: 2f31 25bd 2a37 2d3b d8ec e53c 3b3f 1e3d
00000050: 5d79 b7bc 5943 b93d 1130 d4ba c2a8 613c
00000060: 257d 87bd bf22 683d 77ef ad3d 8f5d 04bd
00000070: 041d eb3c a049 633b ba06 99bd 2a97 6e3b
00000080: 0696 abbc 264a 733c 7fdd 9cbc 2d92 87bb
00000090: c072 b3bb 56ce 1a3d 0d80 67bd 5d0a 15bd
000000a0: 9d68 b6bd 791e 3d3c 37ea aabc 953a 90bd
000000b0: ae40 e63c b868 293d f0b4 d0bc e8ac 2c3d
000000c0: f12f c83b 5469 883b 6085 0dbe fd0a 8ebd
000000d0: 7783 10bc 1ea2 9f3d 027d 80bd 544f 8c3d
000000e0: 8651 3b3d c033 c83c f7ac abbd ca8c 8ebd
000000f0: 45fb 9cbd 4820 733b 0897 493d 2d1c 91bd
00000100: 77c7 abbd bc98 933d 228e 483c c6ab 0ebd
00000110: 1be5 98bd 1cde 5dbb 1461 84bc 9629 70bb
00000120: 0529 363d 7cc9 313d 4df2 3cbd 3aa7 853d
00000130: f85b 1abd 0932 2c3d 3181 7f3d 70c8 57bd
00000140: ef1e 2fbd 80db f93d 272b 66bd d903 153d
00000150: 1dce a7bd 48d5 b73b f4f8 21bd 7c52 b4bd
00000160: 30fa b53d 81a3 54bd 317d 52bd 673e babd
00000170: 02d7 f9bc 032b 48bd d61f 7d3d bffc a83c
00000180: 892a 79bd 7a20 803d 2ad0 15be c4f9 063c
00000190: e2c9 9f3d ebc3 19bd e506 183d ac99 633d
000001a0: 46a4 a8bd c207 1c3b be36 91bc 0b45 8d3d
000001b0: 9114 83bd 03f1 cb3c 9d24 09bd 4296 173d
000001c0: 050b bf3d 164c ddbc f2ee 483d 40ae 54bc
000001d0: 9c4d 80bc 676a acbc a83d f2bd 6d63 71bd
000001e0: 87a8 aebd d466 9e3d 985b 353d 381f d43b
000001f0: 7baf 023d 78c8 56bd 8645 c03d e952 20be
00000200: 1f2a b1bd 076b debc 8020 e33c 399d 37bd
00000210: 61b4 1bbd 4e59 84bd 4c11 e53c 2c90 07bd
00000220: 0161 bb3d d9e0 633d 8835 363d fe6a 5ebc
00000230: 5859 5bbc 9732 0a3c 01b7 1a3d 9801 ad3d
00000240: cbf5 2cbd 4e3c 063d f0ad d43c 9976 6dbd
00000250: b2bb cbbc 7b3a b63d 4964 293c a6b7 94bd
00000260: 1345 003d 9349 a3bd 5728 02bd 53a2 4c3d
00000270: 94c2 9f3d 7d26 963d d652 49bd 70b9 223d
00000280: 52d4 e7bd 9518 38bd 31ad a63d 9479 52bd
00000290: 5caa 7dbc a4c8 bc3c b5c5 9fbd 9b9b f23b
000002a0: c9c5 36bd a80e 8d3d ccce bebd 992c 24be
000002b0: 0196 a7bd 1756 44bd f141 4abd 30ee 8dbc
000002c0: 2029 483b b2aa 0a3d c641 56bd a70d 853d
000002d0: 1ed1 d73c def8 bebd 2ba5 f73c 3c2b 42bc
000002e0: d4ff 64bd 356a c2bb d56d 16bd 5c21 2e3d
000002f0: fce8 813d af2a 113d fc1f 9c3c db07 e9bc
00000300: 341e 89bd a5ee 903d ff9d 52bd 8c10 bb3d
00000310: b297 19bd 3e26 4d3d 51b6 6cbd f008 68bd
00000320: e04e 3d3d a996 763c cf0a a1bd e68c 6dbc
00000330: 7448 b83a 5ce8 2f3d fd29 a1bc 48db 7e3d
00000340: 08e2 18bc cb5b 5bbc 1163 67bd 012b d3bc
00000350: 5edd b2bd 4082 03bd 73b4 9a3d f7e4 f4bc
00000360: 3017 a03d 88b9 cb3c e7ef 81bc 3efe ac3d
00000370: c13a bebc d2ef 7bbd b8a8 42bd 8f57 c8bc
00000380: a926 13bc 33e2 253d 7b37 cc3d cc6f bb3d
00000390: 19e9 163c f031 32bd 4ebf 84bc 513d 0fbd
000003a0: 2ed2 e4bd 019c 25bc 36ad d83c 26dc 8a3d
000003b0: a07f 7cbd 5634 c03c a589 d03d 0de9 683d
000003c0: c818 5b3b d667 ddbd 2d3b adbc d161 993d
000003d0: c713 51bd d375 b1bd 69d7 11be 192f 93bd
000003e0: 9666 55bd 3357 363d b74d 9b3d 63e7 603d
000003f0: 912f 333c 50cd 4abc 9370 bb3d a3e4 d5bd
-0.06837096 -0.04367678 0.057862256 0.014095444 0.09624834 0.014569392 0.04481648 0.026507303
0.00177132 -0.05557332 -0.0132183535 -0.018948724 0.002153994 0.02259756 -0.009566959 -0.015071456
-0.04033011 0.0026430585 0.028067037 0.03863452 -0.022396738 0.09046049 -0.0016188641 0.013773145
-0.06615666 0.05667376 0.0849294 -0.032315787 0.02870036 0.0034681335 -0.07471986 0.0036406019
-0.02094556 0.014849221 -0.019148586 -0.0041372986 -0.0054763258 0.037794434 -0.056518603 -0.036386836
-0.08906672 0.01154291 -0.020863635 -0.07042424 0.028107014 0.041359633 -0.025476903 0.042157084
0.0061092307 0.0041629467 -0.1382041 -0.069356896 -0.008820406 0.07794593 -0.06273843 0.06851068
0.045732044 0.024438739 -0.083826 -0.06960447 -0.07665113 0.0037098099 0.0492163 -0.07085452
-0.08387654 0.07206866 0.012240918 -0.034831785 -0.074655734 -0.0033854311 -0.016159572 -0.003664588
0.044472713 0.04340504 -0.046129514 0.065260366 -0.037685364 0.042039905 0.062379066 -0.052681386
-0.04275411 0.122000694 -0.056193497 0.036380623 -0.0819361 0.005610142 -0.03954406 -0.08804795
0.0888561 -0.051913742 -0.051388923 -0.090939336 -0.030498032 -0.048869144 0.06179794 0.020628331
-0.06083158 0.062561944 -0.1463019 0.00823826 0.07802178 -0.037540358 0.03711595 0.055566475
-0.08234458 0.0023808335 -0.017726298 0.068979345 -0.06400407 0.024895197 -0.033482183 0.03700853
0.09328274 -0.02701382 0.049056 -0.012980998 -0.015662007 -0.02104683 -0.11828166 -0.05893271
-0.08528238 0.07734457 0.044276804 0.006473448 0.031905632 -0.052437276 0.093882605 -0.15656628
-0.08650612 -0.027150644 0.027725458 -0.044827674 -0.03801382 -0.06462346 0.02796235 -0.033096477
0.091493614 0.055634353 0.044484645 -0.013575314 -0.013388 0.008434913 0.037772182 0.084475696
-0.042226594 0.032772355 0.025961846 -0.05797443 -0.024869774 0.08897873 0.010338851 -0.07261591
0.031315874 -0.079730175 -0.031776752 0.049959492 0.07800785 0.0733156 -0.049151264 0.03972763
-0.11319794 -0.04494532 0.081385024 -0.051385477 -0.015482511 0.023044892 -0.078013815 0.0074038035
-0.044622216 0.06887561 -0.09316787 -0.16032638 -0.08182908 -0.047933664 -0.049379293 -0.01732549
0.003054209 0.033854194 -0.05230882 0.064967446 0.026344832 -0.093248114 0.030230125 -0.011851128
-0.05590804 -0.005933071 -0.036725838 0.042512283 0.06343266 0.035441097 0.01905822 -0.028446129
-0.06695214 0.07076768 -0.051420208 0.091340154 -0.037498184 0.0500853 -0.057791058 -0.05664915
0.0462178 0.015050569 -0.0786339 -0.014498925 0.0014059679 0.042946205 -0.019673342 0.06222084
-0.009331234 -0.013388584 -0.05649096 -0.025777342 -0.08733629 -0.032106638 0.07553949 -0.029894335
0.07816923 0.024868742 -0.015861465 0.0844693 -0.023221375 -0.061508007 -0.047524184 -0.024455814
-0.008981385 0.040498924 0.099715196 0.09152183 0.009210848 -0.043504655 -0.016204502 -0.034970585
-0.11172901 -0.010107995 0.02644978 0.06780271 -0.06164515 0.023462456 0.101825036 0.05686288
0.0033431519 -0.10810821 -0.021146381 0.0748936 -0.05104425 -0.08665051 -0.14242329 -0.071867175
-0.052099787 0.044516753 0.07583182 0.054908168 0.010936634 -0.012378052 0.09152331 -0.104439996

encoder.4.bias f4 [64]
00000000: bf69 19bd ac36 f2bc 2ac6 41bd 23dc 333c
00000010: ea51 cb3d 6842 873d 1891 df3c 113d 54bd
00000020: 516f 173d bbcb c3bc 976c fdbc a6d5 3dbc
00000030: 4ff8 053d 77d7 263c 15c3 c53d 626c 633d
00000040: 0a46 853d ef01 da3c 9fb2 793d ae70 f73c
00000050: 260b 99bc 16fe 833d c382 f1bb cb1b 843d
00000060: d35e 963d ae73 e3bd b713 e8bc 8024 74bc
00000070: c9ab ed3c 60a8 c2bc 3117 d33d b57b dbbb
00000080: dbf7 223e 9d9c 843c 26a5 6ebd 202e 6a3d
00000090: 7cde 85bd 46fa 113c 3ae8 87bd 444b fe3c
000000a0: d410 fa3d 92b9 02bc 9956 9f3d 8019 d03c
000000b0: a9b6 0cbc 3bdf 87bd e730 8bbd 2102 82bd
000000c0: 59ef 373d a228 64be 676c c4bd 2e4c 32bd
000000d0: e400 ce3d f6fc 83bd 111e a1bd 493e 253d
000000e0: ad57 bb3d 5011 283d e17b 21bd b2e3 ab3b
000000f0: 9656 d63c 2adf 53bd 95db 25bd 554b 82bd
-0.037454363 -0.029567085 -0.047308125 0.010977778 0.09927733 0.06604463 0.027290866 -0.05181605
0.036971394 -0.023900857 -0.030935569 -0.011586582 0.03270751 0.010183207 0.096563496 0.055523284
0.065074995 0.02661225 0.060961362 0.030205097 -0.018682074 0.064449474 -0.0073703243 0.064506136
0.07342305 -0.111060485 -0.028329713 -0.01490128 0.029012578 -0.023761928 0.10307158 -0.0066980966
0.15914862 0.01618796 -0.058262967 0.057172894 -0.06536576 0.0089097675 -0.066360906 0.031041749
0.12210241 -0.007978814 0.07780189 0.025402784 -0.008588471 -0.06634375 -0.06796437 -0.06348062
0.044905994 -0.22281125 -0.095909886 -0.04352968 0.100587636 -0.06444733 -0.07867063 0.040342603
0.09147582 0.041032135 -0.03942478 0.0052456493 0.026164334 -0.051726498 -0.040492613 -0.06362025

encoder.6.weight f4 [3, 64]
00000000: ab4c 67bd f1cf 62bc 61d5 88bd 6c1d adbd
00000010: 05ea b4bd 1d02 02bc 3a01 a2bd 61ab 8dbc
00000020: 4b26 82bc 3564 13bc 4269 31bc 9027 153d
00000030: 97f9 3a3c fb89 9dbd 5a17 ff3d 2916 8dbd
00000040: 1711 d83c b9af 5fbd fed2 f2bb f975 84bd
00000050: af51 d13c 9228 1abd 36b4 153e 1bab 41bd
00000060: df9f d0bd f8f3 f3bd c399 9d3d 95c2 b33d
00000070: 89da 76bd dd14 84bd 9c80 1cbc 9432 3ebc
00000080: 61e4 2fbc d161 2fbb 9228 f83d 0474 ecbd
00000090: ae3d e23c 5793 cabd 8ccf 74bd 0010 61bd
000000a0: 8248 033e b693 2dbd 4e7e 9dbd 07ea 0b3e
000000b0: dc7d ed3d 8fc0 f23c 089f c5bd 3404 e63d
000000c0: eea1 5dbd e216 c2bc 3524 a33c a74a debd
000000d0: 94a6 43bc 44a4 b13d a267 fc3c 87cd f5bd
000000e0: cdcd e43d 2904 efbd 1064 c93d 4d56 3d3c
000000f0: bdcc 4ebd efed 42bd 6dc2 663d 74f4 a5bd
00000100: 9a61 abbd 2950 e53b 44ae 0ebd 9b06 833d
00000110: 0ab8 833b 4fa6 7f3d 601c a7bd 2c86 79bd
00000120: 870b c0bc a1df 373d 309b 9a3b 49de 93bd
00000130: 1e4f 4d3d 7ffe 5cbd a745 f0bd 5f5c 8d3d
00000140: 0610 a53d c743 413c b23a 963b 9de3 eb3d
00000150: ee6e be3c 89fa 33bd 406f 4ebc 4940 e23c
00000160: 4978 70bd e671 2abd c21e e9bc 4ba1 c63d
00000170: 14c1 78bd 4ad5 04bd 1c88 8b3d 2c1a da3c
00000180: 4d15 193e b6d9 df3c b714 8cbd e945 7abd
00000190: c96c 0b3d 3599 53bd a369 89bd 25ab e73d
000001a0: 4ef7 10be b1e4 cabd 4c16 803a d51a cb3c
000001b0: c00f bebd 67a9 913c 92df 4a3b 7ae3 853c
000001c0: 0125 b2bd 56ad 2d3e bd45 46bd d6e6 9d3d
000001d0: 05c0 f7bd a28c 7d3d d500 01be 21d2 acbd
000001e0: 900f bf3d f462 0cbd c60d aabd af63 4cbd
000001f0: ae27 7b3d 36b5 003e 05ba 693d 2622 973d
00000200: e096 1bbd 1372 7abd c901 cc3d 2b3f d3bd
00000210: 266d da3d 00d9 4abd d4cc babd 9b69 e7bd
00000220: e9f8 df3d 3ed0 243e cb92 9abd a16b a23b
00000230: f086 f03c e920 17bd aef9 c03d d2ab 8ebd
00000240: 5197 343d ea6f 5bbd b1b9 97bd 5e28 f3bd
00000250: bc2b 043d 4249 c73d 04eb 76bc 88ee ba3d
00000260: 4633 d0ba c622 9cbd 198f 1bbd 940f a73d
00000270: ef5d b9bd 807b e13d d981 113d efd9 eb3c
00000280: a33e c43d b652 db3d 8564 20bc 8c20 c7bc
00000290: 681f d8bd fc15 f73d e56c ccbd 8270 4bbd
000002a0: dc26 913d e551 a63c 68ee 93ba ccd0 f1bc
000002b0: b72f b1bd 7c0e fbbd 349b ba3c d8f9 84bd
000002c0: ae42 153d 7e58 8a3b c677 39bd 4c8d 893d
000002d0: 84d4 67bc 41e2 e83c bad0 d1bd a6c3 1d3d
000002e0: 2833 973d 7b52 29bd 6d50 a93d f03a 9fbb
000002f0: 6d77 d7bb 57ea 073d 2f9f 93bd 0575 973d
-0.0564696 -0.013843522 -0.06681324 -0.084528774 -0.08833698 -0.007935074 -0.0791039 -0.017293634
-0.0158874 -0.008996059 -0.010828318 0.036414683 0.011412046 -0.07692333 0.12455626 -0.06888992
0.026375337 -0.05461094 -0.007410406 -0.06467814 0.025551645 -0.037636347 0.14619526 -0.04728232
-0.10186743 -0.11911768 0.07695343 0.08777348 -0.060267005 -0.06449292 -0.009552147 -0.011608738
-0.010735602 -0.0026761184 0.12117113 -0.11545566 0.027617302 -0.09891384 -0.059768245 -0.0549469
0.12820628 -0.042377196 -0.07690106 0.13663493 0.115962714 0.029632835 -0.096494734 0.112312704
-0.054109506 -0.023692552 0.019914726 -0.108540826 -0.011941571 0.08673909 0.030811135 -0.12002092
0.11172066 -0.11670715 0.098335385 0.01155622 -0.050488222 -0.047590192 0.056337763 -0.08103266
-0.083682254 0.006998081 -0.03483416 0.06397744 0.004019742 0.062414464 -0.08159709 -0.060918972
-0.023442997 0.044891004 0.004718207 -0.07220132 0.05012428 -0.053953644 -0.11732035 0.06902384
0.08059697 0.0117959445 0.0045846337 0.11518023 0.023246255 -0.0439401 -0.012599766 0.027618544
-0.058708463 -0.04161253 -0.02845705 0.09698733 -0.06073101 -0.03242997 0.0681307 0.026623808
0.14949532 0.027325492 -0.068398885 -0.061101828 0.034039292 -0.05165978 -0.06709602 0.1131194
-0.14156839 -0.09906901 0.000977227 0.024793068 -0.09280348 0.017780973 0.0030956012 0.01634382
-0.08698464 0.16960654 -0.04840635 0.07710044 -0.12097172 0.061901696 -0.12597974 -0.084385164
0.0932914 -0.034274057 -0.08303408 -0.049899753 0.06131714 0.12569126 0.057062168 0.0737956
-0.037985682 -0.061143946 0.09961278 -0.10314783 0.1066535 -0.049523354 -0.09121099 -0.112994395
0.10936148 0.16095063 -0.0754753 0.004956678 0.029361218 -0.03689662 0.094226226 -0.06966366
0.04408962 -0.053573526 -0.07408465 -0.11872934 0.03226827 0.0973077 -0.0150706805 0.091275275
-0.0015884421 -0.0762382 -0.037978265 0.08157268 -0.090511195 0.11009884 0.035524223 0.028790442
0.095822595 0.10709135 -0.009789591 -0.024307512 -0.10552865 0.1206474 -0.099817075 -0.049667843
0.0708749 0.020302722 -0.001128626 -0.029518507 -0.08651679 -0.12258622 0.022779085 -0.064929664
0.036440544 0.004221975 -0.04528024 0.06716403 -0.014149789 0.028428199 -0.102448896 0.038516663
0.07382804 -0.041338425 0.08267293 -0.004859321 -0.006575516 0.03318247 -0.07208096 0.073953666

encoder.6.bias f4 [3]
00000000: 6b3f babb c827 963d 89e0 f23c
-0.0056838295 0.073318064 0.029648082

decoder.0.weight f4 [64, 3]
00000000: dca5 973e 9aec 63bf 570c 903d f7b2 07bf
00000010: 885d 1f3f c745 e5be 12e0 063f 6649 66bf
00000020: 1395 34bd a180 eebe 93d1 e13d 2e64 febc
00000030: 9b82 c23e 45a4 ce3e 1b64 f5bd af0e e4be
00000040: ad86 f83e 77ce 903d bbc0 343e 26f8 703f
00000050: 75d2 1cbf 63dd ed3e 4c06 9b3e fd15 073f
00000060: 7a85 edbe 90e2 5fbe be7e 72bd 14de 503e
00000070: 43bb 5c3e 0c6b 823e 8943 f43e 4ebe 19bf
00000080: a3a4 d9be 69e6 853e 1ced 35bf bab0 c03e
00000090: 5ce6 133e c6f1 fd3e c6de 533e 075c ad3c
000000a0: 6103 06be 1e0f e0be c717 053f d718 b43e
000000b0: eff9 5dbe 3936 82bd 19c4 11bf a26e c9bc
000000c0: 06ef a6bd a882 cbbe 8834 003f a1b5 fbbe
000000d0: c553 643f 42d6 8cbd 1cbe e3bd 8316 2dbe
000000e0: d468 0bbf 1919 133f 60b5 643f f563 93be
000000f0: 10b4 f1be 529d 1b3f 7668 f53b 2c32 8fbe
00000100: 2efb 2a3f 479f e9be b2dc f8be 85b9 d2be
00000110: 7620 da3e 6033 1f3f 1c90 6cbd 50b8 efbe
00000120: 5133 a6be be80 6b3e ffbc 233e f469 24bf
00000130: d1bf 5dbc 65cd c73e 9c54 9cbe a922 3bbd
00000140: 4598 18bf af4a f039 6ea5 423f 5a85 873e
00000150: 2c49 b4be 1824 f8be 255d 0a3e d2d3 113f
00000160: eb71 623e 6aa4 e6be b6e3 513d 2229 5fbf
00000170: b7a3 3f3e f4f1 0c3f cb95 3a3f a820 95be
00000180: d81d 02bf c634 473f ae2b 14bf ef9b adbd
00000190: 8de0 c7be df68 19bf 0e4b 143f affa b23d
000001a0: d75e d43d 5d8b debd 6011 54bf 3d0e ab3e
000001b0: fdf9 f03e aa48 91bd 6ed4 d2be e29e 213e
000001c0: 1040 0cbf 214e d2be f29b 253d 2721 213f
000001d0: 495f a3be c37c 113f d4ed 083f 91bc 593e
000001e0: 75cb 543e 2ae6 2fbf 7663 0dbf 591d bfbe
000001f0: 5b47 173f 946e 963e c676 8a3e 9263 1cbf
00000200: f0b7 4f3e 07f6 1f3e 79d2 5f3f 6f4d 013f
00000210: db94 d63d 27f9 14bf 9255 6dbe af7f f1be
00000220: 7c8f d9bc a647 0dbf 8b55 193f 10d6 aabe
00000230: 043f 0dbe 4c31 803e 95c9 e23e a07f e93e
00000240: 2700 8b3e a4d3 c13e 1b50 073f 4186 bc3e
00000250: 60c2 40bf ec94 bbbc 68b2 60be 0461 e8be
00000260: 0476 d3be 5e21 f03e 17dc 60bf 497a ba3e
00000270: 1ef2 95be b958 b9be c83a 04bf b61d 0ebf
00000280: 5dbb febe a822 a53e cce3 f43d d0e5 103f
00000290: ee22 cb3d de57 d43e a036 51be 5b23 f73e
000002a0: 4fc8 83be 62dd 11bd eed7 ad3e 199e c73e
000002b0: d6ab bb3b eb66 463e cd85 c6be 8cb5 04bf
000002c0: dd2b d53d fe5e c4be 0a75 f0be 8516 dfbe
000002d0: e43f 4d3e 31d6 f93e ebb1 9bbe c24e c1bd
000002e0: 5efa 0bbe 23e8 f23e 76ae 913e 46e1 ff3e
000002f0: a19d c5be b632 bf3b 3d6f ffbe 4a1b e5be
0.29618728 -0.890329 0.07033604 -0.53007454 0.6225209 -0.44779798 0.52685654 -0.8995575
-0.04408748 -0.4658251 0.11026301 -0.031053629 0.3799027 0.40359703 -0.11981984 -0.44542453
0.4854025 0.0707063 0.17651646 0.94128644 -0.6125863 0.46457967 0.30278242 0.52767926
-0.46390897 -0.2186377 -0.059202902 0.20397216 0.2155581 0.25472295 0.47707775 -0.60056007
-0.4250842 0.26152351 -0.71064925 0.37634832 0.14443344 0.4959852 0.2069045 0.021162046
-0.13087226 -0.43761533 0.51989406 0.351752 -0.21677373 -0.063579984 -0.56939846 -0.024588887
-0.08151059 -0.3974812 0.50080156 -0.4916201 0.8919032 -0.06876804 -0.11120245 -0.16903119
-0.5445683 0.5746017 0.89339256 -0.287872 -0.4720769 0.60786927 0.0074892594 -0.27967966
0.6678952 -0.4562933 -0.48605877 -0.41157165 0.4260289 0.6218777 -0.05775462 -0.46820307
-0.32461026 0.2299833 0.15990065 -0.6422417 -0.013534502 0.3902389 -0.30533302 -0.04568735
-0.59607345 0.0004583201 0.76033676 0.26468927 -0.35212076 -0.48465037 0.13512094 0.5696384
0.22113769 -0.45047313 0.051242553 -0.8717214 0.18714796 0.5505669 0.72884816 -0.29126477
-0.5082679 0.778149 -0.5787915 -0.084770076 -0.39038506 -0.59925646 0.57927024 0.0873922
0.10369652 -0.10866425 -0.8283901 0.334093 0.47065726 -0.07093938 -0.41177696 0.15783265
-0.5478525 -0.41075233 0.040431924 0.6294121 -0.31908634 0.56830996 0.53487897 0.21263339
0.20780738 -0.6871058 -0.5522989 -0.37327078 0.59093255 0.2938124 0.27043742 -0.6108943
0.2028501 0.15621196 0.8743053 0.5050878 0.10477611 -0.58192676 -0.23177174 -0.47167727
-0.026557676 -0.5518745 0.59896153 -0.33366442 -0.1379357 0.2503761 0.4429442 0.45605183
0.27148554 0.3785678 0.52856606 0.36821178 -0.7529659 -0.02289816 -0.21943057 -0.45386517
-0.41300976 0.46900457 -0.8783583 0.3642142 -0.29286283 -0.36200503 -0.51652193 -0.55514085
-0.49752322 0.32253003 0.11957511 0.56600666 0.09918772 0.41473287 -0.20430994 0.48269162
-0.2573876 -0.035611518 0.33953804 0.38987806 0.0057272715 0.19375198 -0.38773957 -0.5183952
0.10408757 -0.38353723 -0.46964294 -0.4357187 0.20043904 0.48796228 -0.30409178 -0.0943885
-0.13669726 0.4744273 0.28453416 0.49976557 -0.38596824 0.0058349026 -0.49889556 -0.44747382

decoder.0.bias f4 [64]
00000000: 2e78 ccbc 9443 ce3d 2910 873d 03c1 f3be
00000010: 7445 c73e 50a0 e13e d445 e3be 5295 0bbe
00000020: b519 853d c631 5b3e f10f d9be 2079 8bbe
00000030: ce31 853e b68e 6d3c 8141 073f bec9 14be
00000040: 363d e43e 1659 e5be e840 8cbe 64f8 90be
00000050: 6206 cabe 7a61 133f 2801 05bf d0d7 06bf
00000060: 08b9 70be 337d c63e 6612 ab3e 569a acbe
00000070: 1664 463c a5b0 143e 9d3f 953d 262e 82bd
00000080: 384c 323e c70c a4be d353 23bc 5115 0b3e
00000090: 65d9 bd3d 79d4 ca3e d704 c03e 9368 0e3e
000000a0: 5a91 6cbe c032 ecbe f687 833e 3914 ac3e
000000b0: 1235 973e 5095 e5be 2f5a 06bf 09f2 2c3e
000000c0: 6e73 a3be b74d a0be 359e 3abe 585c 003d
000000d0: 5d42 143e c9d0 d6be 6844 06bf 72bc 93be
000000e0: ccff 05be 82d0 cb3e 0ac2 8a3e 701c f83e
000000f0: afd6 953e 17de 023f dc0f 1e3e 12cb f43e
-0.02495965 0.10071483 0.06594879 -0.47608194 0.38920176 0.4406762 -0.44389212 -0.1363118
0.06499044 0.21405706 -0.42394975 -0.2724085 0.2601456 0.014499357 0.52834326 -0.14530084
0.4457795 -0.4479453 -0.2739327 -0.28314507 -0.39457995 0.5757061 -0.5195489 -0.52673054
-0.23508084 0.38767394 0.33412474 -0.337115 0.012108823 0.1452051 0.07287524 -0.06356458
0.17411888 -0.32040998 -0.009968716 0.1358235 0.0926998 0.3961523 0.37503693 0.1390708
-0.23102322 -0.4613247 0.25689667 0.3360918 0.29532677 -0.4484048 -0.5248136 0.16889204
-0.31924003 -0.31309292 -0.18224414 0.031338066 0.1447844 -0.41956165 -0.5244813 -0.2885471
-0.1308586 0.39807516 0.27101165 0.48459196 0.29265353 0.5112013 0.15435737 0.4781118

decoder.2.weight f4 [128, 64]
00000000: 6da7 563d 5187 77bd 3659 283e 8844 42bd
00000010: 5fd9 8a3d 82c1 c1bc 6953 ce3b f04e 18bd
00000020: 3bb2 87bd a2fb a63d aa2f 8ebd d6d8 b4bd
00000030: 0fe6 76bd a1ed 2a3e d7b5 f63d db24 c5bc
00000040: 302f b9bd d87c f0ba 1262 3a3d b987 fc3d
00000050: 0d15 adbc 4c94 9d3d 4514 7d3d 374f 0d3e
00000060: beb8 90bb 68d1 f43c 7a77 ea3d c93a 71bd
00000070: 8933 89bc 74b3 1c3e 7c3d 72bd 6e5a 34bd
00000080: 8322 9c3d 6ac1 c8bd 30bf 763e f580 acbc
00000090: fbfe c03d 0335 423d 7de2 ddbc badc 09bd
000000a0: a8ca e33d eab8 de3b ce4e b63d 400e b33d
000000b0: f56d a7bc a67f f83d f04c 8bbd d573 103c
000000c0: 9107 ebbd 6232 3a3d c578 00bd 38f9 263d
000000d0: 2aab b53c a6f8 db3c c923 e33d 4d3c 30be
000000e0: 6dde 5c3d 06fe 61bc 8db2 14be 210f a9bd
000000f0: 52bc 413e f9f9 e0bc 5ad7 ae3d 78c4 683c
00000100: ad91 eb3d 5c49 083e c934 02bd e9b9 07be
00000110: 8c95 9a3d 38b3 b7bc bf9d 6fbd ab97 2d3c
00000120: f37c d63d 0a4c b13c ac06 6a3b c84e 99bd
00000130: 2ee9 a63a 7079 65bb 1a2b 0b3e 5133 adbd
00000140: a13d 9abd 2a20 843d 0208 1bbd 5c94 a1bc
00000150: ff51 6e3b adfc 193d f370 5b3d cc21 e8bd
00000160: 83aa f7bd ea8e e43c 6b2f 2b3e c502 aabd
00000170: d0f2 383d 7917 55bd b971 1dbb d9ad d13d
00000180: b82f ba3c 8aa6 3bbd 9846 30bd 62be f2bd
00000190: 7d4f 373c 1f0c 353d 6bc4 153e 4c7c 4bbd
000001a0: aa5b f13d 71e1 2bbd 6d2f 853d daf7 06bd
000001b0: d39b 253e 3eaa 8d3d 017f 0a3d 8256 eabc
000001c0: b286 6abe 0ffb b43b b9fd 093e 6002 563d
000001d0: e488 a3bd ff5c 243c b18a b43c 29b0 b9bd
000001e0: 9957 0fbe cd8f 47bd d839 143d 7172 9abc
000001f0: 407d 983e 6bde dfbc 230b 20bd 0d85 693d
00000200: 8e8b 553e 5da2 183d cb8f 533e e638 90bc
00000210: ed8e ad3d 19b2 cdbd e5a3 1bbc 83aa b8bd
00000220: 28a9 2a3d 5d25 863d 6d25 2dbd b37c a23d
00000230: bca0 d33d af2c a43d b9ce 7e3c 43d2 c1bd
00000240: f5a5 fb3d 3686 e7bd c595 4bbd cc5c eabd
00000250: 2c03 a4bc 93b7 ee3d 6faa 39bd d21d 213d
00000260: 7606 95bd 25a0 b9bd 36ca a33d cc65 a83b
00000270: 0410 873c 80b5 8fbd 1c37 2a3e f7ec 8d3d
00000280: fbc0 5dbd ff31 053d 75ff bdbd 61c9 aebd
00000290: 49c5 813d 4fdf ea3d 705a 86bd d178 18be
000002a0: 9ac6 063e ef8d 50be 0dac 5d3d fcf3 5fbd
000002b0: a200 663e 1d1a 85bd d259 d6bb ceab 443c
000002c0: 679c edbc e1b0 8dbd 00c5 063e fd0f 28bd
000002d0: 950b 003e bdd3 b8bc debd f5bd 0e20 1d3d
000002e0: c279 07bc 70e8 8f3b db60 b83c af28 c63d
000002f0: bfc2 fdbc f679 bebd 75d5 c0bc a7fe ba3d
00000300: 89f6 173e 371f 72bc d263 d03d dcb0 d2bd
00000310: 8637 813d 56d4 edbd 3680 f63c 7b52 8a3d
00000320: 8550 61bb 4abc d0bd 6848 4a3d be85 79bd
00000330: fbd5 29bd 7ebe a33d 2fd4 3bbd af99 fbbc
00000340: 7427 e9bd af26 1b3d d268 9ebc b285 5cbd
00000350: a5a3 c4bd 3166 343d 4355 783d 50b1 ba3d
00000360: 0a0a d33b e341 b5bd e37d 143e 8332 59bd
00000370: 0d45 e1bc 2481 0f3e a271 503c 58bb 863c
00000380: 92e2 303d c265 e43d 14de 9dbb 1b71 6bb9
00000390: 3de2 aebd 7877 bc3d c3a0 143e 36bb 073e
000003a0: a1c0 74bd 266a 96bd 5044 f138 0c62 ee3c
000003b0: 7a85 133e bc39 253d 7881 c6bd bb5f 0ebd
000003c0: cee5 86be 4ac1 b43d f14f d93c 1de9 7fbc
000003d0: c1ba 8fbd 5c97 c4ba c335 fabc 0354 3bbe
000003e0: 816c efbd 1007 773d 7272 a53d ff8b efbc
000003f0: 1c8e 653d 98e0 99bd c317 093e 2e2d f73d
0.052405763 -0.060431782 0.16440281 -0.047428638 0.067797415 -0.023651842 0.0062965644 -0.037184656
-0.06625792 0.08153464 -0.06942685 -0.08830421 -0.060277995 0.1669221 0.12046402 -0.024065426
-0.090422034 -0.0018347753 0.045503683 0.123305745 -0.021128202 0.07694301 0.06178691 0.1379975
-0.0044165542 0.029885009 0.114485696 -0.058893953 -0.016748207 0.15302831 -0.059140667 -0.044031553
0.0762377 -0.09802516 0.2409637 -0.021057585 0.09423634 0.047413837 -0.027085537 -0.033657767
0.11122638 0.006796946 0.089017496 0.08742952 -0.020438174 0.12133722 -0.06801784 0.008816679
-0.114760526 0.045458205 -0.031365175 0.040765017 0.022176344 0.026851963 0.1109081 -0.17210503
0.05392306 -0.013793474 -0.14521237 -0.08254839 0.18919495 -0.027462946 0.08537169 0.014206998
0.11502395 0.13309234 -0.03178862 -0.13254513 0.07548055 -0.022424325 -0.058500048 0.0105952425
0.10473051 0.021642704 0.0035709543 -0.074857295 0.0012734288 -0.003501501 0.1359066 -0.084570535
-0.07531286 0.06451447 -0.037849434 -0.019724064 0.0036364791 0.037594486 0.053574514 -0.11334571
-0.120930694 0.027900178 0.16717307 -0.083013095 0.04515344 -0.05202434 -0.0024024083 0.10238237
0.022727832 -0.04581312 -0.043036073 -0.11852719 0.011188385 0.044201013 0.14625709 -0.049679086
0.11785062 -0.041963045 0.065031864 -0.032951213 0.16172723 0.06917237 0.033812527 -0.028605703
-0.22902945 0.0055230926 0.13475694 0.05224836 -0.07985094 0.010031938 0.02203879 -0.09066803
-0.1399826 -0.048721123 0.036187977 -0.018853398 0.29783058 -0.027327737 -0.03907312 0.057011653
0.20854017 0.037264217 0.20660321 -0.017605256 0.084745266 -0.10043735 -0.009499525 -0.090168975
0.041665226 0.06550095 -0.04227202 0.07933941 0.10333392 0.08016335 0.015552216 -0.09463932
0.12287513 -0.113048956 -0.04970338 -0.11443481 -0.020021044 0.11656108 -0.045328554 0.03933508
-0.07276623 -0.09063748 0.07997553 0.0051390883 0.016487129 -0.0701704 0.16622585 0.06929963
-0.05413912 0.032518383 -0.0927724 -0.08534504 0.06336457 0.11468374 -0.06560218 -0.14889838
0.13161698 -0.20366643 0.05411916 -0.05467604 0.22461179 -0.06499121 -0.006541469 0.012003852
-0.029005243 -0.069185026 0.13161087 -0.041030873 0.12504418 -0.022561902 -0.11999105 0.038360648
-0.008268775 0.0043917224 0.022507122 0.096757285 -0.030976651 -0.09300606 -0.023539284 0.09130602
0.1484014 -0.01477795 0.10175289 -0.102876395 0.063094184 -0.116127655 0.030090433 0.06754013
-0.0034380269 -0.10192163 0.04938546 -0.060918562 -0.041463833 0.07995318 -0.04585665 -0.03071293
-0.11384478 0.03787869 -0.019337092 -0.05383844 -0.09601525 0.04404277 0.060628187 0.09115851
0.0064404057 -0.088504575 0.14501147 -0.053026687 -0.027498746 0.14014107 0.012722405 0.016446754
0.043184824 0.11152221 -0.0048177335 -0.00022453482 -0.08539245 0.09202474 0.1451445 0.13255009
-0.059754018 -0.07344465 0.000115045 0.029099487 0.14406386 0.040338263 -0.09692663 -0.034759264
-0.26347202 0.088259295 0.026527377 -0.015619543 -0.07018042 -0.0014998722 -0.030543214 -0.18293767
-0.11690617 0.06030947 0.08078469 -0.02924156 0.05604373 -0.07513541 0.1338797 0.12069164

decoder.2.bias f4 [128]
00000000: d003 d13c 18db 113e 89be 113e 0e05 043e
00000010: 5f69 6d3d 41d9 c43d c4d6 58bd b5dd d23d
00000020: 9ed5 d23d 1b27 d2bd b7fc e53b 6dd1 1dbd
00000030: 5c5c 473d 2a64 d53d 4077 a2bd 6035 57bd
00000040: a833 0ebd a19f 76bd 313a 503c 5679 bcbc
00000050: 9a19 553d 6e5e 8c3d e44b 57bd c791 0dbe
00000060: 920a a93d 4f4b b7bd 35e2 efbc 88a6 cb3d
00000070: 8583 a4bd 6a84 11be aec1 413d 7bae b9bd
00000080: 20bf 03be 2d63 c0bd 302c c7bc ea06 cebd
00000090: 922d d3bd a8e9 8dbd 0c50 fdbd c2f8 02be
000000a0: f404 863d 67c1 e6bd e376 a5bc 8a81 22bd
000000b0: 106b dfbd 2080 eb3c a1f2 e63d 5364 18bd
000000c0: e4e8 b3bd 1d6e a9bd ace4 0dbd 29ac 8dbc
000000d0: c992 043d a2ed 63bd a74c 573d e8b2 ae3d
000000e0: 3a33 cc3c c7db 913d abcb 133d 8701 84bd
000000f0: e313 66bd ac28 bfbc 5551 8c3d 8a5b 03bd
00000100: bd2a d43d 9465 3e3d c7cb 073e e4c6 983d
00000110: 5701 673b 09e4 523d ae9a 82bc 9bf4 d13d
00000120: bddc 063e ebe0 a83d eae7 8c3c 4819 a838
00000130: bf77 e03d b3c1 01bc 2d55 f8bd e74b d0bd
00000140: d759 543d a471 0abe 5f34 683b 4e9d cf3d
00000150: e320 b33d 4950 03bd 96eb 6abd 28c3 bd3d
00000160: ac10 6d3c 56c6 f2bc 19b5 923c 3443 99bd
00000170: e214 55bd a4b1 743d faea 20be 9300 4f3d
00000180: faa8 cebd 2406 e93d c6c8 063e e891 d43c
00000190: c1e5 f1bd 2817 023e 14e8 0a3e a4c2 953d
000001a0: 4b69 0b3e e6cb 99bd a4f6 b8bd 90a9 8f3c
000001b0: ec59 93bd 106a 8a3d 6f1e a2bd 1daa a73d
000001c0: 8586 ff3c a336 073d 1226 98bd 237b abbd
000001d0: 1a0a 64bd 057e 2bbd c541 37bd b720 c0bd
000001e0: 5fab d4bd 5c6f bdbc 79fc a4bd 4942 26b9
000001f0: 0f96 bbbd 0865 13bb 4fe5 8c3d a58f 5fbc
0.025514513 0.14243734 0.1423284 0.12892553 0.057961818 0.096117504 -0.05293919 0.102961935
0.102946505 -0.10261365 0.0070186513 -0.038529802 0.048672065 0.104194954 -0.079329014 -0.052541137
-0.034717232 -0.060210828 0.012709186 -0.023007076 0.05202637 0.068539485 -0.05256261 -0.13825141
0.08253969 -0.08949911 -0.029282669 0.09943873 -0.08032898 -0.14210668 0.047303848 -0.09066483
-0.12865877 -0.09393916 -0.024313062 -0.100599125 -0.10311426 -0.06929332 -0.12368783 -0.12790206
0.065439135 -0.11267357 -0.020198291 -0.03967432 -0.109090924 0.028747618 0.112767465 -0.03720505
-0.08784655 -0.082729556 -0.034641907 -0.017294006 0.032366548 -0.055646546 0.052563336 0.085302174
0.02492677 0.07121997 0.036082905 -0.06445604 -0.05617131 -0.023334824 0.0685145 -0.03206972
0.10359714 0.04648359 0.13261329 0.074598104 0.0035248601 0.051487003 -0.015942898 0.10251733
0.13170142 0.08246025 0.017200429 8.015573e-05 0.1096034 -0.007919717 -0.12125621 -0.10170727
0.05184349 -0.13519913 0.0035431606 0.10137425 0.08746507 -0.032058988 -0.05735358 0.09265739
0.014469307 -0.02963559 0.01790862 -0.07483521 -0.05202187 0.059739724 -0.15714636 0.050537657
-0.100908235 0.11378124 0.13162526 0.02594848 -0.118114 0.12704146 0.13565093 0.073125154
0.13614385 -0.07509594 -0.09031418 0.017536908 -0.071948856 0.06758511 -0.07915961 0.081867434
0.031192074 0.03301109 -0.07429136 -0.08373096 -0.055673696 -0.04186823 -0.044740457 -0.0938124
-0.10384249 -0.02312439 -0.08055968 -0.00015855687 -0.09159481 -0.002249064 0.06879675 -0.013645087
