models/tanh_train/best_2.pth (torch_old, 343618 bytes, 16 tensors)

encoder.0.weight f4 [256, 4]
-0.28160995 0.044304103 0.12732105 -0.20169991 0.3077119 0.32759157 -0.32539898 0.074580275
-0.40231144 -0.048191592 0.18957783 -0.103890724 -0.2675551 0.21395467 0.26023567 -0.32834768
-0.6355303 -0.5380611 -0.20599051 0.42386195 -0.21801771 -0.37932974 -0.1465474 -0.035505224
-0.033570796 -0.038128503 -0.25044134 0.4964415 -0.047961816 -0.16794291 0.35161847 -0.075198464
0.21436529 0.39336666 -0.40393132 -0.28364038 0.0837515 -0.30883622 0.06550044 0.21354471
0.20196451 -0.21505278 0.0047033946 -0.6825745 0.25278658 -0.105354965 -0.076776735 -0.35777465
-0.32854065 0.529153 0.021675328 -0.073455356 -0.07821286 -0.30624264 0.06198651 -0.9337375
0.1546868 -0.39767218 -0.32757288 -0.27064046 -0.14610894 0.43554088 0.15592067 0.4634406
-0.48605603 -0.35369012 -0.04061838 0.03953968 0.49805626 -0.022640066 0.17602627 0.21248852
-0.36720416 -0.57780075 0.13259475 0.40324306 0.30029398 0.5216161 -0.14740004 -0.0044925995
0.16752815 0.4474678 -0.077588625 0.2900859 0.33497685 0.31615126 -0.17683233 0.13787587
-0.013958394 -0.58975166 0.30626577 -0.14058922 -0.14685932 0.38815627 0.0546831 -0.33308887
-0.32458687 -0.08206025 0.052854255 -0.5473783 0.4247883 -0.20633438 -0.13570988 -0.48387843
-0.4723812 0.21028481 -0.43115947 -0.7914255 0.25938863 -0.34262365 0.12856108 0.35421103
-0.3727917 -0.09937749 -0.19824344 -0.5554466 -0.5511665 -0.29480535 -0.13539977 0.39966837
0.47592494 -0.07455185 -0.3718835 0.018360605 -0.27202508 0.5099062 0.20165306 0.047674004
-0.007822383 0.38440606 0.017360983 -0.26791328 0.14111112 0.092160866 0.37621653 0.6056603
0.3253688 0.38894206 0.08860951 0.5463071 0.16074431 0.5804891 0.0046756887 0.16567314
-0.43766874 0.05321474 -0.04426052 -0.27638775 -0.053735163 0.19816032 -0.09283766 -0.32121232
-0.10851176 0.4073828 -0.07782989 0.015088064 0.40128314 -0.33661905 -0.3410438 0.37328595
0.3152289 0.17591922 -0.043077487 -0.40431166 -0.30605435 0.39389127 -0.046168912 0.042462382
0.28809336 -0.012395123 0.08639593 0.27666494 0.33212304 0.1407849 -0.46304718 0.33265683
0.17086828 0.35372117 0.103728995 -0.1646759 -0.40669286 0.14764765 -0.269452 0.46532768
0.24674086 -0.3532648 0.07875478 -0.9874284 -0.068654776 -0.17084336 0.49968815 -0.18525282
0.090507396 0.40344533 0.22812805 0.098409265 -0.23347524 0.48940137 0.13426635 0.36401823
-0.0115628615 0.21265118 -0.008179682 0.602231 -0.035985716 0.2889284 -0.09202567 0.36915362
0.06817591 -0.44736978 -0.19241889 -0.23653524 0.33693665 0.10540103 -0.15525876 0.009378547
-0.19118375 -0.22612496 0.27947217 0.35029593 -0.3296354 -0.5179946 -0.18259832 -0.37750494
0.3124357 -0.42566773 -0.4248431 -0.23176292 -0.035499003 0.21820477 -0.53828245 0.5804553
-0.46249035 0.17957349 -0.15732439 -0.53817374 0.17951158 0.33753896 0.43302357 0.47345674
-0.067486435 -0.12380784 -0.0075669787 -0.38135177 0.4113376 -0.28645906 0.072432496 -0.4354007
0.55595 -0.16943865 -0.055984017 0.06751818 0.006691842 -0.28870222 0.44740182 -0.08858574
00000000: 2e2f 90be 3878 353d 7360 023e 6c8a 4ebe
00000010: 6a8c 9d3e 15ba a73e b29a a6be 8bbd 983d
00000020: c4fb cdbe 8c64 45bd b120 423e a9c4 d4bd
00000030: fbfc 88be ef16 5b3e 9c3d 853e 301d a8be
00000040: 1db2 22bf 5fbe 09bf 2def 52be 6f04 d93e
00000050: 0940 5fbe 8237 c2be 8610 16be ed6d 11bd
00000060: 8881 09bd a22c 1cbd d939 80be 952d fe3e
00000070: 9c73 44bd 3af9 2bbe 5607 b43e a701 9abd
00000080: 9382 5b3e 5b67 c93e 16d0 cebe 5039 91be
00000090: e885 ab3d c81f 9ebe 1825 863d 77ab 5a3e
000000a0: c9cf 4e3e cc36 5cbe ef1e 9a3b 34bd 2ebf
000000b0: 3e6d 813e 58c4 d7bd 1f3d 9dbd 3d2e b7be
000000c0: 7b36 a8be 9276 073f 7590 b13c c36f 96bd
000000d0: 102e a0bd d6cb 9cbe 91e5 7d3d 6c09 6fbf
000000e0: 3766 1e3e b09b cbbe a2b7 a7be 6391 8abe
000000f0: 959d 15be 37ff de3e aba9 1f3e 1648 ed3e
00000100: 56dc f8be df16 b5be 755f 26bd 5cf4 213d
00000110: 3b01 ff3e a977 b9bc 3b40 343e 9796 593e
00000120: 2f02 bcbe c0ea 13bf ebc6 073e e075 ce3e
00000130: 22c0 993e a288 053f 09f0 16be a836 93bb
00000140: 808c 2b3e 801a e53e c9e6 9ebd 2486 943e
00000150: 1682 ab3e 94de a13e 8913 35be 552f 0d3e
00000160: bfb1 64bc f7f9 16bf dece 9c3e 9ff6 0fbe
00000170: 4a62 16be 6bbc c63e 63fb 5f3d a08a aabe
00000180: 4030 a6be 340f a8bd b47d 583d fc20 0cbf
00000190: da7d d93e 5249 53be 88f7 0abe eabe f7be
000001a0: f3db f1be e754 573e efc0 dcbe dd9a 4abf
000001b0: 96ce 843e 5e6c afbe 84a5 033e 265b b53e
000001c0: 8ede bebe 6d86 cbbd 5400 4bbe c031 0ebf
000001d0: 3f19 0dbf baf0 96be 3da6 0abe 55a1 cc3e
000001e0: 6fac f33e a4ae 98bd 8467 bebe fb68 963c
000001f0: df46 8bbe 3689 023f 247e 4e3e d145 433d
00000200: 7429 00bc dfd0 c43e 9f38 8e3c ee2b 89be
00000210: 6f7f 103e d6be bc3d 749f c03e 8e0c 1b3f
00000220: bd96 a63e 6a23 c73e e778 b53d c8da 0b3f
00000230: 289a 243e ef9a 143f 8536 993b 38a6 293e
00000240: 1e16 e0be b3f7 593d 854a 35bd b282 8dbe
00000250: 6719 5cbd 8aea 4a3e ac21 bebd f175 a4be
00000260: 6a3b debd 7a94 d03e 4765 9fbd ed33 773c
00000270: fc74 cd3e 5559 acbe 4b9d aebe 561f bf3e
00000280: af65 a13e 2b24 343e 0572 30bd f001 cfbe
00000290: 28b3 9cbe 1eac c93e 9d1b 3dbd 09ed 2d3d
000002a0: f980 933e ea14 4bbc 59f0 b03d 07a7 8d3e
000002b0: 080c aa3e eb29 103e 8514 edbe ff51 aa3e
000002c0: 18f8 2e3e f11a b53e de6f d43d cda0 28be
000002d0: 0c3a d0be f230 173e 9df5 89be 6e3f ee3e
000002e0: a3a9 7c3e 20df b4be 304a a13d 1cc8 7cbf
000002f0: e09a 8cbd 90f1 2ebe 20d7 ff3e eab2 3dbe
00000300: f15b b93d 6390 ce3e 669a 693e cc8a c93d
00000310: 2214 6fbe d192 fa3e 1e7d 093e 9960 ba3e
00000320: 2872 3dbc 3bc1 593e 1304 06bc d02b 1a3f
00000330: c265 13bd 6cee 933e f477 bcbd b401 bd3e
00000340: d09f 8b3d a70d e5be 7509 45be 4b36 72be
00000350: f682 ac3e 7fdc d73d 27fc 1ebe 7aa8 193c
00000360: acc5 43be 4d8d 67be fa16 8f3e fd59 b33e
00000370: f9c5 a8be 4b9b 04bf 0efb 3abe 5448 c1be
00000380: 92f7 9f3e 1ff1 d9be 0985 d9be 4253 6dbe
00000390: 6767 11bd 1271 5f3e e1cc 09bf b898 143f
000003a0: 89cb ecbe 1de2 373e a519 21be c1c5 09bf
000003b0: e2d1 373e e8d1 ac3e 44b5 dd3e ec68 f23e
000003c0: 5436 8abd f78e fdbd 6bf4 f7bb 8a40 c3be
000003d0: d89a d23e c3aa 92be 7d57 943d d7ec debe
000003e0: bd52 0e3f 5381 2dbe 7f4f 65bd f946 8a3d
000003f0: 3d47 db3b c7d0 93be da11 e53e 716c b5bd

encoder.0.bias f4 [256]
0.3210474 0.5356714 -0.22807777 0.16970327 -0.13546625 0.025829682 -0.5069295 0.60006106
0.1836765 0.5401332 -0.06294292 0.013431769 -0.5395018 0.64375514 0.28264213 -0.3407797
-0.06926535 0.47467324 -0.32814714 0.35120925 -0.27698573 -0.5017844 -0.31616932 -0.59017396
0.33047068 0.53784037 0.22203295 -0.27994195 0.50559473 -0.36882293 0.48288143 -0.40759483
-0.3599458 0.41571832 0.39103854 0.070613734 0.50634116 -0.17189454 -0.04957093 0.3775473
-0.5122107 0.20626481 0.48043016 -0.40025604 -0.2310462 -0.2626893 0.06415234 0.1585031
-0.26121718 0.44716972 -0.44126436 -0.63392806 -0.52701986 0.151504 0.2130668 -0.39833626
-0.13889338 0.032004673 -0.09648916 0.16125163 0.428667 0.19441167 -0.07574298 -0.5102742
-0.28240573 0.08269225 -0.2956185 0.24528256 0.29834434 -0.34096643 -0.33442223 0.216744
0.5184599 -0.19213788 0.03630383 0.4600817 -0.5009674 0.34378678 0.20266931 0.1754168
0.23338342 -0.41455558 -0.40997568 -0.24822146 -0.3912808 -0.4374823 -0.3368954 -0.13136989
0.23048535 -0.028877925 0.22271608 -0.52003175 0.023895822 0.016054697 0.2221801 -0.108725965
-0.44386554 -0.2293328 0.2898651 0.24540664 0.14772938 -0.27369756 -0.230144 0.41791338
0.10485337 0.48576954 -0.19306639 0.5468692 0.29028812 0.15825199 -0.55133593 0.3145396
-0.26835954 -0.41208637 -0.16774157 -0.43732935 0.37064368 0.5969873 0.008641304 -0.27234772
0.5921836 -0.19580282 -0.06866105 -0.16243781 -0.16501144 -0.71076035 0.54706395 0.010527592
-0.5641523 0.13493069 -0.36986074 0.13584365 0.43491817 0.23768379 1.0607281 -0.40277952
0.029700827 -0.3630914 -0.12341737 0.5252755 0.19609955 0.15221447 0.48626596 -0.48021153
-0.57189214 -0.7304755 0.43464032 -0.36640826 0.41844276 -0.57359225 0.056058988 -0.35532534
-0.06256509 0.63167447 0.39714745 0.55246407 -0.3883577 -0.09368306 0.0965512 0.003680285
0.0958049 0.48607883 -0.07471045 0.7593812 0.3994396 0.45970172 -0.48009026 0.09176332
-0.3626866 0.13936986 -0.19806945 0.55748093 -0.65541077 0.37976575 -0.5343611 0.24062565
-0.44602323 -0.46313015 -0.39107773 0.16706951 0.18069638 -0.52886885 -0.15769622 -0.13461679
-0.544761 0.22691973 -0.49803942 0.056451038 -0.2333685 0.1810732 -0.2765155 -0.42416993
0.07505402 0.55832076 0.19517921 -0.5875894 -0.44496349 0.23145796 0.23936665 -0.01911177
0.3981977 0.42928854 -0.40949297 -0.25690043 -0.3665433 -0.46376348 0.46130782 -0.21858662
-0.5543628 -0.006536019 -0.21750467 -0.31323668 0.72518957 -0.53306043 -0.53766453 0.15492935
-0.40676233 -0.45050997 -0.21128711 -0.4518105 -0.41697663 -0.25187206 0.5850802 0.0974921
-0.08648754 -0.17505287 -0.09479655 0.36110064 0.2482729 0.266711 -0.20742102 0.41213006
-0.06631483 -0.5870849 -0.65009004 0.5360612 0.37926674 0.3339043 -0.18873017 -0.36111
-0.28812367 0.56273663 0.14546943 0.36270958 -0.38759464 0.26832983 -0.35343707 -0.035811234
-0.01859347 0.28618327 0.11290456 0.1436118 0.31597832 -0.4111325 0.10373963 -0.05030554
00000000: 5360 a43e c321 093f 388d 69be b2c6 2d3e
00000010: aab7 0abe c598 d33c 22c6 01bf 9a9d 193f
00000020: b115 3c3e 2b46 0a3f 38e8 80bd ec10 5c3c
00000030: ca1c 0abf 23cd 243f 78b6 903e ad7a aebe
00000040: feda 8dbd 5f08 f33e e702 a8be b3d1 b33e
00000050: 13d1 8dbe f174 00bf f2e0 a1be a415 17bf
00000060: 7433 a93e e8af 093f 9b5c 633e 8d54 8fbe
00000070: a86e 013f 5cd6 bcbe 3c3c f73e 45b0 d0be
00000080: d14a b8be 08d9 d43e 3436 c83e ef9d 903d
00000090: 939f 013f 1f05 30be e30a 4bbd e14d c13e
000000a0: 3e20 03bf 1537 533e f1fa f53e 5cee ccbe
000000b0: 6097 6cbe 367f 86be 4d62 833d a34e 223e
000000c0: 42be 85be 6ef3 e43e 67ed e1be 1c49 22bf
000000d0: c6ea 06bf dd23 1b3e 2f2e 5a3e bbf2 cbbe
000000e0: 113a 0ebe 5517 033d 1c9c c5bd 261f 253e
000000f0: 3e7a db3e da13 473e 231f 9bbd 54a1 02bf
00000100: 7c97 90be 8e5a a93d 4f5b 97be 5a2b 7b3e
00000110: 97c0 983e 2793 aebe 6439 abbe 24f2 5d3e
00000120: cab9 043f cbbf 44be 53b3 143d d48f eb3e
00000130: 663f 00bf d204 b03e 8b88 4f3e 76a0 333e
00000140: 10fc 6e3e a140 d4be 55e8 d1be c42d 7ebe
00000150: f555 c8be aefd dfbe 8e7d acbe d485 06be
00000160: 5a04 6c3e 6691 ecbc af0f 643e cd20 05bf
00000170: 2cc1 c33c 2485 833c 2e83 633e b8ab debd
00000180: 5842 e3be 38d6 6abe 3369 943e e14b 7b3e
00000190: 5f46 173e 1622 8cbe deaa 6bbe bef8 d53e
000001a0: 5dbd d63d c9b6 f83e 32b3 45be 9fff 0b3f
000001b0: a5a0 943e cf0c 223e 5a24 0dbf 560b a13e
000001c0: 6c66 89be fcfc d2be 72c4 2bbe a2e9 dfbe
000001d0: 02c5 bd3e 29d4 183f 4294 0d3c 2971 8bbe
000001e0: 5899 173f 8980 48be 2a9e 8cbd 1956 26be
000001f0: c2f8 28be 64f4 35bf 620c 0c3f ec7b 2c3c
00000200: 496c 10bf 452b 0a3e 635e bdbe 991a 0b3e
00000210: 98ad de3e 6163 733e f0c5 873f 1e39 cebe
00000220: 264f f33c 1ee7 b9be 3fc2 fcbd 7578 063f
00000230: 52ce 483e 1cde 1b3e daf7 f83e 49de f5be
00000240: 8667 12bf 7100 3bbf 2d89 de3e dd99 bbbe
00000250: 213e d63e f1d6 12bf 1c9e 653d 34ed b5be
00000260: 2022 80bd 6bb5 213f e956 cb3e 496e 0d3f
00000270: d2d6 c6be e7dc bfbd a3bc c53d f030 713b
00000280: 5c35 c43d 53df f83e cb01 99bd ce66 423f
00000290: 5983 cc3e 065e eb3e 64ce f5be 68ee bb3d
000002a0: 0fb2 b9be f9b6 0e3e b8d2 4abe 12b7 0e3f
000002b0: 00c9 27bf a870 c23e e4cb 08bf 9266 763e
000002c0: 285d e4be 651f edbe 573b c8be 4514 2b3e
000002d0: 7908 393e f363 07bf 1e7b 21be fcd8 09be
000002e0: 7575 0bbf a55d 683e 06ff febe 3439 673d
000002f0: 27f8 6ebe 416b 393e 7193 8dbe cd2c d9be
00000300: ecb5 993d 1cee 0e3f 0fdd 473e 426c 16bf
00000310: 41d2 e3be 5103 6d3e 881c 753e 4990 9cbc
00000320: 92e0 cb3e b5cb db3e 10a9 d1be 7488 83be
00000330: 90ab bbbe 6872 edbe 8a30 ec3e 2cd5 5fbe
00000340: b8ea 0dbf 1a2c d6bb 8bb9 5ebe 8f60 a0be
00000350: 06a6 393f a676 08bf 62a4 09bf cda5 1e3e
00000360: 2743 d0be 3ea9 e6be a65b 58be b553 e7be
00000370: f67d d5be 60f5 80be d1c7 153f f0a9 c73d
00000380: 6120 b1bd 0f41 33be b224 c2bd 2fe2 b83e
00000390: 403b 7e3e 588e 883e 2d66 54be b602 d33e
000003a0: 12d0 87bd 324b 16bf 4d6c 26bf 4f3b 093f
000003b0: 402f c23e 81f5 aa3e 7b42 41be 69e3 b8be
000003c0: f284 93be 820f 103f f0f5 143e 12b5 b93e
000003d0: ce72 c6be 8762 893e b4f5 b4be cdae 12bd
000003e0: 5551 98bc 9d86 923e 823a e73d f90e 133e
000003f0: e9c7 a13e f67f d2be 7175 d43d 2f0d 4ebd

encoder.2.weight f4 [128, 256]
-0.06662384 -0.05198275 0.08478827 0.0042685336 0.040581238 0.070536494 0.0676687 0.038170084
0.039895583 -0.051156253 0.16965944 0.096345514 0.046360843 0.06477542 0.07893713 0.034309067
-0.031005234 -0.010007644 0.0059886514 0.005342886 0.008935903 0.05616331 -0.06612826 0.023252796
0.09726702 -0.03297601 0.057009343 -0.057265166 0.02371247 0.03138583 -0.06085233 -0.022492137
0.032585762 -0.009303902 -0.07715731 -0.0057799495 0.015779924 0.18252493 0.013542101 -0.05386442
0.08503903 -0.0019689756 0.024555545 -0.02827096 0.046388302 0.0091350125 0.20092109 0.07076371
-0.028149784 -0.018898183 -0.09315169 -0.0115860505 0.08098238 -0.022229714 -0.051144917 0.077653676
0.0081119565 -0.13313979 0.007879054 -0.040630225 0.06846104 0.042976346 0.070611194 -0.03130935
-0.054118108 0.0019781643 -0.036245104 -0.061071783 -0.059873216 0.098395616 0.05010132 0.004277181
0.030832483 -0.11491044 -0.01930594 0.012924789 0.08268277 -0.017207725 -0.08739674 -0.00023543886
0.056928452 0.017623134 0.041541252 0.009174853 -0.030360458 -0.025811343 0.006880485 0.03218941
-0.008567249 0.05139357 -0.04062544 0.10122361 0.07649619 0.04099 0.06567007 -0.23302917
0.046827734 0.10141123 0.016045868 0.03039555 0.11469573 -0.03755556 0.11522524 -0.04913388
0.0490572 -0.061254896 0.04142811 -0.034070317 -0.038193557 -0.043437712 0.05854056 -0.0271795
-0.04011347 0.06942757 -0.011955196 -0.020428922 0.05164616 0.003248181 0.20764619 0.12941171
-0.050300047 0.07093966 0.044976313 0.0052193822 -0.03250015 -0.035804104 0.019778952 -0.047845222
0.072461694 0.03558547 -0.061378047 -0.024233533 -0.09092996 0.035141688 -0.0030336939 -0.038915846
-0.18985245 -0.017192235 0.034818523 -0.094819225 -0.028470969 0.015763996 -0.07861865 0.045395583
0.053051654 0.04443736 0.010587964 0.027396198 0.011732537 -0.019528352 0.04770812 -0.024274064
0.012784094 0.055879496 -0.113771275 -0.0772801 0.04164142 0.051383626 0.012055484 0.019048499
0.008704102 0.046613254 0.0846126 -0.067936994 0.028993243 -0.053805653 -0.094599634 0.030973678
0.06585328 0.053635836 0.04853346 0.027155263 0.086780824 -0.094278045 -0.042928204 -0.010511058
0.04167301 0.083642885 -0.0042990553 -0.09843347 0.05016496 -0.060125366 0.09195105 -0.0007511126
0.019039303 -0.012832735 -0.04907002 0.0463004 0.092519835 -0.03663503 0.046301097 0.048354186
0.049826957 -0.023378925 -0.037844736 -0.012878057 0.045124445 0.047472645 -0.036769256 -0.28331813
0.0055324812 -0.12801817 0.0026050895 -0.013522449 0.029784022 0.085196115 -0.07758478 0.086022675
0.06396254 -0.209966 -0.0564849 0.0053113666 0.06856308 0.0152419275 -0.015255323 -0.03587202
0.049039174 -0.0054150424 0.11060122 0.0005748255 0.03569824 0.026695732 -0.010314627 0.19321834
-0.024823941 0.2023235 -0.0056790845 -0.09774582 0.009749247 -0.0035276015 0.07485379 0.016067494
0.14127634 0.036457356 -0.08502245 0.030664418 0.04205413 0.13287634 -0.059386786 0.04698198
-0.12329555 -0.056630306 -0.12112965 0.088744566 0.009166323 -0.06490041 -0.010624085 0.0014614982
-0.027619325 -0.043308526 -0.057258196 -0.054419767 0.14059556 0.029334165 -0.040051218 0.111016594
00000000: 1472 88bd ddeb 54bd 79a5 ad3d 0edf 8b3b
00000010: 8338 263d 7075 903d e395 8a3d 3c58 1c3d
00000020: 8d69 233d 3889 51bd 34bb 2d3e cc50 c53d
00000030: dee4 3d3d faa8 843d caa9 a13d aa87 0c3d
00000040: b0fe fdbc 1af7 23bc 733c c43b 6013 af3b
00000050: e567 123c 800b 663d 416e 87bd a67c be3c
00000060: ee33 c73d da11 07bd a182 693d e18e 6abd
00000070: a740 c23c 6e8e 003d 4b40 79bd 6e41 b8bc
00000080: a678 053d 656f 18bc a704 9ebd bb65 bdbb
00000090: e644 813c d1e7 3a3e b0df 5d3c f0a0 5cbd
000000a0: f128 ae3d ee09 01bb b628 c93c 8098 e7bc
000000b0: a901 3e3d 05ab 153c 42be 4d3e 90ec 903d
000000c0: 609a e6bc 5dd0 9abc 50c6 bebd 6bd3 3dbc
000000d0: 17da a53d 171b b6bc 557d 51bd e408 9f3d
000000e0: 03e8 043c cc55 08be 2617 013c e16b 26bd
000000f0: 4d35 8c3d f707 303d 9a9c 903d 3c3e 00bd
00000100: f3aa 5dbd 17a4 013b bf75 14bd 6826 7abd
00000110: 9e3d 75bd a483 c93d 0b37 4d3d 9827 8c3b
00000120: 6794 fc3c 2a56 ebbd 7e27 9ebc 7fc2 533c
00000130: 9655 a93d 37f7 8cbc 10fd b2bd 23e0 76b9
00000140: cf2d 693d 645e 903c 2927 2a3d 1f52 163c
00000150: 7fb6 f8bc 4f72 d3bc b175 e13b 0bd9 033d
00000160: a65d 0cbc 1082 523d dd66 26bd 534e cf3d
00000170: 09aa 9c3d 21e5 273d 087e 863d 339f 6ebe
00000180: 70ce 3f3d b1b0 cf3d a072 833c 1700 f93c
00000190: 98e5 ea3d dcd3 19bd 36fb eb3d 9b40 49bd
000001a0: 34f0 483d 6ae6 7abd 86b0 293d 518d 0bbd
000001b0: d970 1cbd beeb 31bd 3ac8 6f3d 8ba7 debc
000001c0: 064e 24bd 0b30 8e3d badf 43bc 8e5a a7bc
000001d0: ed8a 533d 6fdf 543b 34a1 543e 8184 043e
000001e0: 6c07 4ebd d048 913d 1539 383d 5a07 ab3b
000001f0: e11e 05bd 53a7 12bd 7807 a23c 5af9 43bd
00000200: cc66 943d 12c2 113d 8c67 7bbd 6785 c6bc
00000210: 7d39 babd bbf0 0f3d f0d0 46bb 3966 1fbd
00000220: ae68 42be bbd6 8cbc de9d 0e3d 9530 c2bd
00000230: f33b e9bc 7f23 813c d102 a1bd b8f0 393d
00000240: b14c 593d f303 363d 2479 2d3c fe6d e03c
00000250: d439 403c ecf9 9fbc 9769 433d 67da c6bc
00000260: 6074 513c e6e1 643d ea00 e9bd 0745 9ebd
00000270: 3290 2a3d a377 523d 5d84 453c 990b 9c3c
00000280: a69b 0e3c 8aed 3e3d 5f49 ad3d 8d22 8bbd
00000290: 3d83 ed3c 5163 5cbd 74bd c1bd 83bc fd3c
000002a0: 16de 863d 40b1 5b3d 05cb 463d b774 de3c
000002b0: 25ba b13d d914 c1bd 7cd5 2fbd 9336 2cbc
000002c0: 51b1 2a3d f64c ab3d 17df 8cbb 7d97 c9bd
000002d0: c679 4d3d 0446 76bd d550 bc3d 50e6 44ba
000002e0: 50f8 9b3c 6440 52bc a5fd 48bd 7da5 3d3d
000002f0: 0a7b bd3d 9d0e 16bd 38a6 3d3d 0a0f 463d
00000300: 5a17 4c3d 2985 bfbc 1503 1bbd 7cfe 52bc
00000310: 69d4 383d ad72 423d 5c9b 16bd 130f 91be
00000320: d149 b53b 3217 03be 26ba 2a3b 438d 5dbc
00000330: 9ffd f33c 4d7b ae3d c5e4 9ebd a82c b03d
00000340: cbfe 823d 5401 57be b65c 67bd f90a ae3b
00000350: cd6a 8c3d 47b9 793c 76f1 79bc 8aee 12bd
00000360: 4ddd 483d ab70 b1bb e482 e23d e3af 163a
00000370: 5138 123d 02b1 da3c aefe 28bc 07db 453e
00000380: 945b cbbc e42d 4f3e 9d17 babb f62e c8bd
00000390: 4ebb 1f3c 552f 67bb f24c 993d fa9f 833c
000003a0: bfaa 103e 4f54 153d 4020 aebd f233 fb3c
000003b0: f440 2c3d bc10 083e 8f3f 73bd 2d70 403d
000003c0: 6182 fcbd 2ef5 67bd d212 f8bd b6bf b53d
000003d0: 582e 163c 82ea 84bd a410 2ebc be8f bf3a
000003e0: ec41 e2bc 4864 31bd 9287 6abd 43e7 5ebd
000003f0: 48f8 0f3e 344e f03c bf0c 24bd ab5c e33d

encoder.2.bias f4 [128]
-0.018507814 -0.12072362 -0.043078404 0.0059806616 0.045521565 0.0742882 0.042993825 -0.028227637
-0.039739516 0.03209358 0.029972153 -0.076970756 -0.011435829 -0.0044440543 -0.006399686 -0.04260585
-0.021675946 0.04345419 0.009940603 0.056820583 0.0864039 0.024854835 0.060064483 0.1329841
0.077454366 -0.0025301108 0.11301341 0.08962942 0.011260669 0.084948584 -0.02174378 -0.02841798
0.020423813 0.014234907 -0.046092764 0.05605504 -0.0067922 0.022916958 0.039702065 -0.009818029
0.0046494235 -0.033481147 -0.037926808 0.011899658 -0.032983523 0.0028596006 0.015065902 0.024135321
0.027058054 0.023328083 -0.004145991 -0.010472015 0.114903495 0.0033200795 0.07800423 0.0038037493
-0.0046005584 0.034958836 -0.024813749 0.002320098 -0.049881022 0.079481915 -0.066155456 0.08017466
0.0013099674 0.021885455 0.03337193 -0.08129254 0.020683272 -0.010892368 0.045293882 -0.0045182207
-0.033613086 -0.1246297 0.029319046 0.08519779 -0.014409953 -0.008709665 -0.021113167 -0.14311299
0.03123661 -0.03136215 0.02608098 0.08259061 0.0054307673 -0.028138945 -0.04403274 0.0182541
0.03190451 0.032101702 0.017522333 0.021697884 -0.07808447 0.10084859 0.051877566 0.06338635
0.10444152 -0.033568792 -0.055417176 -0.063425176 -0.005618916 0.0615331 0.038799036 0.07042607
0.09965977 -0.054694965 0.009568844 -0.007180872 0.018234404 0.002499793 -0.070963226 0.0653843
-0.017297383 0.049916755 0.0068369047 0.037491795 -0.040137798 -0.0738995 -0.018384924 -0.1011055
-0.034743894 -0.026586356 0.0015056464 -0.057597358 -0.06681803 0.023244621 0.037692882 -0.28198233
00000000: b39d 97bc f23d f7bd fb72 30bd 6df9 c33b
00000010: d274 3a3d 6924 983d 4b1a 303d a53d e7bc
00000020: e7c5 22bd 8f74 033d 2988 f53c d8a2 9dbd
00000030: 585d 3bbc 6e9f 91bb 75b4 d1bb 7983 2ebd
00000040: c191 b1bc 05fd 313d e9dd 223c b3bc 683d
00000050: 87f4 b03d 5e9c cb3c 2d06 763d fc2c 083e
00000060: 65a0 9e3d 37d0 25bb 9373 e73d a18f b73d
00000070: ab7e 383c 86f9 ad3d 0320 b2bc d3cc e8bc
00000080: d74f a73c 8739 693c c4cb 3cbd f899 653d
00000090: 1a91 debb 58bc bb3c a29e 223d ccdb 20bc
000000a0: 315a 983b 8723 09bd 2459 1bbd c8f6 423c
000000b0: bb19 07bd 2368 3b3b f9d6 763c 70b7 c53c
000000c0: daa8 dd3c 891a bf3c 18db 87bb d092 2bbc
000000d0: 8652 eb3d b195 593b afc0 9f3d 5348 793b
000000e0: 48c0 96bb ff30 0f3d 3446 cbbc c90c 183b
000000f0: 0b50 4cbd 6ac7 a23d 837c 87bd 9d32 a43d
00000100: 36b3 ab3a 2049 b33c 01b1 083d b47c a6bd
00000110: f76f a93c e775 32bc 1486 393d 950d 94bb
00000120: e0ad 09bd db3d ffbd 7f2e f03c 2e7c ae3d
00000130: b917 6cbc fcb2 0ebc 85f5 acbc 368c 12be
00000140: ebe3 ff3c 9975 00bd c8a7 d53c 4425 a93d
00000150: 94f4 b13b a583 e6bc ad5b 34bd 9f89 953c
00000160: 4eae 023d 137d 033d ff8a 8f3c c3bf b13c
00000170: c0ea 9fbd b589 ce3d 927d 543d b4d0 813d
00000180: 70e5 d53d 6e7f 09bd 1ffd 62bd 0fe5 81bd
00000190: e21e b8bb 220a 7c3d bdeb 1e3d 8b3b 903d
000001a0: 6c1a cc3d d407 60bd a4c6 1c3c 854d ebbb
000001b0: 5160 953c 91d3 233b 2b55 91bd 34e8 853d
000001c0: 3eb3 8dbc 8375 4c3d 1d08 e03b ff90 193d
000001d0: 8867 24bd 9f58 97bd fb9b 96bc 6610 cfbd
000001e0: 9d4f 0ebd a1cb d9bc 1c59 c53a 35eb 6bbd
000001f0: e4d7 88bd 816b be3c da63 1a3d fd5f 90be

encoder.4.weight f4 [64, 128]
-0.07715853 -0.043622144 0.058296595 -0.012479524 0.075900175 0.031720683 0.04424497 0.04158444
0.022983281 -0.044785727 -0.0137786595 -0.03842235 -0.0013201714 0.026773214 -7.502491e-05 0.006585215
-0.046071906 -0.0059624654 0.02381955 0.033764448 -0.02310063 0.095157474 -0.0014736358 0.014289605
-0.06870122 0.054390408 0.08480949 -0.032847907 0.039573207 0.0065069287 -0.07513526 0.008988622
0.0072496505 0.016783074 -0.019851051 3.1548374e-05 -0.021671098 0.027638178 -0.05059076 -0.04169948
-0.08471141 0.016916683 -0.027144233 -0.06129722 0.01693149 0.017963557 -0.019571004 0.048522316
-0.0073660184 0.004832837 -0.049448233 -0.060246754 -0.014314008 0.084750846 -0.063819565 0.066850536
0.012807296 0.025741072 -0.083255336 -0.04240797 -0.08669877 -0.0034656858 0.05695522 -0.07460423
-0.08764062 0.06931272 0.008562585 -0.03344555 -0.05946803 -0.006008904 -0.04483651 0.0019070234
0.056321304 0.052184112 -0.046068724 0.06353682 -0.03770983 0.037853535 0.010961612 -0.045865614
-0.04301714 0.05735713 -0.053346664 0.020350311 -0.11452894 -0.0011493275 -0.03635603 -0.09004015
0.0925735 -0.051939208 -0.06784018 -0.08938798 -0.032064583 -0.04018121 0.064149216 0.02582489
-0.061250705 0.06033076 -0.13205081 0.007863898 0.068009086 -0.04098281 0.027017614 0.05790973
-0.071987726 -0.027052647 -0.018987449 0.06980103 -0.059607152 0.030001024 -0.034501098 0.02191879
0.089145936 -0.037340634 0.041641906 -0.013594939 -0.01749136 -0.018846849 -0.114483446 -0.0580982
-0.08608756 0.07544238 0.044659916 -0.00067023427 -0.013501661 -0.032622136 0.07923733 -0.14424501
-0.09165326 -0.027378572 0.007403455 -0.021689389 -0.037598033 -0.0587139 0.029143631 -0.06544136
0.068131454 0.028131805 0.045566656 0.0063066874 -0.015182935 0.00163646 0.035317782 0.08595201
-0.051061977 0.019942028 0.025501236 -0.06837912 -0.027682032 0.09203113 0.012139005 -0.06705649
0.027840817 -0.08292185 -0.0304171 0.049456436 0.0758186 0.07029575 -0.041472167 0.050916623
-0.065470695 -0.04178788 0.093323596 -0.06371845 0.007935403 0.024234649 -0.08284111 0.017233
-0.0484498 0.067625314 -0.09250253 -0.095531315 -0.066111706 -0.064050056 -0.068227254 -0.015165412
-0.009110282 0.028136268 0.0060889255 0.05350515 0.030668288 -0.08963947 0.03028436 -0.01747524
-0.060436215 -0.009597777 -0.05017555 0.06441942 0.07805276 0.030769413 0.021770878 -0.02523257
-0.07811323 0.06909581 -0.06083518 0.089762904 -0.036543075 0.022275211 -0.05124028 -0.05430482
0.015309739 0.0012282429 -0.08971179 -0.024572374 0.002030333 0.030944673 -0.0042973105 0.0657011
-0.0011050928 -0.0177415 -0.048592947 -0.05723235 -0.082723595 -0.038663313 0.073995166 -0.044862755
0.08131771 0.02103015 -0.021708265 0.085331015 -0.024202451 -0.0691349 -0.04788103 -0.02456941
-0.009445779 0.04595419 0.07694779 0.0907061 0.00028887554 -0.046171818 -0.05506334 -0.045222137
-0.08822809 -0.0034727883 0.023801798 0.0673462 -0.06077821 0.02684439 0.078039624 0.046673466
0.008715248 -0.09538214 -0.033630326 0.07486177 -0.054283995 -0.08942357 -0.095300466 -0.072784044
-0.053446174 0.04879155 0.07458934 0.065890506 0.031155258 0.01069159 0.0593868 -0.11377434
00000000: 4b05 9ebd 22ad 32bd 69c8 6e3d eb76 4cbc
00000010: 8d71 9b3d 8ced 013d 373a 353d 7254 2a3d
00000020: 6f47 bc3c 3d71 37bd e3bf 61bc c160 1dbd
00000030: 9a09 adba 8053 db3c b156 9db8 cac8 d73b
00000040: e5b5 3cbd c960 c3bb 3821 c33c 974c 0a3d
00000050: 883d bdbc ece1 c23d 0327 c1ba f31e 6a3c
00000060: 3ab3 8cbd 7ac8 5e3d 99b0 ad3d 878b 06bd
00000070: 8417 223d 1338 d53b 84e0 99bd 0345 133c
00000080: 7a8e ed3b a87c 893c ac9e a2bc cf52 0438
00000090: 9687 b1bc 7669 e23c 4238 4fbd 13cd 2abd
000000a0: 2d7d adbd db94 8a3c 955d debc cb12 7bbd
000000b0: e8b3 8a3c 4f28 933c 5f53 a0bc 56bf 463d
000000c0: a45e f1bb c65c 9e3b 3b8a 4abd 4dc5 76bd
000000d0: 4d85 6abc da91 ad3d d5b3 82bd efe8 883d
000000e0: b1d5 513c f1de d23c c681 aabd fbb3 2dbd
000000f0: 208f b1bd 8f20 63bb e049 693d 1aca 98bd
00000100: ed7c b3bd d4f3 8d3d 164a 0c3c 33fe 08bd
00000110: c094 73bd 57e6 c4bb 7da6 37bd 16f5 f93a
00000120: 2bb1 663d 02bf 553d 8fb2 3cbd 981f 823d
00000130: 9f75 1abd 4f0c 1b3d 5598 333c 95dd 3bbd
00000140: be32 30bd 4fef 6a3d 0882 5abd b2b5 a63c
00000150: 268e eabd 08a5 96ba 0fea 14bd f866 b8bd
00000160: 2d97 bd3d 35be 54bd cbef 8abd 0c11 b7bd
00000170: 2756 03bd 0d95 24bd aa60 833d b88e d33c
00000180: 05e2 7abd 631d 773d 5438 07be 94d7 003c
00000190: 5948 8b3d 97dd 27bd 0b54 dd3c c132 6d3d
000001a0: 4d6e 93bd 839d ddbc 918b 9bbc d8f3 8e3d
000001b0: a126 74bd b5c4 f53c 0651 0dbd 098f b33c
000001c0: 2592 b63d 7ef2 18bd b490 2a3d 4fbd 5ebc
000001d0: 0a4a 8fbc b564 9abc 4c76 eabd 61f8 6dbd
000001e0: ad4e b0bd 8981 9a3d 51ed 363d a9b2 2fba
000001f0: 1236 5dbc ca9e 05bd 2e47 a23d f7b4 13be
00000200: b4b4 bbbd 0749 e0bc af98 f23b f2ad b1bc
00000210: 6500 1abd fd7d 70bd a0be ee3c 1f06 86bd
00000220: 8188 8b3d ac74 e63c 1aa4 3a3d 54a8 ce3b
00000230: d8c1 78bc 7c7e d63a 61a9 103d 9b07 b03d
00000240: 5d26 51bd 775d a33c f8e7 d03c 5a0a 8cbd
00000250: 6ec5 e2bc d17a bc3d ade2 463c ea54 89bd
00000260: 6d12 e43c eed2 a9bd 482d f9bc d592 4a3d
00000270: c846 9b3d 38f7 8f3d b8de 29bd f38d 503d
00000280: 8015 86bd c529 2bbd 7120 bf3d d27e 82bd
00000290: 7e03 023c be87 c63c 9aa8 a9bd 382c 8d3c
000002a0: 4c73 46bd 247f 8a3d f771 bdbd eca5 c3bd
000002b0: 9365 87bd ad2c 83bd bbba 8bbd 5978 78bc
000002c0: 4b43 15bc 087e e63c 9c85 c73b 3728 5b3d
000002d0: 103c fb3c e694 b7bd e816 f83c 3c28 8fbc
000002e0: f78b 77bd ff3f 1dbc e184 4dbd 54ee 833d
000002f0: 20da 9f3d 2310 fc3c d758 b23c 89b4 cebc
00000300: d4f9 9fbd 1b82 8d3d 4f2e 79bd 9dd5 b73d
00000310: 31ae 15bd 817a b63c 54e1 51bd bb6e 5ebd
00000320: b3d5 7a3c fefc a03a d1ba b7bd 014c c9bc
00000330: 560f 053b af7f fd3c 74d0 8cbb 4c8e 863d
00000340: c3d8 90ba 9f56 91bc 6609 47bd 786c 6abd
00000350: fd6a a9bd 6c5d 1ebd c78a 973d 02c2 37bd
00000360: e689 a63d 6c47 ac3c 88d5 b1bc 07c2 ae3d
00000370: 3844 c6bc 9996 8dbd e61e 44bd ca45 c9bc
00000380: 78c2 1abc 763a 3c3d ce96 9d3d 1fc4 b93d
00000390: 3874 9739 a91e 3dbd 198a 61bd d93a 39bd
000003a0: eeb0 b4bd b897 63bb fdfb c23c ceec 893d
000003b0: 93f2 78bd c4e8 db3c 3dd3 9f3d ad2c 3f3d
000003c0: 66ca 0e3c b657 c3bd f4bf 09bd 2151 993d
000003d0: e558 5ebd b423 b7bd e42c c3bd cd0f 95bd
000003e0: 60ea 5abd a6d9 473d 4cc2 983d 9af1 863d
000003f0: 5039 ff3c c72b 2f3c 933f 733d 8502 e9bd

encoder.4.bias f4 [64]
-0.03763311 -0.028814856 -0.049032044 0.012399184 0.10494989 0.06852561 0.022265686 -0.05310014
0.03293909 -0.02667533 -0.024926044 -0.012857305 0.033277802 0.005081749 0.10339891 0.056047197
0.06263693 0.025036823 0.06159728 0.025087506 -0.017616164 0.064137734 -0.010044973 0.06396621
0.075328626 -0.11271219 -0.037053373 -0.015212613 0.02932261 -0.024878616 0.08787072 -0.007931182
0.11873139 0.017734082 -0.059032783 0.055901606 -0.063362546 0.008564885 -0.062294103 0.030815668
0.107881345 -0.013410051 0.074256845 0.024715912 0.0032866732 -0.06421601 -0.0702003 -0.06315529
0.04404328 -0.15441348 -0.09495165 -0.042443708 0.10261537 -0.06519374 -0.09662947 0.0345033
0.0909699 0.04200024 -0.038692474 0.0031696977 0.029519562 -0.051338423 -0.038421407 -0.06435434
00000000: 2d25 1abd 220d ecbc d3d5 48bd f225 4b3c
00000010: f8ef d63d 2857 8c3d 8766 b63c 887f 59bd
00000020: 24eb 063d 3986 dabc b431 ccbc 72a7 52bc
00000030: 4e4e 083d cd84 a63b cfc2 d33d bf91 653d
00000040: ca47 803d 061a cd3c 6e4d 7c3d 5084 cd3c
00000050: c64f 90bc a55a 833d ac93 24bc b700 833d
00000060: e545 9a3d a6d5 e6bd 47c5 17bd 533e 79bc
00000070: f835 f03c 3dce cbbc 90f5 b33d caf1 01bc
00000080: 7129 f33d 1147 913c 5ccc 71bd 15f9 643d
00000090: 39c4 81bd bb53 0c3c 1a28 7fbd 2471 fc3c
000000a0: e5f0 dc3d d5b5 5bbc f913 983d 0679 ca3c
000000b0: 3a65 573b af83 83bd 2dc5 8fbd 9057 81bd
000000c0: ba66 343d 911e 1ebe 0376 c2bd 74d9 2dbd
000000d0: 0228 d23d 4c84 85bd ace5 c5bd 5553 0d3d
000000e0: 6d4e ba3d 7208 2c3d 007c 1ebd b4ba 4f3b
000000f0: 02d3 f13c 3d48 52bd c45f 1dbd 35cc 83bd

encoder.6.weight f4 [3, 64]
-0.054418582 -0.00025828325 -0.07479393 -0.08581026 -0.08681732 0.014408253 -0.07812151 0.003294447
-0.008614608 0.009366423 -0.0009360797 0.04529938 -0.0025244781 -0.08525842 0.123391286 -0.07152615
0.033513367 -0.051530324 -0.0042166854 -0.0662682 0.039231613 -0.05069672 0.06708589 -0.04655873
-0.10317401 -0.11692329 0.0738714 0.08892865 -0.05796723 -0.06998697 -0.013643746 -0.0093147755
-0.012787339 0.011142524 0.11915885 -0.09681529 0.027102562 -0.09946798 -0.059827324 -0.055772085
0.12855244 -0.042967524 -0.06967207 0.1041335 0.11585202 0.03775319 -0.08114276 0.10302113
-0.067619056 -0.013579112 0.01477389 -0.107664965 -0.01701039 0.09177426 0.033221826 -0.11752047
0.11350802 -0.106610544 0.099020004 0.008027027 -0.046863668 -0.04494861 0.050071113 -0.07975734
-0.07807924 -0.002397024 -0.031287946 0.06394352 0.0032872076 0.0026664813 -0.078616716 -0.06608785
-0.025790649 0.03501859 -0.0035428395 -0.036484674 0.046035815 -0.049213275 -0.11730944 0.06454207
0.076427095 0.013820255 0.005526374 0.11312302 0.013681697 -0.043253884 -0.006373107 0.026092181
-0.058802888 -0.040709432 -0.024729852 0.096616186 -0.06457571 -0.031340882 0.06672188 0.015891505
0.16672866 0.014947478 -0.06552325 -0.053327516 0.034661487 -0.050323863 -0.06629358 0.10994443
-0.1389696 -0.09570065 -0.0032859568 0.015382408 -0.08633918 0.017282223 0.0020790389 0.01613651
-0.0780486 0.1438644 -0.047179297 0.07664998 -0.117200404 0.06510916 -0.1198858 -0.08386935
0.09331657 -0.03444833 -0.08240004 -0.05379888 0.05718338 0.1265615 0.061533205 0.0692482
-0.025282279 0.0006229361 0.097422235 -0.10506537 0.10632028 -0.0002246089 -0.09208591 -0.0999626
0.10498679 0.1043697 -0.065338746 0.022172814 0.015988916 -0.03507124 0.0942557 -0.06410986
0.04449192 -0.049926233 -0.058601826 -0.11902289 0.027234834 0.08637633 0.0042497655 0.08879567
0.0040658996 -0.076509416 -0.03792207 0.080768235 -0.087629974 0.10425768 0.039381243 0.011360778
0.10474821 0.070336 -0.012021359 -0.026964087 -0.10397748 0.12164029 -0.1029349 -0.047127172
0.07123465 0.02197209 0.0014011739 -0.03417277 -0.090852745 -0.119246654 0.021479683 -0.05869377
0.028246084 -0.024983717 -0.044555064 0.06538674 -0.012006371 0.033469506 -0.11332485 0.038992897
0.06938823 -0.034407437 0.079736836 -0.015199705 -0.0070504043 0.03184153 -0.064972624 0.06934106
00000000: 05e6 5ebd 316a 87b9 8f2d 99bd 4abd afbd
00000010: 47cd b1bd 9810 6c3c 2cfe 9fbd a6e7 573b
00000020: 4924 0dbc a075 193c 3f63 75ba d88b 393d
00000030: b771 25bb f79b aebd 92b4 fc3d 4d7c 92bd
00000040: 5045 093d 7611 53bd 1f2c 8abb 9fb7 87bd
00000050: 54b1 203d 5da7 4fbd 5464 893d 5eb4 3ebd
00000060: e54c d3bd 7a75 efbd e349 973d 3920 b63d
00000070: 0c6f 6dbd 5455 8fbd 058a 5fbc 009d 18bc
00000080: fd81 51bc 228f 363c 8e09 f43d 1847 c6bd
00000090: 3106 de3c deb5 cbbd 7f0d 75bd 4571 64bd
000000a0: 40a3 033e b7fe 2fbd 3bb0 8ebd f243 d53d
000000b0: d343 ed3d 17a3 1a3d 2d2e a6bd befc d23d
000000c0: dc7b 8abd ec7a 5ebc 300e 723c 737f dcbd
000000d0: 6059 8bbc 25f4 bb3d 9c13 083d 92ae f0bd
000000e0: e576 e83d a156 dabd 00cb ca3d cb83 033c
000000f0: 1ef4 3fbd 091c 38bd 5e17 4d3d d157 a3bd
00000100: 02e8 9fbd 6417 1dbb ca27 00bd d2f4 823d
00000110: 316e 573b 22c0 2e3b cd01 a1bd 1159 87bd
00000120: e946 d3bc a76f 0f3d fc2e 68bb f470 15bd
00000130: 0d90 3c3d dc93 49bd ef3f f0bd a22e 843d
00000140: cf85 9c3d 5a6e 623c 9616 b53b 0bad e73d
00000150: 3229 603c fc2a 31bd 7fd5 d0bb 45bf d53c
00000160: 4cdb 70bd efbe 26bd 4296 cabc b5de c53d
00000170: 4540 84bd 4c5f 00bd 7ba5 883d e72e 823c
00000180: ebba 2a3e 44e6 743c 0e31 86bd f46d 5abd
00000190: 34f9 0d3d 6520 4ebd eec4 87bd 8c2a e13d
000001a0: 0c4e 0ebe b4fe c3bd 3559 57bb 7f06 7c3c
000001b0: 99d2 b0bd 7393 8d3c 7c40 083b b730 843c
000001c0: f2d7 9fbd 3051 133e 143f 41bd aafa 9c3d
000001d0: c406 f0bd f457 853d b086 f5bd b2c3 abbd
000001e0: c21c bf3d b119 0dbd 5ac1 a8bd 375c 5cbd
000001f0: 1f39 6a3d 5699 013e 3e0a 7c3d 00d2 8d3d
00000200: c81c cfbc 894c 233a 4f85 c73d 832c d7bd
00000210: 72be d93d fe84 6bb9 8a97 bcbd 31b9 ccbd
00000220: 5003 d73d c8bf d53d 52d0 85bd c3a3 b53c
00000230: 30fb 823c dca6 0fbd 2209 c13d 084c 83bd
00000240: 293d 363d 737f 4cbd 7808 70bd 46c2 f3bd
00000250: 961b df3c 13e6 b03d 9e41 8b3b 81da b53d
00000260: 3d3b 853b f8b0 9cbd 2c54 1bbd d169 a53d
00000270: 5877 b3bd 0d85 d53d 3a4e 213d 8e22 3a3c
00000280: 3b86 d63d 520c 903d 3cf5 44bc cae3 dcbc
00000290: 25f2 d4bd 8b1e f93d 88cf d2bd 6c08 41bd
000002a0: 79e3 913d d0fe b33c 98a7 b73a bff8 0bbd
000002b0: 0111 babd 9737 f4bd 29f6 af3c e168 70bd
000002c0: 5564 e73c a7aa ccbc 5f7f 36bd 7ce9 853d
000002d0: 5fb6 44bc 5217 093d dc16 e8bd 04b7 1f3d
000002e0: 6b1b 8e3d d0ee 0cbd 114d a33d 2f08 79bc
000002f0: 1407 e7bb 446c 023d 5e10 85bd b002 8e3d

encoder.6.bias f4 [3]
-0.005834817 0.07337484 0.029608281
00000000: fe31 bfbb 8c45 963d 118d f23c

decoder.0.weight f4 [64, 3]
0.28093773 -0.68742156 0.07097454 -0.5279631 0.572671 -0.4456615 0.5098378 -0.75377536
-0.037981685 -0.46686086 0.08803427 -0.030887442 0.3792724 0.39189056 -0.11791573 -0.42226887
0.4330178 0.06520542 0.17205754 0.75534993 -0.6006885 0.47046316 0.2789922 0.52286357
-0.4521966 -0.13462077 -0.06332956 0.20820388 0.16410647 0.24386299 0.38508472 -0.5429938
-0.3943461 0.2562454 -0.6405589 0.373706 0.16145457 0.44867405 0.19950114 0.015012792
-0.10770696 -0.43110442 0.5188918 0.33811393 -0.2158063 -0.076391906 -0.4681022 -0.021663964
-0.080913946 -0.34404904 0.4934095 -0.48854738 0.7810092 -0.07180934 -0.123628065 -0.15641339
-0.52846986 0.5658481 0.6285854 -0.28633207 -0.46731362 0.50317204 0.004414048 -0.27728158
0.6465827 -0.4565141 -0.48623496 -0.39606115 0.4236918 0.5196254 0.011765969 -0.4404546
-0.31600398 0.18443444 0.1541149 -0.5528868 -0.070271745 0.36414483 -0.31012923 -0.026100287
-0.59024674 0.010546273 0.67718315 0.25886038 -0.35086495 -0.37247422 0.1308666 0.5670453
0.23562793 -0.4452502 0.042208187 -0.6928295 0.18750893 0.5373396 0.6237957 -0.28829437
-0.50963324 0.6863154 -0.57301575 -0.10239903 -0.32046628 -0.5852305 0.55211663 0.047062155
0.09882177 -0.11004642 -0.55262053 0.3251714 0.45938835 -0.035522643 -0.3984987 0.14824955
-0.48786965 -0.40524918 0.044809695 0.58967096 -0.3172707 0.58312404 0.46821132 0.20431392
0.20116113 -0.6326922 -0.5474937 -0.3686884 0.52298564 0.29042158 0.24918328 -0.4457288
0.20368092 0.16642915 0.81759745 0.49897024 0.09434291 -0.49290687 -0.22604853 -0.47052434
-0.0209697 -0.53992605 0.573038 -0.28865743 -0.12935388 0.2701303 0.38193882 0.44209498
0.28119093 0.33611548 0.5211883 0.35654557 -0.7137793 -0.017170345 -0.2352436 -0.3828236
-0.39911285 0.46527547 -0.7822195 0.36275268 -0.30520412 -0.3087121 -0.5066571 -0.5562584
-0.47061506 0.3166239 0.12517613 0.4994725 0.095782004 0.41695762 -0.19695885 0.47604534
-0.24787863 -0.061077043 0.33001232 0.3989873 -0.010490706 0.1915869 -0.38073844 -0.45451242
0.10417122 -0.38928315 -0.4326258 -0.43154618 0.20491576 0.44523633 -0.30040914 0.0067535792
-0.05268154 0.45373306 0.2874683 0.4768563 -0.38045245 -0.0029574325 -0.45722476 -0.44256964
00000000: 12d7 8f3e dcfa 2fbf 1a5b 913d 9728 07bf
00000010: 919a 123f be2d e4be bb84 023f 6cf7 40bf
00000020: af92 1bbd 6308 efbe 504b b43d a907 fdbc
00000030: fe2f c23e e1a5 c83e cd7d f1bd a033 d8be
00000040: 82b4 dd3e 6b8a 853d da2f 303e 9d5e 413f
00000050: b9c6 19bf 8ce0 f03e 11d8 8e3e 63da 053f
00000060: 5086 e7be 07da 09be eeb2 81bd 6633 553e
00000070: 870b 283e 38b7 793e d329 c53e a401 0bbf
00000080: bbe7 c9be 9932 833e abfb 23bf 6556 bf3e
00000090: 5954 253e 9bb8 e53e 074a 4c3e 37f8 753c
000000a0: 7795 dcbd b8b9 dcbe 18d6 043f 451d ad3e
000000b0: 54fc 5cbe 5c73 9cbd 17ab efbe a078 b1bc
000000c0: 36b6 a5bd 3227 b0be 2ca0 fc3e e222 fabe
000000d0: 38f0 473f c610 93bd b630 fdbd d52a 20be
000000e0: cd49 07bf 6cdb 103f f9ea 203f 1e9a 92be
000000f0: bb43 efbe e2cf 003f b8a3 903b daf7 8dbe
00000100: 7286 253f 37bc e9be caf3 f8be 87c8 cabe
00000110: 22ee d83e 2c06 053f 0dc6 403c 4483 e1be
00000120: 46cb a1be 62dc 3c3e 4cd0 1d3e fd89 0dbf
00000130: a2ea 8fbd 3171 ba3e 42c9 9ebe 45d0 d5bc
00000140: 691a 17bf 46ca 2c3c e05b 2d3f 5989 843e
00000150: 92a4 b3be f1b4 bebe e501 063e e129 113f
00000160: 7348 713e d6f7 e3be 7ee2 2c3d 465d 31bf
00000170: 5702 403e 178f 093f 13b1 1f3f 529b 93be
00000180: 5377 02bf 5eb2 2f3f 29b1 12bf 95b6 d1bd
00000190: 2814 a4be abd1 15bf 8457 0d3f 3fc4 403d
000001a0: 1163 ca3d 0460 e1bd 8a78 0dbf de7c a63e
000001b0: f334 eb3e 3180 11bd 0608 ccbe bbce 173e
000001c0: 0dca f9be d27c cfbe 5f8a 373d adf4 163f
000001d0: 4e71 a2be 9e47 153f 65b9 ef3e ab37 513e
000001e0: 2ffd 4d3e 1ef8 21bf 8c28 0cbf bac4 bcbe
000001f0: 63e2 053f 23b2 943e e729 7f3e 9136 e4be
00000200: bb91 503e 676c 2a3e 114e 513f 0779 ff3e
00000210: db36 c13d 4a5e fcbe 4479 67be 91e8 f0be
00000220: a6c8 abbc 9838 0abf 9eb2 123f e8ca 93be
00000230: 5875 04be 854e 8a3e 7c8d c33e 465a e23e
00000240: 42f8 8f3e 5417 ac3e 996c 053f 248d b63e
00000250: 3dba 36bf d3a8 8cbc b3e3 70be 7401 c4be
00000260: 8558 ccbe 9638 ee3e 8a3f 48bf b8ba b93e
00000270: b743 9cbe 830f 9ebe 48b4 01bf f366 0ebf
00000280: 75f4 f0be 871c a23e 2c2e 003e dcba ff3e
00000290: 5b29 c43d 787b d53e 95af 49be 37bc f33e
000002a0: e5d3 7dbe ec2b 7abd 60f7 a83e 1048 cc3e
000002b0: 36e1 2bbc 5b2f 443e 26f0 c2be dab5 e8be
000002c0: b857 d53d 1f50 c7be 2181 ddbe 9ff3 dcbe
000002d0: 70d5 513e 04f6 e33e 3acf 99be 214d dd3b
000002e0: 99c8 57bd b34f e83e 0c2f 933e 8226 f43e
000002f0: aaca c2be 7cd1 41bb 5d19 eabe 7d98 e2be

decoder.0.bias f4 [64]
-0.026788985 0.10214009 0.068123445 -0.47385654 0.38775438 0.43321052 -0.44055527 -0.13874757
0.06140535 0.2084114 -0.4057828 -0.2722947 0.25262126 0.015852576 0.5275676 -0.14405397
0.44276923 -0.44872192 -0.2664196 -0.2787187 -0.39479834 0.57468534 -0.5183244 -0.5115665
-0.23562579 0.3613888 0.33605427 -0.33976638 0.008966119 0.14698592 0.07100817 -0.05940116
0.17724113 -0.3141133 -0.011114567 0.13354224 0.096159376 0.39743677 0.37460065 0.1328797
-0.23137973 -0.4624351 0.25754982 0.33768687 0.29652685 -0.4381071 -0.5192389 0.16276582
-0.32224905 -0.3083282 -0.17807552 0.031085659 0.14901386 -0.41959205 -0.5238415 -0.29096532
-0.13380955 0.39423266 0.2690147 0.48648676 0.2921622 0.48555288 0.15600166 0.4795998
00000000: 9374 dbbc d32e d13d 4e84 8b3d 539d f2be
00000010: be87 c63e c5cd dd3e 7690 e1be d813 0ebe
00000020: 2d84 7b3d cc69 553e c3c2 cfbe 366a 8bbe
00000030: 9357 813e 43dd 813c ac0e 073f e282 13be
00000040: a6b2 e23e e1be e5be 2668 88be 38b4 8ebe
00000050: 0223 cabe 941e 133f e8b0 04bf 06f6 02bf
00000060: e347 71be f407 b93e 4e0f ac3e dcf5 adbe
00000070: a1e6 123c 7a83 163e bb6c 913d a14e 73bd
00000080: b37e 353e 75d3 a0be df19 36bc 4cbf 083e
00000090: 35ef c43d d57c cb3e a8cb bf3e 9e11 083e
000000a0: cfee 6cbe 4bc4 ecbe 92dd 833e 4be5 ac3e
000000b0: 5ed2 973e 934f e0be d7ec 04bf 15ac 263e
000000c0: d4fd a4be 32dd 9dbe 6e59 36be 5aa7 fe3c
000000d0: 1797 183e c5d4 d6be 7a1a 06bf 68f9 94be
000000e0: 5f05 09be ddd8 c93e 4bbc 893e cb14 f93e
000000f0: 4996 953e 639a f83e e6be 1f3e 1b8e f53e

decoder.2.weight f4 [128, 64]
0.063842416 -0.06439032 0.16497894 -0.04964654 0.0659156 -0.017874595 -0.0016033757 -0.037675757
-0.038020745 0.08451189 -0.0751797 -0.069510765 -0.057876628 0.16084465 0.11867708 -0.021631982
-0.08378366 -0.006880264 0.04057684 0.11376069 -0.024955139 0.08062156 0.07051426 0.13125238
-0.0025369585 0.03734694 0.1129176 -0.06735169 -0.0012585422 0.13829885 -0.04989589 -0.055786613
0.070903026 -0.102759495 0.141482 -0.012214735 0.08242358 0.051869836 -0.031713083 -0.038414516
0.10612393 0.0032449495 0.09470978 0.09089008 -0.013535223 0.11792 -0.0742998 0.01175726
-0.1254615 0.04109903 -0.03430047 0.046701856 0.021003263 0.0413874 0.10410552 -0.17712784
0.06743677 -0.011033454 -0.13594708 -0.07408911 0.15303311 -0.021581985 0.07029192 0.020161906
0.10589388 0.13326102 -0.055272847 -0.12885006 0.070692115 -0.025153996 -0.056295548 0.009040302
0.102805845 0.018591095 0.005984852 -0.06444937 -0.0014765826 -0.0015262892 0.13100335 -0.08143177
-0.078225315 0.06709525 -0.035182483 -0.018321037 0.00709351 0.032690525 0.063513 -0.11035679
-0.11320377 0.025233548 0.16532536 -0.07728455 0.043868825 -0.05173943 -0.004353598 0.102975726
0.022078397 -0.043233298 -0.054216113 -0.120269015 0.012097474 0.033053968 0.13692904 -0.052635618
0.11964663 -0.035875756 0.062341727 -0.034668278 0.15494588 0.07146536 0.03658716 -0.030847305
-0.22171135 0.007090627 0.13708153 0.051101435 -0.078730546 0.021454277 0.025766589 -0.08473872
-0.14028487 -0.051939715 0.033673003 -0.02279148 0.20054558 -0.030556634 -0.03941744 0.049843594
0.16087851 0.042226136 0.15661883 -0.015145335 0.08429941 -0.1005172 -0.006761213 -0.0864777
0.035772495 0.06562019 -0.04227427 0.04737843 0.10442912 0.07889159 0.013617265 -0.0998154
0.121231355 -0.10757834 -0.049680877 -0.11064837 -0.014554462 0.11709839 -0.042088453 0.040433187
-0.061106425 -0.091752 0.07347054 0.01926441 0.011658478 -0.0697033 0.15914173 0.073366754
-0.049287718 0.03228206 -0.069629766 -0.089292295 0.06191873 0.08828679 -0.062076386 -0.14638713
0.13058239 -0.19315474 0.05035774 -0.05377712 0.21006292 -0.06431127 -0.0058010225 0.013155582
-0.0047102934 -0.07100699 0.13046347 -0.046926536 0.12041518 -0.02157008 -0.115711726 0.04016887
-0.006612214 0.003041478 0.018897085 0.08829571 -0.018348813 -0.094101496 -0.020374376 0.07779811
0.13900587 -0.016772809 0.08267826 -0.10410336 0.06405557 -0.11340562 0.027421035 0.07112002
-0.00012994137 -0.09950483 0.04626446 -0.06408247 -0.038645163 0.076334864 -0.045442846 -0.034186702
-0.111376844 0.03627942 -0.022255534 -0.056291576 -0.09705913 0.04650706 0.062528946 0.08867536
0.008717697 -0.08593119 0.13862842 -0.052304506 -0.024719192 0.13584097 0.014229144 0.013677842
0.04095464 0.108433805 -0.027757604 0.0021361515 -0.089846194 0.087989196 0.146451 0.13469706
-0.06345069 -0.07286303 0.0019525201 0.032672487 0.14271088 0.037806075 -0.09940136 -0.031598024
-0.24783601 0.08451455 0.023416618 -0.013853695 -0.07456773 0.001058128 -0.03200538 -0.17670332
-0.111802876 0.0621188 0.082906745 -0.02847782 0.04673482 -0.07272165 0.13007121 0.119606294
00000000: d0bf 823d 12df 83bd 3df0 283e 2c5a 4bbd
00000010: c2fe 863d be6d 92bc 5c28 d2ba e551 1abd
00000020: a4bb 1bbd 9214 ad3d d1f7 99bd a95b 8ebd
00000030: 0b10 6dbd 76b4 243e f80c f33d 8e35 b1bc
00000040: c496 abbd d673 e1bb e733 263d 5dfb e83d
00000050: b86e ccbc eb1c a53d c869 903d 0667 063e
00000060: 1a43 26bb 1bf9 183d 5841 e73d afef 89bd
00000070: abf5 a4ba 379e 0d3e a25f 4cbd 8180 64bd
00000080: 9b35 913d 9273 d2bd a8e0 103e 5020 48bc
00000090: b2cd a83d 7775 543d 94e5 01bd 8a58 1dbd
000000a0: 8157 d93d 38a9 543b 33f7 c13d 9424 ba3d
000000b0: d7c2 5dbc 0a80 f13d 7e2a 98bd 86a1 403c
000000c0: fb78 00be 7557 283d a67e 0cbd 724a 3f3d
000000d0: 090f ac3c d685 293d 4635 d53d 0061 35be
000000e0: 4a1c 8a3d a9c5 34bc b635 0bbe 08bc 97bd
000000f0: b6b4 1c3e b4cc b0bc 36f5 8f3d 952a a53c
00000100: e4de d83d 9475 083e c865 62bd 45f1 03be
00000110: 07c7 903d c10f cebc 2996 66bd c61d 143c
00000120: df8b d23d 5a4c 983c 941c c43b 08fe 83bd
00000130: e489 c1ba c40d c8ba be25 063e b3c5 a6bd
00000140: 9834 a0bd 3c69 893d 821b 10bd 0016 96bc
00000150: ad70 e83b 80e6 053d 1b13 823d be02 e2bd
00000160: 61d7 e7bd 96b6 ce3c 0d4b 293e 5d47 9ebd
00000170: ccaf 333d b9ec 53bd a1a8 8ebb f0e4 d23d
00000180: c1dd b43c 6615 31bd b711 5ebd 9a4f f6bd
00000190: 7c34 463c 9963 073d 2037 0c3e 7298 57bd
000001a0: 4b09 f53d 75f2 12bd 0a5a 7f3d 5300 0ebd
000001b0: 22aa 1e3e 6e5c 923d 6bdc 153d 7db3 fcbc
000001c0: 4d08 63be 7e58 e83b 1a5f 0c3e bd4f 513d
000001d0: 7b3d a1bd e1c0 af3c 7414 d33c 7e8b adbd
000001e0: d6a6 0fbe bdbe 54bd b4ec 093d 33b5 babc
000001f0: d25b 4d3e e851 fabc 2e74 21bd cc28 4c3d
00000200: 56bd 243e 50f5 2c3d b060 203e 2424 78bc
00000210: 2ba5 ac3d f6db cdbd 2a8d ddbb 381b b1bd
00000220: 2e86 123d e163 863d c927 2dbd e20f 423d
00000230: efde d53d ea91 a13d f31a 5f3c 046c ccbd
00000240: 2548 f83d 0852 dcbd 2d7e 4bbd 9d9b e2bd
00000250: d775 6ebc 48d1 ef3d f164 2cbd 459d 253d
00000260: bb4a 7abd 79e8 bbbd b977 963d 65d0 9d3c
00000270: 3303 3f3c 9bc0 8ebd 0df6 223e 4f41 963d
00000280: ebe1 49bd 313a 043d 0d9a 8ebd e1de b6bd
00000290: 7f9e 7d3d b4cf b43d cf43 7ebd 82e6 15be
000002a0: 64b7 053e 5bca 45be eb43 4e3d 6645 5cbd
000002b0: bc1a 573e a1b5 83bd 8116 bebb 838a 573c
000002c0: ce58 9abb 1d6c 91bd 3798 053e 0a36 40bd
000002d0: 3c9c f63d bdb3 b0bc 45fa ecbd 1d88 243d
000002e0: 45ab d8bb 8953 473b 0fce 9a3c 62d4 b43d
000002f0: 4050 96bc 49b8 c0bd 2ae8 a6bc 9e54 9f3d
00000300: 8e57 0e3e 2167 89bc 3853 a93d 2434 d5bd
00000310: 912f 833d 3541 e8bd 14a2 e03c 5fa7 913d
00000320: df40 08b9 30c9 cbbd cd7f 3d3d ac3d 83bd
00000330: 644a 1ebd 7455 9c3d 4722 3abd 5b07 0cbd
00000340: 8b19 e4bd bb99 143d 3d51 b6bc ff91 66bd
00000350: f0c6 c6bd 307e 3e3d 2d0f 803d 6d9b b53d
00000360: acd4 0e3c b1fc afbd 9cf4 0d3e 403d 56bd
00000370: e77f cabc e519 0b3e 5b21 693c 0719 603c
00000380: 0dc0 273d 8b12 de3d ea63 e3bc adfe 0b3b
00000390: 4801 b8bd ae33 b43d 40f7 153e 07ee 093e
000003a0: 6ff2 81bd 3639 95bd b4eb ff3a 96d3 053d
000003b0: cd22 123e 8bda 1a3d f192 cbbd ee6c 01bd
000003c0: b9c8 7dbe f715 ad3d 35d4 bf3c 9cfa 62bc
000003d0: f7b6 98bd e2b0 8a3a 1318 03bd b7f1 34be
000003e0: e8f8 e4bd 4870 7e3d 03cb a93d 514a e9bc
000003f0: 036d 3f3d 17ef 94bd 6331 053e 25f4 f43d

decoder.2.bias f4 [128]
0.03055325 0.13818543 0.14055955 0.13052797 0.047103256 0.08893772 -0.045445453 0.09088751
0.1134636 -0.09884049 0.0054751323 -0.032442156 0.050912175 0.098049186 -0.07373501 -0.059053898
-0.03115675 -0.058077056 0.013583859 -0.02031796 0.047912836 0.0578514 -0.053303294 -0.112689435
0.07978836 -0.09516681 -0.030433424 0.09018847 -0.08372559 -0.14837499 0.062176455 -0.09261263
-0.123560175 -0.0897558 -0.020072853 -0.09997995 -0.095759265 -0.06374767 -0.1177368 -0.1252165
0.056525692 -0.109211996 -0.024978366 -0.03958628 -0.1065585 0.017996274 0.109472655 -0.03272673
-0.08353387 -0.08084177 -0.035136063 -0.009892446 0.03998878 -0.049855508 0.058148958 0.08800407
0.024107158 0.06468823 0.03722513 -0.062013052 -0.051777262 -0.012756865 0.07154991 -0.029828275
0.09714695 0.049396176 0.13524994 0.07545001 0.00665796 0.042878836 -0.0058531896 0.08637481
0.13331065 0.076179646 0.020581733 0.0017210027 0.10743422 -0.001229123 -0.11609496 -0.09933627
0.04744192 -0.10806655 -0.00075984973 0.09993028 0.08221572 -0.037420683 -0.056212142 0.10457109
0.022455944 -0.022702985 0.012139496 -0.072484516 -0.038268942 0.04747752 -0.15258738 0.039736744
-0.10338152 0.114235185 0.1270866 0.029137174 -0.12403201 0.13346191 0.13817814 0.0690431
0.13246523 -0.08304257 -0.08457311 0.015337819 -0.06641531 0.072497 -0.07443709 0.078846656
0.039913196 0.033145435 -0.066885285 -0.07990733 -0.0737601 -0.026158025 -0.046046153 -0.09742128
-0.0927478 -0.021688227 -0.076936476 0.011741307 -0.096715055 0.007300531 0.062683195 -0.013539866
00000000: cf4a fa3c 7b80 0d3e d8ee 0f3e 20a9 053e
00000010: 58ef 403d fb24 b63d 0325 3abd 3b23 ba3d
00000020: 9b5f e83d e26c cabd bd68 b33b 11e2 04bd
00000030: 4989 503d 03ce c83d 6202 97bd 80e2 71bd
00000040: 713c ffbc 35e2 6dbd d68e 5e3c da71 a6bc
00000050: 4040 443d 97f5 6c3d 8e54 5abd b8c9 e6bd
00000060: 1468 a33d d1e6 c2bd 844f f9bc bcb4 b83d
00000070: 5278 abbd 9def 17be bdac 7e3d b1ab bdbd
00000080: 1e0d fdbd e4d1 b7bd d36f a4bc 4ac2 ccbd
00000090: 6f1d c4bd 238e 82bd fe1f f1bd c138 00be
000000a0: 7c87 673d 8aaa dfbd 6e9f ccbc 3925 22bd
000000b0: 583b dabd ec6c 933c 3333 e03d 770c 06bd
000000c0: ce13 abbd 5f90 a5bd d5ea 0fbd ed13 22bc
000000d0: 46cb 233d 4a35 4cbd 9a2d 6e3d 7a3b b43d
000000e0: 607c c53c 437b 843d 6179 183d 6601 7ebd
000000f0: 6514 54bd 2b02 51bc c288 923d 6d5a f4bc
00000100: fbf4 c63d a553 4a3d f67e 0a3e 8985 9a3d
00000110: 042b da3b b8a1 2f3d 1dcc bfbb 47e5 b03d
00000120: 9682 083e 1304 9c3d 069b a83c 4593 e13a
00000130: 7906 dc3d 861a a1ba 32c3 edbd d070 cbbd
00000140: 7552 423d ff51 ddbd a730 47ba 3fa8 cc3d
00000150: b760 a83d 6e46 19bd b43e 66bd 5e29 d63d
00000160: 87f5 b73c 9cfb b9bc bde4 463c c372 94bd
00000170: e5bf 1cbd ca77 423d de3f 1cbe ffc2 223d
00000180: b1b9 d3bd 23f4 e93d fd22 023e 15b1 ee3c
00000190: 7f04 febd 3daa 083e 927e 0d3e 7866 8d3d
000001a0: f7a4 073e 3912 aabd ab34 adbd 7a4b 7b3c
000001b0: c004 88bd 4f79 943d 7972 98bd 5b7a a13d
000001c0: 057c 233d 82c3 073d 27fb 88bd 74a6 a3bd
000001d0: 890f 97bd 5b49 d6bc e49a 3cbd cf84 c7bd
000001e0: 8ff2 bdbd 82ab b1bc df90 9dbd 9c5e 403c
000001f0: 8b12 c6bd 4b39 ef3b 0c60 803d 50d6 5dbc
