models/tanh_train/latest.pth (torch_old, 343618 bytes, 16 tensors)

encoder.0.weight f4 [256, 4]
-0.31686977 0.023695244 0.1018949 -0.24377747 0.33254853 0.34690097 -0.26764736 0.03606644
-0.42304093 -0.045047525 0.1651002 -0.10269934 -0.30487803 0.25059217 0.30708787 -0.34555247
-0.82725745 -0.6519992 -0.10976938 0.51658314 -0.2196884 -0.5127588 -0.052691665 0.02132902
-0.018166881 0.022312462 -0.22176504 0.74100614 -0.034689683 -0.17108181 0.30124786 -0.112530954
0.28601083 0.46780866 -0.32762557 -0.34459054 0.07858913 -0.36383647 0.018551137 0.25717816
0.17074965 -0.31423345 0.035835933 -1.1979774 0.2549923 -0.091502964 -0.07533219 -0.4628959
-0.3427109 0.5774906 0.050544184 -0.06326634 -0.1611281 -0.29852012 -0.017285004 -1.1128625
0.12853102 -0.4899101 -0.27108023 -0.2840874 -0.1295426 0.5660147 0.06612087 0.52597433
-0.5011088 -0.4231446 -0.018808698 0.0943367 0.6152679 -0.026794834 0.14684457 0.2746013
-0.40574494 -0.6589702 0.24587633 0.4198478 0.30212206 0.5448514 -0.04711631 -0.033783425
0.21399036 0.5276077 -0.069840945 0.25320312 0.4797985 0.4677729 -0.027736608 0.15560727
-0.063596405 -0.6505215 0.23858628 -0.19522306 -0.21438654 0.61185807 -0.124308765 -0.4447091
-0.308313 -0.06584602 -0.070992224 -0.65194744 0.39899185 -0.22687633 -0.0747408 -0.55369884
-0.51248467 0.20076676 -0.27611986 -1.0431373 0.32265893 -0.35869384 0.10728515 0.38180798
-0.41555578 -0.092438675 -0.062174745 -0.7427331 -0.5828269 -0.30552703 -0.035439547 0.47263718
0.4685868 -0.063580565 -0.32216525 0.016504152 -0.28065127 0.61010766 0.091467336 0.13286214
-0.04056186 0.41930586 0.042958938 -0.29582527 0.0046920422 0.067974955 0.11534903 0.81882906
0.59656763 0.64210236 0.008769338 0.7449749 0.1509769 0.72994614 0.1001739 0.28221142
-0.48354805 0.046029262 -0.0935597 -0.3436515 -0.040418796 0.20387247 -0.037174717 -0.3772271
-0.10032069 0.5004177 -0.043611277 0.05003387 0.43328616 -0.3389534 -0.46390098 0.62447083
0.19987361 0.10130501 0.06461293 -0.5136316 -0.3236099 0.3868813 -0.043806612 0.07790693
0.19080846 -0.024120929 0.043852538 0.4122065 0.40313283 0.17440313 -0.5354108 0.39279237
0.2731823 0.7158828 0.05755807 -0.12007733 -0.5076293 0.21185048 -0.1822461 0.5702372
0.16293794 -0.5087197 0.053330753 -1.8108126 -0.09729215 -0.18495727 0.6716562 -0.31470764
0.12468985 0.4864187 0.19957542 0.027980052 -0.27163982 0.46634468 0.14374293 0.54908764
0.011282704 0.20915894 -0.012297683 0.6777283 -0.03390502 0.30432466 -0.1496948 0.43864387
0.04451423 -0.48645672 -0.15425526 -0.26373512 0.32434887 0.12741452 -0.12852062 -0.031031225
-0.21514268 -0.2741904 0.26400405 0.3167778 -0.37966588 -0.5988167 -0.27590844 -0.435697
0.63486403 -0.62753755 -0.47591177 -0.7905161 -0.020583848 0.23469384 -0.52600896 0.7040466
-0.42255682 0.23214707 -0.15978666 -0.8143403 0.09373743 0.4338205 0.519298 0.5215082
-0.083508186 -0.13245404 -0.031944137 -0.46103445 0.42591664 -0.2696397 0.03379415 -0.37698287
0.6213532 -0.28195226 -0.124781124 -0.035219528 0.02183506 -0.30572733 0.4149364 -0.09017856
00000000: c13c a2be 871c c23c 46ae d03d cda0 79be
00000010: cd43 aa3e 019d b13e 1309 89be 67ba 133d
00000020: d298 d8be c183 38bd 0710 293e 0854 d2bd
00000030: f918 9cbe 9e4d 803e 9f3a 9d3e 41ec b0be
00000040: 25c7 53bf 6be9 26bf c5ce e0bd cb3e 043f
00000050: fff5 60be 2944 03bf 37d3 57bd 32ba ae3c
00000060: b6d2 94bc a0c8 b63c 6016 63be 94b2 3d3f
00000070: c516 0ebd 1230 2fbe 293d 9a3e a176 e6bd
00000080: 0370 923e 9e84 ef3e 8abe a7be 2c6e b0be
00000090: 56f3 a03d c648 babe 8ef8 973c dbac 833e
000000a0: ffd8 2e3e 35e3 a0be b3c8 123d 5357 99bf
000000b0: 5a8e 823e e865 bbbd c347 9abd b100 edbe
000000c0: ce77 afbe 6dd6 133f 6b07 4f3d c891 81bd
000000d0: c4fe 24be a1d7 98be 4899 8dbc 4772 8ebf
000000e0: a39d 033e 7fd5 fabe 07cb 8abe e773 91be
000000f0: d1a6 04be 57e6 103f 616a 873d 41a6 063f
00000100: ab48 00bf 69a6 d8be b314 9abc 9a33 c13d
00000110: 3282 1d3f d780 dbbc 6c5e 163e 8b98 8c3e
00000120: cdbd cfbe 45b2 28bf 01c7 7b3e 4af6 d63e
00000130: beaf 9a3e 627b 0b3f 08fd 40bd 7d60 0abd
00000140: 4a20 5b3e 4c11 073f c508 8fbd d7a3 813e
00000150: 26a8 f53e ee7f ef3e e237 e3bc 8357 1f3e
00000160: d53e 82bd 9488 26bf f64f 743e 8ee8 47be
00000170: 2588 5bbe bba2 1c3f 9895 febd e9b0 e3be
00000180: 34db 9dbe 47da 86bd 5f64 91bd 07e6 26bf
00000190: a948 cc3e 4552 68be b411 99bd 35bf 0dbf
000001a0: 3232 03bf cd95 4d3e 955f 8dbe 8685 85bf
000001b0: 8d33 a53e b8a6 b7be 51b8 db3d 567c c33e
000001c0: bac3 d4be 7d50 bdbd f2aa 7ebd c223 3ebf
000001d0: 2534 15bf 0a6e 9cbe 0f29 11bd 80fd f13e
000001e0: 9cea ef3e 8736 82bd d8f2 a4be b733 873c
000001f0: 86b1 8fbe 0430 1c3f 3a53 bb3d 030d 083e
00000200: 3124 26bd 42af d63e b6f5 2f3d 6976 97be
00000210: b4bf 993b 7436 8b3d 1d3c ec3d c89e 513f
00000220: a8b8 183f d260 243f 45ad 0f3c adb6 3e3f
00000230: b099 1a3e c0dd 3a3f f927 cd3d 047e 903e
00000240: 9c93 f7be 2e89 3c3d 3a9c bfbd 17f3 afbe
00000250: 2e8e 25bd f2c3 503e 8444 18bd e923 c1be
00000260: ef74 cdbd 601b 003f bda1 32bd 51f0 4c3d
00000270: afd7 dd3e 4d8b adbe 6e84 edbe 52dd 1f3f
00000280: abab 4c3e 0079 cf3d c953 843d 5c7d 03bf
00000290: 32b0 a5be 4e15 c63e 906e 33bd ab8d 9f3d
000002a0: 4b63 433e 4199 c5bc b89e 333d bb0c d33e
000002b0: 6d67 ce3e bc96 323e af10 09bf 151c c93e
000002c0: 8dde 8b3e 1844 373f 03c2 6b3d 1aeb f5bd
000002d0: fef3 01bf 55ef 583e b99e 3abe 11fb 113f
000002e0: 34d9 263e 743b 02bf 5971 5a3d b5c8 e7bf
000002f0: 1b41 c7bd 7065 3dbe a9f1 2b3f 5c21 a1be
00000300: 645d ff3d df0b f93e 805d 4c3e 6c36 e53c
00000310: 6014 8bbe bbc4 ee3e 5931 133e 0291 0c3f
00000320: 17db 383c c32d 563e 397c 49bc 9a7f 2d3f
00000330: fedf 0abd 71d0 9b3e 9849 19be ee95 e03e
00000340: 8e54 363d db10 f9be 17f5 1dbe 4a08 87be
00000350: 0e11 a63e f478 023e e99a 03be 3235 febc
00000360: 5d4e 5cbe af62 8cbe 8a2b 873e b330 a23e
00000370: 9163 c2be 0d4c 19bf df43 8dbe ad13 dfbe
00000380: 7386 223f 4da6 20bf b5aa f3be 435f 4abf
00000390: 759f a8bc 9553 703e 86a8 06bf 663c 343f
000003a0: 5e59 d8be f6b7 6d3e 1d9f 23be 9b78 50bf
000003b0: 69f9 bf3d b81d de3e b7f0 043f 9081 053f
000003c0: 5706 abbd 08a2 07be dbd7 02bd b50c ecbe
000003d0: bf11 da3e 370e 8abe bc6b 0a3d e603 c1be
000003e0: 0111 1f3f 0c5c 90be 3f8d ffbd 5a42 10bd
000003f0: 71df b23c 4b88 9cbe 8b72 d43e 89af b8bd

encoder.0.bias f4 [256]
0.35689893 0.57371235 -0.24084274 0.18148614 -0.11840078 0.05120662 -0.5782572 0.6434359
0.16985363 0.607335 -0.19192916 0.0062365034 -0.5914475 0.7655814 0.32917145 -0.43015796
-0.07550233 0.510089 -0.33140603 0.34949547 -0.32463032 -0.7849252 -0.32097903 -0.9176312
0.41407636 0.62320125 0.2880881 -0.2904126 0.6733563 -0.3681129 0.51425695 -0.5000366
-0.531505 0.5161329 0.4268162 0.048159596 0.634794 -0.291631 -0.09455194 0.554261
-0.7412426 0.21072531 0.52280265 -0.4442064 -0.33826074 -0.27827808 0.056652047 0.19502576
-0.32715884 0.48352695 -0.4984176 -0.7447872 -0.5610548 0.15188019 0.27481434 -0.41412538
-0.21686386 0.06465534 -0.13250929 0.20058736 0.49481615 0.240561 -0.11804908 -0.5367657
-0.2941527 0.0801701 -0.33927047 0.25869897 0.35581934 -0.49338764 -0.3876908 0.22046028
0.58178955 -0.28039128 0.038130336 0.47795385 -0.6083976 0.35059595 0.20621195 0.17960104
0.34186533 -0.45961326 -0.46602815 -0.32560444 -0.41180065 -0.5383292 -0.34773868 -0.11447437
0.23609425 -0.011362676 0.647261 -0.64659363 0.00015236686 0.023142595 0.2860748 -0.12466336
-0.46551582 -0.24697728 0.41157782 0.25724533 0.16580352 -0.30272633 -0.36406276 0.443519
0.09767214 0.5026429 -0.21566239 0.69140935 0.29803443 0.21231446 -0.5860939 0.33012187
-0.26231936 -0.4812726 -0.21689126 -0.611031 0.511281 0.63203573 0.010514779 -0.5203273
0.66138667 -0.32083675 -0.010264008 -0.15956323 -0.1677617 -0.93318737 0.6053159 0.059112635
-0.6508404 0.1442532 -0.44158918 0.13836421 0.47692925 0.33603528 1.1846119 -0.46657994
0.060828295 -0.38045517 -0.13711734 0.60333955 0.24167511 0.20459019 0.508302 -0.5020031
-0.7470267 -0.84143007 0.50805295 -0.40598664 0.51497597 -0.6197565 0.02837918 -0.427448
-0.05908057 0.79114217 0.4994639 0.6836734 -0.44878766 -0.14204575 0.11086532 -0.007546604
0.14196128 0.5119945 -0.07621264 0.9959951 0.42957732 0.47364327 -0.5212957 0.077876225
-0.46024737 0.19397824 -0.20214035 0.6298904 -0.78762776 0.41746047 -0.5704078 0.303362
-0.46349233 -0.6937799 -0.42595002 0.20139058 0.2855152 -0.58518004 -0.23916738 -0.12841988
-0.57548535 0.2773775 -0.5255342 0.10910804 -0.39775327 0.18182255 -0.32938707 -0.66777986
0.12431977 0.6058563 0.21604522 -0.6384451 -0.50813854 0.26282677 0.32871175 0.06829971
0.6108524 0.50939775 -0.4429887 -0.35387468 -0.40401322 -0.6286063 0.50212735 -0.22566195
-0.5548796 0.023216965 -0.2192793 -0.32508346 0.8181709 -0.6070795 -0.60177016 0.26540747
-0.51550823 -0.48087573 -0.31688082 -0.6010507 -0.460167 -0.40473315 0.6310268 0.06831506
-0.08994072 -0.23359022 -0.13245502 0.48552564 0.25739864 0.27123055 -0.2200054 0.44723412
-0.098224364 -0.7574068 -0.8131547 0.5980856 0.44628522 0.3910902 -0.2962723 -0.40065306
-0.3399361 0.74464196 0.19906238 0.43429393 -0.37902534 0.28145778 -0.37147307 -0.05066843
-0.005425249 0.39901245 0.16530563 0.22373277 0.41134533 -0.5182562 0.12444994 -0.07306024
00000000: 75bb b63e d0de 123f 7b9f 76be 81d7 393e
00000010: 1c7c f2bd 08be 513d aa08 14bf 37b8 243f
00000020: 1cee 2d3e 4e7a 1b3f 1489 44be 955b cc3b
00000030: 1a69 17bf 25fd 433f 2989 a83e aa3d dcbe
00000040: f7a0 9abd 3195 023f 0dae a9be 12f1 b23e
00000050: f235 a6be dcf0 48bf 5d57 a4be e1e9 6abf
00000060: d101 d43e 1e8a 1f3f 4980 933e f6b0 94be
00000070: 1461 2c3f 4b79 bcbe 58a6 033f 6602 00bf
00000080: b610 08bf 4921 043f a787 da3e ff42 453d
00000090: dc81 223f a950 95be 73a4 c1bd 0de4 0d3f
000000a0: 13c2 3dbf 60c8 573e 65d6 053f 056f e3be
000000b0: 8330 adbe 777a 8ebe fa0b 683d d5b4 473e
000000c0: 5d81 a7be d890 f73e 9730 ffbe 60aa 3ebf
000000d0: 4aa1 0fbf 7b86 1b3e 77b4 8c3e 3e08 d4be
000000e0: 8f11 5ebe 056a 843d 84b0 07be c666 4d3e
000000f0: 8b58 fd3e 9f55 763e b7c3 f1bd 7a69 09bf
00000100: 2f9b 96be 3930 a43d dcb4 adbe 3174 843e
00000110: f42d b63e 4e9d fcbe 697f c6be 57c0 613e
00000120: 29f0 143f 728f 8fbe 8e2e 1c3d 5eb6 f43e
00000130: f2bf 1bbf 5081 b33e 3a29 533e 56e9 373e
00000140: f908 af3e 6e52 ebbe 3e9b eebe a0b5 a6be
00000150: 89d7 d2be f1cf 09bf ce0a b2be 8a71 eabd
00000160: b1c2 713e 842a 3abc e6b2 253f 2987 25bf
00000170: abc4 1f39 8a95 bd3c 6578 923e 814f ffbd
00000180: 1758 eebe 9de7 7cbe 54ba d23e a9b5 833e
00000190: 66c8 293e f2fe 9abe 6f66 babe ec14 e33e
000001a0: 5508 c83d 35ad 003f 9ad6 5cbe 3400 313f
000001b0: f897 983e f668 593e 400a 16bf bc05 a93e
000001c0: b94e 86be 5d69 f6be be18 5ebe 876c 1cbf
000001d0: 50e3 023f 18cd 213f 2e46 2c3c 2c34 05bf
000001e0: a350 293f b744 a4be 5f2a 28bc 8b64 23be
000001f0: b9c9 2bbe 5ee5 6ebf fcf5 1a3f 1720 723d
00000200: 7a9d 26bf 1cb7 133e fa17 e2be 59af 0d3e
00000210: 1230 f43e d10c ac3e 5da1 973f 91e3 eebe
00000220: 1727 793d 05cb c2be 7d68 0cbe 7674 1a3f
00000230: ae79 773e 1780 513e 1420 023f 4683 00bf
00000240: 243d 3fbf f667 57bf c20f 023f 7bdd cfbe
00000250: 77d5 033f 5da8 1ebf 747b e83c 77da dabe
00000260: 78fe 71bd 4b88 4a3f bbb9 ff3e 3805 2f3f
00000270: 7fc7 e5be 7174 11be 5b0d e33d 8149 f7bb
00000280: 4c5e 113e 1212 033f 5f15 9cbd 89f9 7e3f
00000290: 8ff1 db3e 5f81 f23e a373 05bf 927d 9f3d
000002a0: 8ba5 ebbe 3ba2 463e e1fd 4ebe 7f40 213f
000002b0: f9a1 49bf 61bd d53e 3f06 12bf 4452 9b3e
000002c0: de4e edbe 8f9b 31bf 1f16 dabe 5539 4e3e
000002d0: 0c2f 923e 5cce 15bf 4be8 74be 8080 03be
000002e0: 0253 13bf 6c04 8e3e 6989 06bf 0974 df3d
000002f0: 51a6 cbbe b12f 3a3e 6ca5 a8be 9ff3 2abf
00000300: 5d9b fe3d 6619 1b3f f53a 5d3e 2371 23bf
00000310: 5e15 02bf 3b91 863e e84c a83e b8e0 8b3d
00000320: d360 1c3f e467 023f 6acf e2be 102f b5be
00000330: d2da cebe 58ec 20bf 6b8b 003f ed13 67be
00000340: 970c 0ebf 8131 be3c c18a 60be 5771 a6be
00000350: a673 513f 9069 1bbf 9c0d 1abf 7de3 873e
00000360: 59f8 03bf 5835 f6be 343e a2be 75de 19bf
00000370: 029b ebbe 2f39 cfbe f98a 213f c4e8 8b3d
00000380: d732 b8bd 4632 6fbe 4aa2 07be d196 f83e
00000390: c1c9 833e bbde 8a3e 1849 61be dffb e43e
000003a0: db29 c9bd 69e5 41bf e82a 50bf 231c 193f
000003b0: 7f7f e43e fa3c c83e 01b1 97be 6622 cdbe
000003c0: 1b0c aebe dba0 3e3f 02d7 4b3e c65b de3e
000003d0: 9c0f c2be 3c1b 903e b831 bebe b389 4fbd
000003e0: 4ac6 b1bb 5c4b cc3e e145 293e 341a 653e
000003f0: db9b d23e 70ac 04bf 9cdf fe3d 9ba0 95bd

encoder.2.weight f4 [128, 256]
-0.074931026 -0.064307116 0.09628335 0.011081598 -0.016832285 0.08084784 0.08505509 0.03147806
0.02035728 -0.055029996 0.13661243 0.069318555 0.06094163 0.070236996 0.0433818 0.049113773
-0.048325915 -0.024618331 -0.007537989 0.008881933 -0.030533105 0.00061622716 -0.050208397 0.034982555
0.09561779 -0.051723503 0.0235463 -0.053600322 0.03165618 0.027933488 -0.073145956 0.00395909
0.016253905 0.0086179115 -0.06259869 0.0040756385 0.0077721 0.11628848 -0.0005738962 -0.046300117
0.02263564 0.012026697 0.012113569 -0.004729759 0.005059465 0.03885654 0.17324448 0.02932113
-0.06938777 0.004046991 -0.08466631 -0.006448645 0.0865906 -0.039103616 -0.010116376 0.051245727
-0.013990928 -0.116316155 -0.04083094 -0.03411681 0.06290663 0.022808196 0.119982 0.0015613538
-0.033920813 -0.03717143 0.016342586 -0.048425164 -0.067598246 -0.058474816 0.07376845 0.014342289
0.026430147 -0.10774759 -0.004598562 0.026702631 0.09389144 -0.021054538 -0.07521666 -0.030326607
-0.0026441605 0.024120435 0.09114843 -0.00046609886 -0.028808683 -0.020489935 0.011152854 0.044989936
-0.012911003 0.01488764 0.11322709 0.08759765 0.047722712 0.08316855 0.052278772 -0.22491309
0.04519111 0.07140416 0.047914553 0.027329719 0.09537483 -0.004703021 0.1399443 -0.062248025
0.061345138 -0.06157405 0.043961894 -0.03496122 -0.0502989 -0.022522736 0.07713881 -0.01366669
-0.049724605 0.07221429 -0.021762203 -0.015457259 0.033234064 0.000586608 0.34781432 0.12950075
-0.042456165 0.1614719 0.02273716 -0.010898037 -0.018721245 -0.030135173 0.032330953 -0.0667946
0.027330922 -0.01046162 -0.042431697 0.008800567 -0.0903294 0.021628281 0.0006761579 -0.030477708
-0.18116984 -0.013906793 -0.0036512264 -0.09796343 -0.023852954 0.049981847 -0.086283326 0.034653686
0.008799291 0.053937685 0.018074451 0.063625455 0.0041764835 -0.0048676636 0.02702005 -0.013005253
-0.05128588 0.04823433 -0.10782813 -0.006562165 0.054632027 0.007215751 0.023263345 -0.04514012
-0.06342679 0.027816964 0.041475 -0.061380662 0.024310958 -0.06361036 -0.076964766 0.008888952
0.11197904 0.04594393 0.039812725 0.014630083 0.055070568 -0.107944906 -0.027366497 -0.1350532
0.05596844 0.08498178 -0.0064876103 -0.10237213 0.0014766731 -0.049735986 0.019603707 -0.051366046
0.034150187 0.012056299 -0.02840422 0.0021943266 0.11721698 -0.0574031 -0.0031447504 0.05797713
0.04758866 -0.022317516 -0.042864505 -0.001084376 0.053335153 0.025166564 -0.061972223 -0.2785065
0.034213666 -0.10624652 0.004909579 0.0020007382 0.04163464 0.01275335 -0.07982848 0.09373315
0.07776857 -0.1834361 -0.023458512 0.008707359 0.05783302 0.029205943 -0.01208269 -0.041684203
-0.0026582645 -0.03320521 0.05412713 -0.013108618 0.038467504 0.02513311 -0.015573579 0.18999858
-0.05815497 0.10483863 -0.020487651 -0.043755464 0.041991986 -0.017246284 0.10025484 0.019698696
0.11825132 0.04433038 -0.0773121 0.0148182865 0.035973053 0.116928056 -0.042336363 0.0644906
-0.115840845 -0.06673898 -0.1483551 0.079061024 0.04305474 -0.044215005 -0.005883811 -0.062452745
-0.019463977 -0.040316727 -0.021522993 0.0047339406 0.13785096 -0.033229623 -0.04902995 0.049272306
00000000: 7075 99bd 73b3 83bd 3430 c53d 978f 353c
00000010: dce3 89bc 8d93 a53d 5d31 ae3d 23ef 003d
00000020: 4fc4 a63c 2267 61bd 21e4 0b3e e3f6 8d3d
00000030: ee9d 793d 6ad8 8f3d 1db1 313d 862b 493d
00000040: 65f1 45bd 62ac c9bc 3c01 f7bb 8785 113c
00000050: 9020 fabc 4e8a 213a 52a7 4dbd de49 0f3d
00000060: 43d3 c33d 06dc 53bd 2ce4 c03c 038c 5bbd
00000070: e9a9 013d c5d4 e43c 8ccd 95bd 41bb 813b
00000080: e926 853c 2432 0d3c be33 80bd ef8c 853b
00000090: 1aad fe3b a828 ee3d 8671 16ba 31a5 3dbd
000000a0: 616e b93c a00b 453c fe77 463c 18fc 9abb
000000b0: dec9 a53b 0928 1f3d 0067 313e de32 f03c
000000c0: 2d1b 8ebd 9f9c 843b 8865 adbd 284f d3bb
000000d0: 6a56 b13d 1d2b 20bd 28bf 25bc 0ae7 513d
000000e0: 353a 65bc 2a37 eebd 583e 27bd 11be 0bbd
000000f0: 31d5 803d 41d8 ba3c 1fb9 f53d 57a6 cc3a
00000100: 8df0 0abd 1241 18bd e3e0 853c 7759 46bd
00000110: f370 8abd 4a83 6fbd ea13 973d ecfb 6a3c
00000120: 0984 d83c c5aa dcbd 89af 96bb 7abf da3c
00000130: 284a c03d 917a acbc 310b 9abd 816f f8bc
00000140: a749 2dbb 3898 c53c 07ac ba3d bb5e f4b9
00000150: 3000 ecbc 82da a7bc 76ba 363c 5e47 383d
00000160: ac88 53bc 4aeb 733c 9be3 e73d 6666 b33d
00000170: e478 433d 4654 aa3d 4422 563d 9e4f 66be
00000180: 501a 393d 583c 923d 0d42 443d 93e2 df3c
00000190: e153 c33d cd1b 9abb 8f4d 0f3e c9f7 7ebd
000001a0: 0a45 7b3d 1235 7cbd 6311 343d 7f33 0fbd
000001b0: 3806 4ebd 9a81 b8bc f4fa 9d3d 41ea 5fbc
000001c0: 07ac 4bbd 16e5 933d a646 b2bc 7140 7dbc
000001d0: 7120 083d 99c6 193a b814 b23e d89b 043e
000001e0: 84e6 2dbd e458 253e 4843 ba3c ae8d 32bc
000001f0: 4c5d 99bc 0ade f6bc 766d 043d 9bcb 88bd
00000200: 19e5 df3c 3767 2bbc dccc 2dbd 4130 103c
00000210: 9ffe b8bd cb2d b13c 3040 313a 63ac f9bc
00000220: 9684 39be 51d9 63bc 6a49 6fbb 0da1 c8bd
00000230: 4567 c3bc c4b9 4c3d 50b5 b0bd 06f1 0d3d
00000240: e72a 103c c3ed 5c3d df10 943c 104e 823d
00000250: e2da 883b ec80 9fbb 2759 dd3c fc13 55bc
00000260: 2511 52bd 5c91 453d ffd4 dcbd 6e07 d7bb
00000270: d5c5 5f3d 1b72 ec3b c592 be3c d9e4 38bd
00000280: e8e5 81bd 67e0 e33c b1e1 293d 4a6a 7bbd
00000290: c627 c73c 2646 82bd b49f 9dbd f8a2 113c
000002a0: 4455 e53d b42f 3c3d ab12 233d 04b3 6f3c
000002b0: ad91 613d 3812 ddbd b42f e0bc 634b 0abe
000002c0: 2a3f 653d ed0a ae3d 0596 d4bb 7ba8 d1bd
000002d0: ed8c c13a f6b7 4bbd f497 a03c 3465 52bd
000002e0: 11e1 0b3d c887 453c f7af e8bc b1ce 0f3b
000002f0: 750f f03d 831f 6bbd 2818 4ebb 6d79 6d3d
00000300: 54ec 423d 39d3 b6bc b192 2fbd 9f21 8eba
00000310: f675 5a3d 1c2a ce3c 96d6 7dbd 6798 8ebe
00000320: a123 0c3d c797 d9bd 89e0 a03b d11e 033b
00000330: 1689 2a3d 6df3 503c 1d7d a3bd 2af7 bf3d
00000340: 2145 9f3d acd6 3bbe 112c c0bc 50a9 0e3c
00000350: 51e2 6c3d 4d41 ef3c 7af6 45bc 0ebd 2abd
00000360: 4736 2ebb 3002 08bd 69b4 5d3d 87c5 56bc
00000370: 1a90 1d3d f4e3 cd3c 5328 7fbc fd8e 423e
00000380: e833 6ebd a3b5 d63d b8d5 a7bc ee38 33bd
00000390: caff 2b3d 1448 8dbc 6952 cd3d 295f a13c
000003a0: c02d f23d c693 353d ce55 9ebd 66c8 723c
000003b0: 7b58 133d fa77 ef3d e568 2dbd a613 843d
000003c0: f73d edbd 72ae 88bd 66ea 17be bfea a13d
000003d0: 2b5a 303d cb1a 35bd fccc c0bb 73ce 7fbd
000003e0: eb72 9fbc 2723 25bd fd50 b0bc 2c1f 9b3b
000003f0: cd28 0d3e c91b 08bd a1d3 48bd c2d1 493d

encoder.2.bias f4 [128]
-0.03215702 -0.14090222 -0.049228765 0.0061581046 0.04258061 0.19459906 0.051481918 -0.024799857
-0.038178958 0.03821018 0.04573462 -0.07530462 -0.03472002 -0.0076688565 0.004042811 -0.040104333
-0.026039397 0.042942744 0.013458362 0.06665819 0.103521265 0.016140267 0.092744626 0.124207355
0.21033041 -0.0042924397 0.13896093 0.0878918 0.024399873 0.11711034 -0.100294515 -0.032866754
0.026007777 0.025996089 -0.030807413 0.06624175 0.009749347 0.011914313 0.04524168 -0.043249168
0.001156267 -0.029914504 -0.010110423 0.030796714 -0.03562573 -0.0018577453 0.00013920241 0.028417276
0.030710751 0.026647553 -0.012941102 -0.0050812135 0.122937605 -0.010124583 0.080263734 0.0062480452
-0.008849895 0.039474614 -0.028109403 0.0031953296 -0.024672052 0.0758867 -0.07101378 0.091815494
0.010638002 0.023985121 0.06677697 -0.103920415 0.018713925 -0.012274642 0.04746978 -0.019115651
-0.025004782 -0.14948717 0.40419757 0.23409817 0.00505423 -0.010109897 -0.0065259505 -0.13551103
0.032571815 -0.034635082 0.021698149 0.10299634 -0.00044847996 -0.024999637 -0.10795075 0.006208255
0.051901113 0.026709676 0.013782243 0.025558129 -0.088917464 0.3202045 0.07587601 0.06352397
0.11387704 -0.027258903 -0.050270148 -0.06479799 -0.006741515 0.061761815 0.03248334 0.0616378
0.12483659 -0.034628708 0.0027072553 -0.016273627 0.015476526 -0.0014473149 -0.07001602 0.0666317
-0.027754167 0.045539957 0.009100979 0.049685225 -0.03974708 -0.08002933 -0.0138002485 -0.11822648
-0.032693293 -0.029905777 -0.046548046 -0.053669326 -0.07803971 0.02468033 0.038819622 -0.35614234
00000000: 14b7 03bd ac48 10be 1aa4 49bd edc9 c93b
00000010: 0169 2e3d fa44 473e b4de 523d 1229 cbbc
00000020: 8a61 1cbd 4782 1c3d 3a54 3b3d 4f39 9abd
00000030: 9436 0ebd 084b fbbb 8f79 843b 7144 24bd
00000040: 9350 d5bc bbe4 2f3d 7680 5c3c 1784 883d
00000050: f502 d43d 9838 843c e5f0 bd3d 6d60 fe3d
00000060: db60 573e 98a7 8cbb c64b 0e3e 9e00 b43d
00000070: 3ee2 c73c 8cd7 ef3d 3667 cdbd 4a9f 06bd
00000080: 430e d53c c0f5 d43c d45f fcbc c1a9 873d
00000090: babb 1f3c 4034 433c 574f 393d 0a26 31bd
000000a0: e28d 973a 430f f5bc 30a6 25bc 6449 fc3c
000000b0: 49ec 11bd 977f f3ba ddf6 1139 59cb e83c
000000c0: 1d95 fb3c f84b da3c ea06 54bc 4f80 a6bb
000000d0: b6c6 fb3d 94e1 25bc 5061 a43d 67bc cc3b
000000e0: 26ff 10bc 22b0 213d b145 e6bc bc68 513b
000000f0: 0b1d cabc 7c6a 9b3d ac6f 91bd c309 bc3d
00000100: 044b 2e3c 727c c43c 5dc2 883d 3ad4 d4bd
00000110: f24d 993c 941b 49bc ac6f 423d 6d98 9cbc
00000120: d4d6 ccbc 2a13 19be fcf2 ce3e 6eb7 6f3e
00000130: f49d a53b fba3 25bc a4d7 d5bb 67c3 0abe
00000140: 066a 053d 84dd 0dbd 51c0 b13c bfef d23d
00000150: f621 ebb9 0acc ccbc 4815 ddbd 9e6e cb3b
00000160: 4396 543d 40ce da3c ebce 613c 485f d13c
00000170: 5c1a b6bd d8f1 a33e e264 9b3d db18 823d
00000180: 5e38 e93d 104e dfbc 12e8 4dbd cfb4 84bd
00000190: ede7 dcbb f5f9 7c3d 400d 053d eb77 7c3d
000001a0: 53aa ff3d d5d6 0dbd 356c 313b 4550 85bc
000001b0: 4191 7d3c d4b3 bdba 8f64 8fbd 3376 883d
000001c0: b55c e3bc 1b88 3a3d 461c 153c bc82 4b3d
000001d0: d6cd 22bd 6be6 a3bd 701a 62bc ba20 f2bd
000001e0: 67e9 05bd f6fc f4bc 2aa9 3ebd 5ed4 5bbd
000001f0: 49d3 9fbd 672e ca3c 5301 1f3d 4a58 b6be

encoder.4.weight f4 [64, 128]
-0.06838521 -0.043678425 0.057845186 0.014098934 0.09624379 0.014575571 0.044818975 0.026522104
0.0017736154 -0.05556087 -0.013216287 -0.018949887 0.002150572 0.022593051 -0.009549195 -0.015070475
-0.040341962 0.0026419426 0.028069053 0.038631555 -0.02239408 0.090453066 -0.0016165465 0.013774709
-0.06615511 0.05666909 0.08493177 -0.032314003 0.028705005 0.0034738553 -0.07472346 0.003629755
-0.02094285 0.014847023 -0.019149749 -0.0041476893 -0.0054798746 0.037790652 -0.056512307 -0.036392793
-0.08906872 0.0115442285 -0.020865712 -0.0704156 0.028105777 0.04137345 -0.025478117 0.042156123
0.00610844 0.0041579185 -0.13819776 -0.06934951 -0.008820374 0.07794966 -0.06273473 0.068512306
0.045726907 0.024436355 -0.08382167 -0.06958397 -0.076655254 0.0037104255 0.04921635 -0.07085085
-0.08388809 0.072070256 0.012253762 -0.03483507 -0.07466282 -0.0033749626 -0.016164782 -0.003667291
0.044469036 0.043404736 -0.046131518 0.06526375 -0.03768289 0.042030472 0.062371418 -0.052679755
-0.042744912 0.121968254 -0.056185335 0.036368992 -0.08194879 0.0056098658 -0.03954667 -0.08805491
0.08885708 -0.051916257 -0.05139195 -0.090934806 -0.03050171 -0.04886726 0.06180536 0.020633895
-0.06082947 0.062566064 -0.14629024 0.008236002 0.07802544 -0.037537567 0.037123438 0.05558192
-0.08234317 0.0023902263 -0.017728284 0.06897627 -0.064006366 0.024892354 -0.03348092 0.036999125
0.093290396 -0.027010055 0.049045473 -0.0129764415 -0.015656373 -0.021049166 -0.1182796 -0.05893469
-0.085280955 0.07734677 0.044274583 0.006457881 0.03189895 -0.052421123 0.09387687 -0.15656933
-0.08650756 -0.027152583 0.027715594 -0.044816382 -0.03800727 -0.064625606 0.027963832 -0.03309485
0.09148491 0.055624835 0.044486683 -0.01357579 -0.013389815 0.008432779 0.037772052 0.08447438
-0.042233266 0.032777265 0.025963694 -0.0579753 -0.024868768 0.08897992 0.010340063 -0.072616525
0.031316414 -0.07972998 -0.031775128 0.049960766 0.0780107 0.07331556 -0.0491507 0.039738674
-0.11319597 -0.044946432 0.08137995 -0.051385332 -0.015476763 0.023045823 -0.07802125 0.007399171
-0.044624947 0.06887668 -0.093173176 -0.16031161 -0.08182519 -0.04793607 -0.049383007 -0.017326435
0.003059452 0.03385058 -0.052296095 0.0649736 0.026348341 -0.09324971 0.030231198 -0.011850593
-0.055900786 -0.0059341914 -0.0367309 0.042508125 0.06343452 0.035440158 0.019057732 -0.028443763
-0.06694759 0.07076777 -0.05141932 0.091342404 -0.037506 0.05008446 -0.05779067 -0.056648582
0.04620272 0.015047724 -0.07863381 -0.014498157 0.0014075548 0.04294408 -0.019667448 0.06221782
-0.009334668 -0.013388546 -0.0564827 -0.02578049 -0.08733809 -0.032105386 0.07553735 -0.029895527
0.078170784 0.024867183 -0.015857482 0.08446961 -0.02322066 -0.061507046 -0.04752274 -0.02445654
-0.008980233 0.04050242 0.099716544 0.09152205 0.009211437 -0.043503564 -0.016200349 -0.03497874
-0.111727774 -0.010098962 0.026448315 0.06780225 -0.061645653 0.023461048 0.10182624 0.05687182
0.0033438834 -0.10810993 -0.021147486 0.07489329 -0.05103923 -0.086652495 -0.14242533 -0.0718685
-0.052099444 0.04451885 0.075830095 0.0549093 0.010930659 -0.012375001 0.09152043 -0.104442574
00000000: 8c0d 8cbd 26e8 32bd 13ef 6c3d 37ff 663c
00000010: 771b c53d 60ce 6e3c 1a94 373d e244 d93c
00000020: a878 e83a cb93 63bd 2089 58bc cb3c 9bbc
00000030: 9cf0 0c3b 1015 b93c 3a74 1cbc 27ea 76bc
00000040: 9d3d 25bd 7124 2d3b 12f1 e53c 1f3c 1e3d
00000050: ca73 b7bc 753f b93d 4de2 d3ba 51af 613c
00000060: 557c 87bd d91d 683d b5f0 ad3d b05b 04bd
00000070: c226 eb3c 9fa9 633b 9d08 99bd 2fe1 6d3b
00000080: 5790 abbc ee40 733c efdf 9cbc 57e9 87bb
00000090: 8590 b3bb 5fca 1a3d 7379 67bd 9c10 15bd
000000a0: a969 b6bd 0124 3d3c 92ee aabc 0e36 90bd
000000b0: 163e e63c 3577 293d 7cb7 d0bc e6ab 2c3d
000000c0: 4f29 c83b 263f 883b b783 0dbe 1e07 8ebd
000000d0: 5483 10bc 12a4 9f3d 117b 80bd 2e50 8c3d
000000e0: 234c 3b3d c02e c83c b2aa abbd 0a82 8ebd
000000f0: 6efd 9cbd 9c2a 733b 1597 493d 401a 91bd
00000100: 85cd abbd 9299 933d 01c4 483c 38af 0ebd
00000110: d2e8 98bd 7a2e 5dbb 016c 84bc ef56 70bb
00000120: 2a25 363d 2ac9 313d 67f4 3cbd 00a9 853d
00000130: 6059 1abd 2528 2c3d 2c79 7f3d bac6 57bd
00000140: 4a15 2fbd 7eca f93d 9822 66bd a7f7 143d
00000150: c4d4 a7bd f7d2 b73b b0fb 21bd 2256 b4bd
00000160: b3fa b53d 24a6 54bd 5e80 52bd 073c babd
00000170: b9de f9bc 0929 48bd 9e27 7d3d 6a08 a93c
00000180: 5328 79bd a322 803d 1ccd 15be 4cf0 063c
00000190: cdcb 9f3d fec0 19bd bf0e 183d dea9 633d
000001a0: 89a3 a8bd 58a5 1c3b e83a 91bc 6e43 8d3d
000001b0: c515 83bd 0deb cb3c 4a23 09bd 658c 173d
000001c0: 090f bf3d 3144 ddbc e8e3 483d 249b 54bc
000001d0: cb41 80bc 4d6f acbc 933c f2bd 8065 71bd
000001e0: c8a7 aebd fc67 9e3d 4459 353d a29c d33b
000001f0: 79a8 023d 88b7 56bd 8442 c03d b653 20be
00000200: e02a b1bd 186f debc d00b e33c 6291 37bd
00000210: 83ad 1bbd 6e5a 84bd 6814 e53c 778e 07bd
00000220: 715c bb3d ded6 633d ab37 363d fe6c 5ebc
00000230: f460 5bbc a429 0a3c deb6 1a3d e700 ad3d
00000240: cafc 2cbd 7441 063d d0b1 d43c 8277 6dbd
00000250: 96b9 cbbc 1b3b b63d 5e69 293c f9b7 94bd
00000260: a445 003d 7949 a3bd a326 02bd a9a3 4c3d
00000270: 13c4 9f3d 7826 963d 3f52 49bd 05c5 223d
00000280: 4ad3 e7bd c019 38bd 88aa a63d 6d79 52bd
00000290: 4092 7dbc 98ca bc3c 9bc9 9fbd bf74 f23b
000002a0: a6c8 36bd 380f 8d3d 94d1 bebd ba28 24be
000002b0: f793 a7bd 9d58 44bd d645 4abd 2bf0 8dbc
000002c0: 1681 483b e8a6 0a3d 6e34 56bd e110 853d
000002d0: 7ad8 d73c b4f9 bebd 6ba7 f73c fd28 42bc
000002e0: 39f8 64bd 9b73 c2bb 2473 16bd 001d 2e3d
000002f0: f5e9 813d b329 113d f61e 9c3c e502 e9bc
00000300: d11b 89bd b1ee 903d 119d 52bd ba11 bb3d
00000310: e49f 19bd 5d25 4d3d e9b5 6cbd 5808 68bd
00000320: 103f 3d3d bb8a 763c c30a a1bd ae89 6dbc
00000330: b47d b83a 22e6 2f3d a11d a1bc 1dd8 7e3d
00000340: 6ff0 18bc a25b 5bbc 675a 67bd 9b31 d3bc
00000350: 50de b2bd f080 03bd 53b3 9a3d 77e7 f4bc
00000360: 0118 a03d 43b6 cb3c 8de7 81bc 67fe ac3d
00000370: 4139 bebc d0ee 7bbd 34a7 42bd 1559 c8bc
00000380: d421 13bc dee5 253d 3038 cc3d ea6f bb3d
00000390: 91eb 163c cb30 32bd 98b6 84bc de45 0fbd
000003a0: 88d1 e4bd 1e76 25bc 23aa d83c e8db 8a3d
000003b0: 2780 7cbd 6231 c03c 478a d03d 6df2 683d
000003c0: 0e25 5b3b bd68 ddbd 7e3d adbc a761 993d
000003d0: 830e 51bd dd76 b1bd f2d7 11be cb2f 93bd
000003e0: 3a66 55bd 6659 363d cf4c 9b3d 93e8 603d
000003f0: 8216 333c 84c0 4abc 106f bb3d fde5 d5bd

encoder.4.bias f4 [64]
-0.03745205 -0.02956558 -0.047309175 0.010979035 0.09927966 0.06604574 0.027293017 -0.051817026
0.036970034 -0.02390081 -0.030933587 -0.0115859425 0.032708596 0.0101854205 0.09656536 0.055523302
0.0650708 0.026612567 0.060960952 0.0302001 -0.018681638 0.06444761 -0.007370043 0.06450404
0.073424816 -0.11106209 -0.028326934 -0.014901682 0.029012827 -0.02376205 0.10306174 -0.0066988943
0.15913264 0.016185759 -0.058262385 0.057172593 -0.06534673 0.008909914 -0.06635862 0.031041047
0.12210025 -0.00797738 0.07780194 0.02540292 -0.008574224 -0.06634278 -0.06796451 -0.063480414
0.044908207 -0.22279464 -0.095906645 -0.043530136 0.100590944 -0.06444614 -0.078670084 0.040342495
0.09147394 0.041032307 -0.039424386 0.005246476 0.026164679 -0.051726043 -0.04049389 -0.06362101
00000000: 5267 19bd 8433 f2bc 44c7 41bd 69e1 333c
00000010: 2253 cb3d fd42 873d 9b95 df3c 173e 54bd
00000020: e46d 173d a2cb c3bc 6f68 fdbc f7d2 3dbc
00000030: 73f9 053d c0e0 263c 0fc4 c53d 676c 633d
00000040: d743 853d 9902 da3c 31b2 793d 3366 f73c
00000050: 3c0a 99bc 1cfd 833d 6780 f1bb b21a 843d
00000060: c05f 963d 8574 e3bd e30d e8bc 2f26 74bc
00000070: 4fac ed3c a1a8 c2bc 0912 d33d 6682 dbbb
00000080: abf3 223e ff97 843c 8aa4 6ebd cf2d 6a3d
00000090: 82d4 85bd e3fa 113c 07e7 87bd cb49 fe3c
000000a0: b20f fa3d 8fb3 02bc a056 9f3d c919 d03c
000000b0: e77a 0cbc b9de 87bd fa30 8bbd 0502 82bd
000000c0: abf1 373d 4724 64be b46a c4bd a84c 32bd
000000d0: a002 ce3d 56fc 83bd c81d a1bd 2c3e 253d
000000e0: b056 bb3d 7e11 283d 777b 21bd a1ea ab3b
000000f0: 4f57 d63c b0de 53bd ecdc 25bd bb4b 82bd

encoder.6.weight f4 [3, 64]
-0.056470577 -0.013839358 -0.06681513 -0.08452511 -0.088336624 -0.007928892 -0.07910325 -0.017305104
-0.015891926 -0.008994044 -0.010824985 0.036424927 0.0114022475 -0.07692672 0.1245555 -0.068891875
0.026381314 -0.05461409 -0.0074106213 -0.064679235 0.025557114 -0.037640005 0.14617576 -0.047281694
-0.10186804 -0.119116955 0.07695225 0.08777377 -0.06026503 -0.06449532 -0.009553465 -0.0116071915
-0.0107371695 -0.0026710844 0.12117085 -0.11544736 0.027617872 -0.09891483 -0.059768144 -0.054947656
0.12820671 -0.042377356 -0.0768944 0.13663335 0.115963876 0.029636223 -0.09648676 0.112315625
-0.05411289 -0.02369173 0.019915108 -0.10854088 -0.01194536 0.08673623 0.030811202 -0.12002042
0.11172013 -0.11670175 0.09833584 0.011553697 -0.0504881 -0.047591865 0.056337968 -0.08103451
-0.08368012 0.0069933883 -0.03483347 0.06397479 0.004019413 0.062415708 -0.08159639 -0.060908847
-0.023440665 0.04489226 0.0047106575 -0.07220415 0.050129164 -0.053952593 -0.117320135 0.0690226
0.08059537 0.011800185 0.004574757 0.11517834 0.02324325 -0.04393566 -0.0126041295 0.027617643
-0.058707345 -0.041612033 -0.028455414 0.09698726 -0.06073168 -0.03242722 0.06813011 0.026620107
0.14950332 0.027318023 -0.06839936 -0.061096575 0.03403877 -0.051658638 -0.06709618 0.11311845
-0.14156753 -0.09906775 0.0009759934 0.024790745 -0.09279914 0.017782139 0.0030989314 0.0163411
-0.086987235 0.1696051 -0.04840786 0.077100076 -0.12097073 0.061906625 -0.12597835 -0.084384315
0.093292765 -0.034276668 -0.08303409 -0.049901757 0.061315905 0.12569211 0.057058994 0.07379653
-0.03798283 -0.061144166 0.09961312 -0.10314901 0.10665291 -0.04951389 -0.091210976 -0.112987995
0.10936057 0.1609487 -0.075472295 0.0049555996 0.029355481 -0.03689658 0.09422579 -0.06966191
0.044089213 -0.053570785 -0.074077405 -0.118729286 0.03227101 0.097308055 -0.015076849 0.09127372
-0.0015866996 -0.076237865 -0.03797756 0.081573 -0.090511136 0.11009991 0.035520997 0.02878693
0.09582445 0.10708612 -0.009789101 -0.024302194 -0.105527624 0.1206474 -0.09981713 -0.049667265
0.07087556 0.020302488 -0.0011339567 -0.029519431 -0.086520106 -0.12258385 0.022779632 -0.06492832
0.0364427 0.004218419 -0.045281857 0.06716311 -0.014150828 0.028430728 -0.10245267 0.038517103
0.07382711 -0.041335776 0.08267197 -0.0048607383 -0.006576095 0.033181846 -0.07208328 0.07395388
00000000: b14d 67bd 7abe 62bc 5fd6 88bd 801b adbd
00000010: d5e9 b4bd 2fe8 01bc e200 a2bd 6fc3 8dbc
00000020: c92f 82bc c15b 13bc 475b 31bc 4e32 153d
00000030: 7ed0 3a3c c28b 9dbd f416 ff3d 2f17 8dbd
00000040: a01d d83c 06b3 5fbd ccd4 f2bb 8c76 84bd
00000050: 275d d13c 682c 1abd 19af 153e 73aa 41bd
00000060: 31a0 d0bd 97f3 f3bd 2499 9d3d bcc2 b33d
00000070: 77d8 76bd 1f16 84bd 2386 1cbc 172c 3ebc
00000080: f4ea 2fbc 5c0d 2fbb 6c28 f83d aa6f ecbd
00000090: e03e e23c dc93 cabd 71cf 74bd cb10 61bd
000000a0: 9f48 033e e193 2dbd d07a 9dbd 9de9 0b3e
000000b0: 787e ed3d aac7 f23c da9a c5bd bc05 e63d
000000c0: 7aa5 5dbd 2915 c2bc 0225 a33c ae4a debd
000000d0: 79b6 43bc c4a2 b13d c667 fc3c 44cd f5bd
000000e0: 86cd e43d 5401 efbd 4d64 c93d b84b 3d3c
000000f0: 9ccc 4ebd b0ef 42bd a4c2 663d 6cf5 a5bd
00000100: 7c60 abbd cb28 e53b 8aad 0ebd 3705 833d
00000110: 48b5 833b 9da7 7f3d 021c a7bd 8e7b 79bd
00000120: a306 c0bc f2e0 373d dc5b 9a3b c5df 93bd
00000130: 3d54 4d3d 65fd 5cbd 8a45 f0bd b95b 8d3d
00000140: 2f0f a53d 9055 413c d8e7 953b 9fe2 eb3d
00000150: a168 be3c e1f5 33bd 8d81 4ebc 653e e23c
00000160: 1d77 70bd 6171 2abd 541b e9bc 42a1 c63d
00000170: c8c1 78bd 68d2 04bd cd87 8b3d 6912 da3c
00000180: 6617 193e 0cca df3c f714 8cbd 6740 7abd
00000190: 3d6c 0b3d 0298 53bd b969 89bd a5aa e73d
000001a0: 14f7 10be 08e4 cabd cfd9 7f3a f615 cb3c
000001b0: 7a0d bebd d9ab 913c 7117 4b3b c5dd 853c
000001c0: 5d26 b2bd f6ac 2d3e 5247 46bd a5e6 9d3d
000001d0: 81bf f7bd cd91 7d3d 7800 01be afd1 acbd
000001e0: 4710 bf3d b165 0cbd c70d aabd c965 4cbd
000001f0: 6326 7b3d 6fb5 003e b1b6 693d a322 973d
00000200: e293 1bbd 4e72 7abd f701 cc3d ca3f d3bd
00000210: d76c da3d 14cf 4abd d2cc babd 4066 e7bd
00000220: 6ff8 df3d bccf 243e 3891 9abd 9562 a23b
00000230: e87a f03c de20 17bd 73f9 c03d e7aa 8ebd
00000240: e496 343d 0a6d 5bbd e5b5 97bd 5728 f3bd
00000250: 9b2e 043d 7249 c73d e304 77bc b7ed ba3d
00000260: cef8 cfba 9922 9cbd 5c8e 1bbd bf0f a73d
00000270: e75d b9bd 107c e13d 777e 113d 91d2 eb3c
00000280: 9c3f c43d f84f db3d 7762 20bc 6515 c7bc
00000290: de1e d8bd fc15 f73d ec6c ccbd e76f 4bbd
000002a0: 3527 913d 6751 a63c 46a1 94ba bcd2 f1bc
000002b0: 7431 b1bd 3e0d fbbd 5a9c ba3c 24f9 84bd
000002c0: f144 153d aa3a 8a3b 7879 39bd d08c 893d
000002d0: e0d8 67bc 8fe7 e83c b5d2 d1bd 1cc4 1d3d
000002e0: ab32 973d b44f 29bd ec4f a93d d446 9fbb
000002f0: 487c d7bb b0e9 073d 66a0 93bd 2275 973d

encoder.6.bias f4 [3]
-0.0056841588 0.073318236 0.029647622
00000000: 2e42 babb df27 963d 92df f23c

decoder.0.weight f4 [64, 3]
0.29618442 -0.89028805 0.07033501 -0.53007466 0.62251216 -0.4477972 0.52685297 -0.8995319
-0.04408691 -0.46582642 0.110261485 -0.031052995 0.37990302 0.40359515 -0.11981931 -0.44541186
0.48539025 0.07070519 0.1765168 0.94126296 -0.612582 0.46458188 0.3027799 0.5276782
-0.4639084 -0.21861976 -0.059204742 0.20397627 0.21555255 0.25471932 0.47702858 -0.600544
-0.42507723 0.26152155 -0.7106335 0.3763468 0.1444438 0.49597815 0.20690182 0.021161659
-0.1308721 -0.43761358 0.519893 0.35174987 -0.21677338 -0.06358578 -0.5693829 -0.024587965
-0.081511095 -0.39747712 0.50079966 -0.49162105 0.8918888 -0.06876777 -0.111205764 -0.169033
-0.54456365 0.57459885 0.89335567 -0.28787076 -0.47207522 0.60785764 0.007489072 -0.27967846
0.667891 -0.45629326 -0.48605964 -0.41156867 0.42602783 0.62182814 -0.0577315 -0.4681941
-0.32460812 0.22997749 0.15989974 -0.64219004 -0.013547222 0.39023027 -0.3053345 -0.04568781
-0.59607184 0.00046092513 0.76032615 0.26468843 -0.3521209 -0.48461434 0.13511646 0.5696389
0.22113787 -0.4504718 0.051238816 -0.8716977 0.18714724 0.55056345 0.7288374 -0.2912635
-0.50826967 0.77813095 -0.5787886 -0.08477201 -0.39037138 -0.59925324 0.57926464 0.08738937
0.10369518 -0.10866639 -0.8283503 0.334089 0.47065535 -0.07093499 -0.41177318 0.15782963
-0.5478453 -0.41075134 0.04043472 0.6294033 -0.31908554 0.5683178 0.53486323 0.21263126
0.2078042 -0.6870968 -0.55229795 -0.37326938 0.59092516 0.29381198 0.2704285 -0.61086595
0.20284791 0.15621476 0.8742956 0.50508666 0.104772545 -0.58191496 -0.23177068 -0.47167575
-0.026553424 -0.55187017 0.59894896 -0.3336558 -0.1379335 0.25038308 0.44293338 0.45604834
0.2714881 0.37856328 0.52856433 0.3682076 -0.75296015 -0.022896778 -0.21943215 -0.45385396
-0.41300532 0.46900433 -0.8783472 0.36421302 -0.2928663 -0.36199757 -0.51651955 -0.55514413
-0.49751493 0.32252786 0.119577214 0.5660008 0.09918754 0.41473308 -0.20430486 0.48268962
-0.2573867 -0.035613127 0.33953536 0.38988137 0.0057247626 0.19375083 -0.38773906 -0.5183883
0.104086585 -0.38353953 -0.46963826 -0.435718 0.20044169 0.48795125 -0.30409026 -0.094343945
-0.1366939 0.47441435 0.28453693 0.49975848 -0.38596618 0.005832305 -0.49889016 -0.44747272
00000000: 7ca5 973e ebe9 63bf cd0b 903d f9b2 07bf
00000010: f55c 1f3f ad45 e5be d6df 063f b947 66bf
00000020: 7a94 34bd cd80 eebe c6d0 e13d da62 febc
00000030: a682 c23e 06a4 ce3e d463 f5bd 060d e4be
00000040: 1285 f83e e2cd 903d d2c0 343e 9cf6 703f
00000050: 2dd2 1cbf addd ed3e f805 9b3e eb15 073f
00000060: 6785 edbe dcdd 5fbe ac80 72bd 28df 503e
00000070: cfb9 5c3e 926a 823e 173d f43e 40bd 19bf
00000080: b9a3 d9be 27e6 853e 14ec 35bf 87b0 c03e
00000090: 13e9 133e d9f0 fd3e 12de 533e 375b ad3c
000000a0: 5603 06be e30e e0be b517 053f 8f18 b43e
000000b0: d7f9 5dbe 4339 82bd 14c3 11bf b36c c9bc
000000c0: 4aef a6bd 1f82 cbbe 6834 003f c1b5 fbbe
000000d0: d352 643f 1ed6 8cbd d9bf e3bd fd16 2dbe
000000e0: 8668 0bbf e918 133f f5b2 643f cc63 93be
000000f0: d8b3 f1be 8f9c 1b3f e466 f53b 0432 8fbe
00000100: e8fa 2a3f 459f e9be cfdc f8be 21b9 d2be
00000110: 5220 da3e 2130 1f3f de77 6cbd 23b7 efbe
00000120: 0933 a6be 387f 6b3e c2bc 233e 9166 24bf
00000130: 2bf5 5dbc 43cc c73e ce54 9cbe 2423 3bbd
00000140: 2a98 18bf 53a8 f139 bca4 423f 3e85 873e
00000150: 3149 b4be 5f1f f8be f85b 0a3e dbd3 113f
00000160: f771 623e 3da4 e6be cbdf 513d 9527 5fbf
00000170: 87a3 3f3e baf1 0c3f 1695 3a3f 7d20 95be
00000180: f61d 02bf 9733 473f 7d2b 14bf f39c adbd
00000190: c2de c7be a968 19bf b04a 143f 33f9 b23d
000001a0: 235e d43d 7c8c debd c40e 54bf b70d ab3e
000001b0: bdf9 f03e 5d46 91bd efd3 d2be 179e 213e
000001c0: 973f 0cbf 004e d2be e19e 253d 9320 213f
000001d0: 2e5f a3be 467d 113f ccec 083f 02bc 593e
000001e0: a0ca 543e 93e5 2fbf 6663 0dbf 2a1d bfbe
000001f0: df46 173f 866e 963e 9b75 8a3e b661 1cbf
00000200: 5db7 4f3e c3f6 1f3e d6d1 5f3f 5c4d 013f
00000210: fd92 d63d 61f8 14bf 4b55 6dbe 7c7f f1be
00000220: 9186 d9bc 5d47 0dbf b854 193f efd4 aabe
00000230: 703e 0dbe 3632 803e 2ac8 e23e 2b7f e93e
00000240: 7d00 8b3e 0cd3 c13e fe4f 073f b585 bc3e
00000250: ffc1 40bf 0692 bbbc d2b2 60be 8c5f e8be
00000260: 6f75 d3be 5621 f03e 5ddb 60bf 217a ba3e
00000270: 92f2 95be bf57 b9be a03a 04bf ed1d 0ebf
00000280: 47ba febe 5f22 a53e e6e4 f43d 6ee5 103f
00000290: d622 cb3d e557 d43e 4b35 51be 1823 f73e
000002a0: 31c8 83be 12df 11bd 94d7 ad3e 889e c73e
000002b0: ca96 bb3b 9e66 463e bc85 c6be 18b5 04bf
000002c0: 592b d53d 4b5f c4be 6d74 f0be 6e16 dfbe
000002d0: 9640 4d3e bfd4 f93e b8b1 9bbe 6637 c1bd
000002e0: 7cf9 0bbe 70e6 f23e d3ae 913e 58e0 ff3e
000002f0: 5c9d c5be ec1c bf3b 886e ffbe 251b e5be

decoder.0.bias f4 [64]
-0.024960747 0.10071553 0.065948896 -0.47608104 0.38920152 0.44067472 -0.44389027 -0.13631265
0.0649882 0.21405482 -0.42394435 -0.2724091 0.26014268 0.014500097 0.5283431 -0.14530005
0.4457785 -0.4479447 -0.27392977 -0.28314275 -0.39457965 0.575706 -0.5195491 -0.5267268
-0.2350807 0.38766557 0.33412567 -0.3371152 0.012104942 0.14520568 0.07287405 -0.063563175
0.1741206 -0.3204083 -0.009968466 0.13582149 0.092701264 0.39615244 0.37503728 0.13906933
-0.23102286 -0.4613246 0.25689507 0.33609167 0.29532683 -0.44840088 -0.5248123 0.16889018
-0.31924108 -0.3130914 -0.18224175 0.031337555 0.14478582 -0.4195624 -0.52448076 -0.28854835
-0.13085987 0.3980739 0.2710103 0.48459232 0.29265404 0.5111899 0.15435842 0.47811213
00000000: 7b7a ccbc f243 ce3d 3710 873d e5c0 f3be
00000010: 6c45 c73e 1ea0 e13e 9645 e3be 8b95 0bbe
00000020: 8918 853d 3031 5b3e 3c0f d9be 3579 8bbe
00000030: 6c31 853e d191 6d3c 7e41 073f 89c9 14be
00000040: 143d e43e 0259 e5be 8640 8cbe 16f8 90be
00000050: 5806 cabe 7861 133f 2b01 05bf 91d7 06bf
00000060: ffb8 70be 1a7c c63e 8512 ab3e 5d9a acbe
00000070: cf53 463c ccb0 143e fd3e 953d 692d 82bd
00000080: ac4c 323e 8f0c a4be c752 23bc ca14 0b3e
00000090: 29da bd3d 7ed4 ca3e e304 c03e 3168 0e3e
000000a0: 4291 6cbe bd32 ecbe c087 833e 3514 ac3e
000000b0: 1435 973e cd94 e5be 195a 06bf 8cf1 2c3e
000000c0: 9173 a3be 844d a0be 959d 3abe cf5b 003d
000000d0: bc42 143e e2d0 d6be 5f44 06bf 9cbc 93be
000000e0: 2100 06be 58d0 cb3e ddc1 8a3e 7c1c f83e
000000f0: c0d6 953e 57dd 023f 2210 1e3e 1dcb f43e

decoder.2.weight f4 [128, 64]
0.05240886 -0.06043372 0.16440427 -0.047430474 0.06779812 -0.023648873 0.0062929145 -0.037183687
-0.06624793 0.08153674 -0.069429524 -0.08830153 -0.060276084 0.16691916 0.12046478 -0.024066076
-0.09041871 -0.0018370964 0.04550102 0.1233017 -0.021130268 0.076946035 0.061787914 0.1379942
-0.004417256 0.029888544 0.1144849 -0.058897097 -0.016742373 0.15302217 -0.05913721 -0.044036433
0.07623538 -0.09802766 0.24094239 -0.0210539 0.09423146 0.047416188 -0.027084913 -0.03365805
0.11122409 0.0067949924 0.08902021 0.08743138 -0.020435296 0.12133504 -0.068020955 0.008818643
-0.11476415 0.045455653 -0.03136714 0.040767524 0.02217497 0.02685525 0.110904984 -0.1721064
0.05392839 -0.013791465 -0.1452084 -0.08254489 0.18918508 -0.027459798 0.08536594 0.014209776
0.11502323 0.13309243 -0.031791065 -0.13254426 0.07547922 -0.0224248 -0.0584995 0.010594546
0.1047309 0.021641957 0.0035713501 -0.07485535 0.0012727601 -0.003501029 0.13590522 -0.0845696
-0.075313546 0.06451489 -0.037848793 -0.019723717 0.0036371162 0.03759328 0.053577337 -0.11334502
-0.12092905 0.027899554 0.16717315 -0.083012246 0.04515333 -0.05202428 -0.0024026118 0.102382585
0.022727657 -0.045812536 -0.043045748 -0.118527465 0.011188457 0.044199254 0.14625442 -0.049680077
0.117850855 -0.041961975 0.06503139 -0.0329515 0.16172619 0.069172956 0.033813037 -0.028606255
-0.22902851 0.005523331 0.13475752 0.052248225 -0.079850495 0.0100352615 0.022039438 -0.09066794
-0.13998255 -0.048721906 0.03618749 -0.018853936 0.29779384 -0.027328486 -0.03907321 0.057010476
0.20853622 0.03726537 0.2065977 -0.01760435 0.084744535 -0.100437984 -0.0094984835 -0.0901692
0.041663863 0.065500386 -0.042271435 0.07933702 0.10333348 0.08016379 0.015551309 -0.094639406
0.12287426 -0.113047704 -0.04970279 -0.11443376 -0.02001978 0.11656031 -0.045327242 0.039335825
-0.07276422 -0.09063823 0.079975694 0.005141386 0.016485928 -0.07016985 0.16622445 0.06930064
-0.054137968 0.032518905 -0.09277249 -0.08534614 0.06336494 0.11468036 -0.06560271 -0.14889854
0.13161738 -0.20366462 0.05411804 -0.054676402 0.22460943 -0.06499057 -0.0065407823 0.012003468
-0.029003037 -0.069184594 0.13161126 -0.041032083 0.12504423 -0.022560775 -0.1199899 0.03835981
-0.008269114 0.0043909643 0.022506073 0.09675584 -0.030976854 -0.093006834 -0.023538407 0.0913039
0.14840114 -0.014778346 0.101752155 -0.1028766 0.06309412 -0.11612706 0.030089898 0.06754022
-0.0034363887 -0.10192126 0.049384855 -0.060918584 -0.041463416 0.0799526 -0.0458568 -0.03071335
-0.11384429 0.03787826 -0.019337632 -0.05383897 -0.09601555 0.044043463 0.060628984 0.091158025
0.0064407857 -0.088504046 0.14501175 -0.053026903 -0.02749795 0.14014001 0.012722801 0.01644609
0.043184344 0.11152163 -0.0048259003 -0.00022403606 -0.08539343 0.09202466 0.1451446 0.1325501
-0.0597547 -0.07344474 0.000115455805 0.029100124 0.14406396 0.040337726 -0.0969272 -0.034758765
-0.26347375 0.08825858 0.026526883 -0.01561906 -0.07018076 -0.0014985489 -0.0305436 -0.1829385
-0.11690513 0.060309783 0.080785215 -0.029240798 0.05603958 -0.07513494 0.13387884 0.12069194
00000000: acaa 563d 5989 77bd 9859 283e 7546 42bd
00000010: bed9 8a3d 48bb c1bc cb34 ce3b ec4d 18bd
00000020: ffac 87bd bcfc a63d 1131 8ebd 6fd7 b4bd
00000030: 0ee4 76bd dbec 2a3e 3db6 f63d 3826 c5bc
00000040: 722d b9bd baca f0ba 475f 3a3d 9a85 fc3d
00000050: 6219 adbc e295 9d3d 5315 7d3d 5a4e 0d3e
00000060: a1be 90bb d2d8 f43c 0f77 ea3d 153e 71bd
00000070: 4d27 89bc d8b1 1c3e dc39 72bd 8c5f 34bd
00000080: 4b21 9c3d bac2 c8bd 9ab9 763e 3a79 acbc
00000090: 6cfc c03d 7a37 423d 2ee1 ddbc 06dd 09bd
000000a0: 75c9 e33d 87a8 de3b 3a50 b63d 390f b33d
000000b0: ec67 a7bc 817e f83d 924e 8bbd 127c 103c
000000c0: 7709 ebbd b52f 3a3d d57a 00bd d9fb 263d
000000d0: 48a8 b53c 8bff db3c 2722 e33d a93c 30be
000000e0: 04e4 5c3d 99f5 61bc 83b1 14be 4c0d a9bd
000000f0: bcb9 413e 5ff3 e0bc 57d4 ae3d 1fd0 683c
00000100: 4d91 eb3d 6249 083e 5937 02bd afb9 07be
00000110: d994 9a3d 37b4 b7bc 2c9d 6fbd bf94 2d3c
00000120: 277d d63d 794a b13c 500d 6a3b c34d 99bd
00000130: bed2 a63a 8571 65bb bd2a 0b3e d432 adbd
00000140: fd3d 9abd 6220 843d 5607 1bbd a293 a1bc
00000150: af5c 6e3b 69fb 193d e973 5b3d 6f21 e8bd
00000160: a6a9 f7bd 9b8d e43c 702f 2b3e 5302 aabd
00000170: b3f2 383d 6917 55bd 2375 1dbb f6ad d13d
00000180: 5a2f ba3c eda5 3bbd bd50 30bd 87be f2bd
00000190: ca4f 373c 470a 353d b8c3 153e 567d 4bbd
000001a0: ca5b f13d 52e0 2bbd 2d2f 853d 27f8 06bd
000001b0: 8d9b 253e 8daa 8d3d 8a7f 0a3d aa57 eabc
000001c0: 7386 6abe 0ffd b43b e0fd 093e 3c02 563d
000001d0: a888 a3bd f06a 243c 0d8c b43c 1db0 b9bd
000001e0: 9657 0fbe 9f90 47bd 5539 143d 9273 9abc
000001f0: 6f78 983e fddf dfbc 3b0b 20bd d183 693d
00000200: 858a 553e 93a3 183d 598e 533e ff36 90bc
00000210: 8b8e ad3d 6eb2 cdbd 879f 1bbc a1aa b8bd
00000220: baa7 2a3d 1125 863d d024 2dbd 737b a23d
00000230: 81a0 d33d ea2c a43d ebca 7e3c 4ed2 c1bd
00000240: 80a5 fb3d 8e85 e7bd 2795 4bbd 3f5c eabd
00000250: 8600 a4bc 2cb7 ee3d 0fa9 39bd 9a1e 213d
00000260: 6805 95bd 89a0 b9bd 4cca a33d 1279 a83b
00000270: 7f0d 873c 36b5 8fbd be36 2a3e 7eed 8d3d
00000280: c6bf 5dbd 8b32 053d 81ff bdbd f5c9 aebd
00000290: 7ac5 813d 89dd ea3d b75a 86bd dc78 18be
000002a0: b5c6 063e 758d 50be e1aa 5d3d 5df4 5fbd
000002b0: 0400 663e c719 85bd 0f54 d6bb 32aa 443c
000002c0: c797 edbc a7b0 8dbd 1ac5 063e 4211 28bd
000002d0: 980b 003e 60d1 b8bc 44bd f5bd 2d1f 1d3d
000002e0: 2e7b 07bc 14e2 8f3b a85e b83c ed27 c63d
000002f0: 2cc3 fdbc 5e7a bebd 9ed3 c0bc 8afd ba3d
00000300: 78f6 173e e020 72bc 6f63 d03d f8b0 d2bd
00000310: 7d37 813d 06d4 edbd 177f f63c 8752 8a3d
00000320: 0935 61bb 18bc d0bd c647 4a3d c485 79bd
00000330: 8bd5 29bd 30be a33d 57d4 3bbd 909a fbbc
00000340: 3227 e9bd 3c26 1b3d f469 9ebc 4086 5cbd
00000350: cda3 c4bd eb66 343d 1956 783d 0fb1 ba3d
00000360: 3a0d d33b 9c41 b5bd f67d 143e bd32 59bd
00000370: 6143 e1bc dd80 0f3e 4c73 503c f3b9 863c
00000380: 11e2 303d 7465 e43d 9622 9ebb 39eb 6ab9
00000390: c0e2 aebd 6d77 bc3d c9a0 143e 37bb 073e
000003a0: 58c1 74bd 326a 96bd dd20 f238 6263 ee3c
000003b0: 8185 133e 2c39 253d c581 c6bd 355f 0ebd
000003c0: 08e6 86be eac0 b43d e84e d93c 16e7 7fbc
000003d0: eeba 8fbd f56a c4ba 9236 fabc 3b54 3bbe
000003e0: f56b efbd 6407 773d b872 a53d 668a efbc
000003f0: c289 653d 59e0 99bd 8917 093e 562d f73d

decoder.2.bias f4 [128]
0.025517352 0.14243643 0.14232753 0.12892585 0.05795814 0.09611613 -0.05293855 0.102957144
0.10295011 -0.10261048 0.007017703 -0.038528595 0.048673227 0.104193784 -0.07932771 -0.052542612
-0.034716565 -0.060212623 0.012709517 -0.023006462 0.052025847 0.06853507 -0.052559055 -0.13824244
0.08253924 -0.0895 -0.029282516 0.09943713 -0.08033048 -0.14210775 0.0473069 -0.09066493
-0.12865779 -0.09393709 -0.024312412 -0.1005933 -0.10311303 -0.069290705 -0.12368638 -0.12790166
0.065434754 -0.11267271 -0.02019907 -0.03967388 -0.109089926 0.028744275 0.11276517 -0.03720213
-0.087845504 -0.082729064 -0.03464211 -0.017293083 0.03236769 -0.05564176 0.052564405 0.08530301
0.024924293 0.07121606 0.036082987 -0.064455286 -0.05617014 -0.023332555 0.06851504 -0.032070007
0.10359529 0.046484586 0.13261403 0.074597836 0.0035254834 0.05148513 -0.015940467 0.102514155
0.13170056 0.08245878 0.017201265 8.038348e-05 0.10960287 -0.007917439 -0.121255055 -0.1017066
0.051841743 -0.13519198 0.003542227 0.101373605 0.08746422 -0.03205987 -0.057352513 0.09265962
0.014471468 -0.029634042 0.017908417 -0.07483442 -0.05202055 0.05973807 -0.15714541 0.05053508
-0.10090978 0.11378137 0.1316244 0.025949135 -0.11811509 0.12704296 0.13565153 0.07312436
0.13614269 -0.075098045 -0.090312466 0.01753633 -0.071947835 0.067585774 -0.07915923 0.0818671
0.031194065 0.033009186 -0.074287094 -0.0837297 -0.055681705 -0.041859988 -0.04474507 -0.09381431
-0.10383498 -0.0231248 -0.08055928 -0.00015575923 -0.09159516 -0.002248576 0.06879571 -0.013644977
00000000: c409 d13c dbda 113e 4fbe 113e 2305 043e
00000010: 8465 6d3d 89d8 c43d 18d6 58bd 32db d23d
00000020: 82d7 d23d 7125 d2bd c2f4 e53b 29d0 1dbd
00000030: 945d 473d 8d63 d53d 9176 a2bd ec36 57bd
00000040: f532 0ebd 83a1 76bd 943b 503c 0c78 bcbc
00000050: 0e19 553d 1d5c 8c3d 2a48 57bd 6d8f 0dbe
00000060: 550a a93d c74b b7bd e3e1 efbc b2a5 cb3d
00000070: 4f84 a4bd b284 11be e1c4 413d 89ae b9bd
00000080: debe 03be 1762 c0bd d32a c7bc dc03 cebd
00000090: ed2c d3bd 49e8 8dbd 494f fdbd a7f8 02be
000000a0: a802 863d f3c0 e6bd 8578 a5bc 1481 22bd
000000b0: 8a6a dfbd 1d79 eb3c 6df1 e63d 4361 18bd
000000c0: 58e8 b3bd db6d a9bd e3e4 0dbd 39aa 8dbc
000000d0: fc93 043d 9de8 63bd c64d 573d 58b3 ae3d
000000e0: 082e cc3c bad9 913d c1cb 133d 2201 84bd
000000f0: a912 66bd ea23 bfbc 9d51 8c3d d75b 03bd
00000100: c429 d43d 9f66 3e3d f9cb 073e c0c6 983d
00000110: cc0b 673b 12e2 523d 9595 82bc f1f2 d13d
00000120: 83dc 063e 26e0 a83d abe9 8c3c 8d93 a838
00000130: 7877 e03d 25b8 01bc 9254 f8bd 8d4b d0bd
00000140: 0258 543d c46f 0abe b524 683b f79c cf3d
00000150: 7120 b33d 3651 03bd 78ea 6abd 54c4 bd3d
00000160: bc19 6d3c 17c3 f2bc acb4 923c ca42 99bd
00000170: 8013 55bd e8af 743d baea 20be dffd 4e3d
00000180: c9a9 cebd 3506 e93d 8cc8 063e 4893 d43c
00000190: 53e6 f1bd 8d17 023e 3ce8 0a3e 39c2 953d
000001a0: fd68 0b3e 01cd 99bd bef5 b8bd 59a8 8f3c
000001b0: 6359 93bd 696a 8a3d 3c1e a2bd f0a9 a73d
000001c0: b28a ff3c a434 073d d523 98bd 7a7a abbd
000001d0: 8012 64bd 6175 2bbd 9b46 37bd b821 c0bd
000001e0: 6fa7 d4bd 3870 bdbc 44fc a4bd 4d53 23b9
000001f0: 3e96 bbbd d85c 13bb c4e4 8c3d 2e8f 5fbc
