models/best_2.pth (torch_old, 343636 bytes, 16 tensors)

encoder.0.weight f4 [256, 4]
0.1365537 0.43923682 0.13535087 0.009535051 -0.14776844 0.05403442 -0.084972166 -0.5003749
-0.36849567 0.42767712 0.31902328 0.52316475 -0.06453263 -0.49485233 0.17150469 0.058950473
0.27144638 -0.23423156 0.57960993 -0.4062085 -0.4588449 0.08519441 -0.20204256 -0.31113052
0.086540245 0.4365136 -0.14377598 -0.1961887 0.38724226 -0.18246825 -0.66300243 -0.1519073
-0.22423136 -0.3150625 -0.24877203 -0.06603848 -0.2888447 0.23168935 0.37286082 0.66024315
0.29234922 -0.20268703 -0.053937286 -0.6115153 -0.09085027 -0.5701717 0.39203158 -0.13753481
-0.075662464 0.07076418 0.5856337 -0.14439617 -0.19962308 0.44409585 -0.49444875 -0.49157247
-0.23502663 -0.21375802 -0.22219813 0.32203248 -0.18621126 0.2195963 0.41514343 -0.16628899
-0.2539798 -0.12477451 0.29876688 0.21022734 0.48864672 -0.106748596 0.046475418 0.307392
0.32865155 -0.19932476 0.108488545 0.51594967 -0.17301342 0.12447534 -0.22547984 0.32003123
0.12676837 -0.5960537 0.36485055 0.18432237 0.18317969 -0.3064543 0.5432447 -0.39391944
0.186267 0.052276146 -0.041461863 0.0012660269 -0.37336373 0.073319614 0.35874313 0.32396802
0.27514562 -0.2614293 0.3352459 -0.3962533 -0.10976156 0.2070844 -0.06590289 0.254238
0.44459343 0.42458993 0.22056834 -0.07526671 0.4476698 0.3080132 0.41171467 0.36590326
0.43412796 -0.17901945 0.24604934 0.59756213 0.47118926 0.09632651 0.26004937 -0.1422923
-0.48966146 0.18652354 0.163049 0.4265191 -0.35276425 -0.31624553 0.30595556 0.33180848
0.32854113 -0.22279811 -0.08958373 0.47320852 -0.25350645 0.5050225 0.35204512 0.22972143
-0.09894855 -0.5436979 0.32363743 -0.08146716 0.30587545 0.44269228 -0.1482866 -0.13268195
0.47451448 -0.23446293 0.01670797 0.19076 -0.425612 -0.26667216 -0.32055253 -0.13346066
0.0020511285 0.08208257 0.48006415 -0.64236665 0.23113525 -0.11640457 -0.042579968 -0.3109121
0.48380163 0.01385775 0.27334696 0.24661162 0.31524193 0.018223818 0.23931639 -0.10516229
-0.07030471 0.3301292 -0.14971662 -0.56307936 0.43820137 0.028078 0.25606677 -0.30454746
-0.03330568 -0.22710891 0.026904453 0.54932296 0.16842827 -0.12851988 -0.3922046 -0.4671027
0.14972836 0.2001231 -0.07654955 -0.004781577 0.44626802 0.44242445 -0.32418627 0.16318098
-0.5181483 -0.3544912 0.033023935 -0.13776293 -0.43481368 0.15276113 0.09105441 0.25082594
-0.22580802 0.30990872 -0.4142633 -0.51928675 -0.25701088 -0.14468727 0.42795238 -0.027584292
-0.19896472 -0.34117433 0.24246386 0.2951979 0.36478817 -0.25383642 0.4801879 0.09880061
-0.5413929 0.24718364 0.25611913 -0.13278134 0.24732906 -0.37523702 -0.33003345 -0.09548577
-0.50569904 0.044257466 0.20688522 -0.0453997 0.24061078 -0.3976308 0.22818567 -0.41783795
0.22924967 -0.3577903 -0.35388783 0.0019340893 -0.31695414 -0.047364417 0.51865613 0.43324384
0.26394716 0.095591076 -0.1885275 -0.0025937294 0.49693462 0.44061303 0.34505615 0.34121722
-0.2718879 -0.14599268 0.080597036 0.3859775 -0.45357203 -0.38269553 -0.19097815 0.116200574
00000000: bcd4 0b3e a6e3 e03e 6b99 0a3e e738 1c3c
00000010: 9c50 17be 3253 5d3d e305 aebd 9218 00bf
00000020: 77ab bcbe 7ff8 da3e 0557 a33e 20ee 053f
00000030: af29 84bd 495d fdbe ed9e 2f3e 0d76 713d
00000040: 05fb 8a3e 66da 6fbe 5161 143f 8ffa cfbe
00000050: b8ed eabe 687a ae3d 3fe4 4ebe 804c 9fbe
00000060: 033c b13d b67e df3e 033a 13be b1e5 48be
00000070: 9e44 c63e f5d8 3abe 87ba 29bf 968d 1bbe
00000080: e89c 65be df4f a1be 18be 7ebe 2f3f 87bd
00000090: 74e3 93be f93f 6d3e 9de7 be3e b205 293f
000000a0: ccae 953e 308d 4fbe 58ed 5cbd 448c 1cbf
000000b0: b50f babd c6f6 11bf 5db8 c83e edd5 0cbe
000000c0: ecf4 9abd cfec 903d 17ec 153f 97dc 13be
000000d0: fe69 4cbe 8860 e33e 6328 fdbe 63af fbbe
000000e0: d2aa 70be 62e3 5abe e887 63be 71e1 a43e
000000f0: 2aae 3ebe dadd 603e ae8d d43e a947 2abe
00000100: a409 82be c789 ffbd f9f7 983e d645 573e
00000110: e72f fa3e 029f dabd 025d 3e3d 7c62 9d3e
00000120: 0445 a83e ca1b 4cbe 3e2f de3d 4715 043f
00000130: 6e2a 31be edec fe3d 30e4 66be 22db a33e
00000140: 91cf 013e fa96 18bf b1cd ba3e 01bf 3c3e
00000150: 7593 3b3e 94e7 9cbe 1612 0b3f cfaf c9be
00000160: c7bc 3e3e 831f 563d ead3 29bd d0f0 a53a
00000170: 8829 bfbe 9828 963d 2ead b73e 23df a53e
00000180: e3df 8c3e 10da 85be 5aa5 ab3e b6e1 cabe
00000190: abca e0bd ef0d 543e 18f8 86bd 7c2b 823e
000001a0: c0a1 e33e da63 d93e abdc 613e 6f25 9abd
000001b0: fa34 e53e e8b3 9d3e 44cc d23e ac57 bb3e
000001c0: 0546 de3e e050 37be 5cf4 7b3e d5f9 183f
000001d0: b83f f13e d546 c53d 3125 853e 13b5 11be
000001e0: e8b4 fabe 0700 3f3e 51f6 263e b660 da3e
000001f0: 849d b4be efea a1be 35a6 9c3e cde2 a93e
00000200: 8b36 a83e 3025 64be ad77 b7bd 6348 f23e
00000210: 99cb 81be 2849 013f 423f b43e 183c 6b3e
00000220: 8aa5 cabd c92f 0bbf ceb3 a53e 41d8 a6bd
00000230: b59b 9c3e 90a8 e23e 71d8 17be c7dd 07be
00000240: 90f3 f23e 0d17 70be 27df 883c 9756 433e
00000250: d1e9 d9be 4189 88be 761f a4be e9a9 08be
00000260: 3a6c 063b e81a a83d f8ca f53e 2472 24bf
00000270: b8ae 6c3e 8565 eebd 5568 2ebd df2f 9fbe
00000280: d9b4 f73e 9e0b 633c 22f4 8b3e c287 7c3e
00000290: 6467 a13e 1e4a 953c 5b0f 753e 545f d7bd
000002a0: eafb 8fbd b206 a93e 504f 19be f825 10bf
000002b0: ee5b e03e d503 e63c 2f1b 833e a5ed 9bbe
000002c0: 896b 08bd 3d8f 68be ba66 dc3c 6ea0 0c3f
000002d0: 7678 2c3e b79a 03be 0bcf c8be 1628 efbe
000002e0: 6452 193e 12ed 4c3e 03c6 9cbd c6ae 9cbb
000002f0: 3e7d e43e 7585 e23e befb a5be ea18 273e
00000300: 5ea5 04bf df7f b5be 1b44 073d ba11 0dbe
00000310: e69f debe 6a6d 1c3e bc7a ba3d 426c 803e
00000320: 383a 67be 5bac 9e3e 521a d4be faef 04bf
00000330: ee96 83be e628 14be 931c db3e 74f8 e1bc
00000340: 68bd 4bbe 67ae aebe 7248 783e 2e24 973e
00000350: 84c5 ba3e d9f6 81be 30db f53e f957 ca3d
00000360: ba98 0abf b51d 7d3e 0c22 833e d5f7 07be
00000370: d443 7d3e 111f c0be 25fa a8be 0b8e c3bd
00000380: 7e75 01bf 5147 353d b8d9 533e 09f5 39bd
00000390: ac62 763e 4496 cbbe 81a9 693e dbee d5be
000003a0: 6dc0 6a3e 4a30 b7be c930 b5be 4581 fd3a
000003b0: d047 a2be 3101 42bd a6c6 043f 23d2 dd3e
000003c0: 1524 873e 41c5 c33d 5a0d 41be 8ffb 29bb
000003d0: 376e fe3e 0898 e13e 33ab b03e 06b4 ae3e
000003e0: e434 8bbe 1b7f 15be 0f10 a53d d89e c53e
000003f0: 983a e8be abf0 c3be c78f 43be 91fa ed3d

encoder.0.bias f4 [256]
-0.078911744 0.5233736 -0.12869044 0.38787127 0.31854856 -0.2686575 0.10937505 -0.47528628
0.124814525 0.3556377 -0.5968117 0.21888663 0.2537158 -0.53325516 -0.2309821 -0.0029365635
-0.26054975 -0.36313322 0.09613767 0.5390434 -0.1801404 -0.18057275 -0.24746548 0.58451545
-0.38586923 -0.09495137 0.36554173 -0.5060775 -0.4381135 -0.16865939 0.063563034 -0.051253438
-0.034170512 0.15369445 0.41463545 0.41972995 -0.10257893 -0.32839298 -0.41912025 0.49878013
0.5226897 -0.18013276 -0.24020031 -0.1766982 -0.34392592 0.07839261 -0.29875538 0.45096344
-0.441619 -0.2739675 0.12864484 -0.44059423 -0.108970396 0.24060115 0.50894773 0.44054666
0.020382088 -0.26845488 0.18500943 0.096645966 -0.2629803 -0.27831262 -0.15079992 0.33798257
0.15616971 -0.14156839 -0.33496985 -0.553412 0.10950066 -0.5014551 -0.07639983 -0.5618473
-0.28332618 0.59945977 -0.475674 -0.42404073 0.067819074 0.26146734 -0.15196446 0.09456066
-0.3272809 -0.27059197 0.06660034 0.44075996 -0.47570583 0.42735636 -0.3788106 -0.44498786
0.54979235 -0.18013781 -0.17298019 0.35688254 0.27607214 0.28757122 0.15307023 0.086973056
-0.5420131 -0.25979406 0.06398922 0.30897704 0.10251264 0.4945198 -0.31929404 0.3104285
-0.1651908 0.49101707 -0.07557398 -0.14108776 -0.41333273 0.14018759 -0.65395683 -0.14866611
-0.32020324 -0.24913524 -0.0776545 0.41739723 -0.1983014 0.31661713 -0.007985822 0.19686402
-0.3813667 0.44288397 0.36430547 -0.104979426 -0.5246416 -0.272689 -0.6806372 0.029372903
-0.4301121 0.13768469 -0.18440242 0.08850052 -0.48133692 -0.2268766 0.15495633 0.36872664
0.27097356 0.04768003 -0.0041493597 -0.26640987 -0.5255575 -0.052085444 -0.14412306 -0.5893092
0.16645516 0.027968222 0.20920852 -0.4652346 -0.21132363 -0.05245258 0.5076705 0.015843201
-0.40882435 -0.09078031 -0.22181265 0.38530675 -0.20197092 0.55705494 0.012371868 -0.20485145
-0.30220315 -0.2566963 -0.1186312 0.14662784 0.4013123 -0.15326534 -0.025114086 0.46081033
-0.13721342 -0.18203014 -0.44180164 0.2990557 0.52821296 0.2971394 0.4839482 -0.27914035
0.21915597 0.10897103 -0.4314126 0.32592246 -0.52103555 0.21420026 0.47577715 -0.18414964
-0.026398234 0.15401725 -0.14104669 0.09338107 -0.34407872 0.11678605 -0.22645235 0.41032276
0.4303811 -0.14735298 -0.4231419 -0.57920426 -0.30220452 0.3471145 0.45174584 -0.23515238
0.4511341 -0.25091577 -0.31584033 -0.022085609 -0.3702174 0.5540277 0.16954271 0.19724274
-0.060616527 -0.24011223 0.23020801 -0.1002092 -0.33442196 0.3514843 0.29044944 0.50498956
0.32409772 -0.0012231537 -0.44691932 -0.28486356 -0.012804145 -0.5037575 0.118207484 -0.35133418
-0.37713286 0.49785522 0.24791804 0.3848767 -0.41984534 0.20742655 0.5523002 -0.3167892
-0.21044832 -0.35307518 0.23960392 0.051294178 0.109473705 0.44630492 0.29912987 -0.27524683
-0.23435739 -0.40696743 -0.5297061 0.38183206 -0.6828394 -0.026888372 -0.3506472 0.11169468
0.4383362 -0.36792758 -0.34807286 0.2703556 0.14910781 0.50240374 -0.30809376 -0.20264354
00000000: 7b9c a1bd d0fb 053f 6dc7 03be 1097 c63e
00000010: cc18 a33e 7a8d 89be 0700 e03d b958 f3be
00000020: c29e ff3d 2516 b63e a7c8 18bf d123 603e
00000030: 0ae7 813e 6983 08bf 9286 6cbe 5c73 40bb
00000040: c766 85be 99ec b9be d4e3 c43d c0fe 093f
00000050: ba76 38be 10e8 38be 9767 7dbe cea2 153f
00000060: a790 c5be dd75 c2bd 4928 bb3e 4c8e 01bf
00000070: 6a50 e0be 0cb5 2cbe 562d 823d 20ef 51bd
00000080: 61f6 0bbd 1462 1d3e 194b d43e d8e6 d63e
00000090: e714 d2bd 2023 a8be ee96 d6be 1c60 ff3e
000000a0: fece 053f b974 38be 12f7 75be 5ff0 34be
000000b0: 0f17 b0be 4e8c a03d 77f6 98be aee4 e63e
000000c0: e31b e2be 7845 8cbe 79bb 033e 9195 e1be
000000d0: df2b dfbd 2660 763e 664a 023f 558f e13e
000000e0: 56f8 a63c eb72 89be 1d73 3d3e 52ee c53d
000000f0: 5ba5 86be fe7e 8ebe 4b6b 1abe 0d0c ad3e
00000100: f4ea 1f3e 4ef7 10be 2b81 abbe 69ac 0dbf
00000110: e241 e03d 5d5f 00bf 8477 9cbd 3ad5 0fbf
00000120: 2110 91be 3276 193f 8b8b f3be de1b d9be
00000130: bae4 8a3d 0cdf 853e 929c 1bbe 05a9 c13d
00000140: 5d91 a7be 088b 8abe c265 883d 4aab e13e
00000150: b78f f3be 74ce da3e 77f3 c1be 73d5 e3be
00000160: 31bf 0c3f 0c76 38be b821 31be 4fb9 b63e
00000170: 5459 8d3e 893c 933e 71be 1c3e ee1e b23d
00000180: 5fc1 0abf ba03 85be c80c 833d 3d32 9e3e
00000190: 26f2 d13d b331 fd3e 827a a3be 7cf0 9e3e
000001a0: c727 29be 9766 fb3e 88c6 9abd 4f79 10be
000001b0: 59a0 d3be 568d 0f3e b769 27bf ee3b 18be
000001c0: aef1 a3be 4f1d 7fbe 5309 9fbd 17b5 d53e
000001d0: 860f 4bbe a41b a23e f7d6 02bc b996 493e
000001e0: 7f42 c3be b0c1 e23e 3f86 ba3e 74ff d6bd
000001f0: e94e 06bf e59d 8bbe 3d3e 2ebf 719f f03c
00000200: a737 dcbe 37fd 0c3e fdd3 3cbe c33f b53d
00000210: cb71 f6be 5752 68be dfac 1e3e bdc9 bc3e
00000220: 0cbd 8a3e 234c 433d 5af7 87bb e066 88be
00000230: f08a 06bf 8c57 55bd ff94 13be f8dc 16bf
00000240: 3973 2a3e 9d1d e53c c23a 563e 3b33 eebe
00000250: 3965 58be 84d8 56bd b2f6 013f 9ac9 813c
00000260: 6d51 d1be 07eb b9bd db22 63be ed46 c53e
00000270: 77d1 4ebe 279b 0e3f 60b3 4a3c 94c4 51be
00000280: 5fba 9abe b36d 83be eaf4 f2bd 9c25 163e
00000290: ce78 cd3e 97f1 1cbe 0ebc cdbc 55ef eb3e
000002a0: ad81 0cbe 1c66 3abe d333 e2be d41d 993e
000002b0: f738 073f a822 983e 0fc8 f73e 7ceb 8ebe
000002c0: 6c6a 603e 342c df3d 1de2 dcbe 4fdf a63e
000002d0: 9662 05bf 5057 5b3e 1099 f33e b991 3cbe
000002e0: 1c41 d8bc b3b6 1d3e 8b6e 10be 933e bf3d
000002f0: 162b b0be 862d ef3d 20e3 67be d315 d23e
00000300: e95a dc3e b3e3 16be 0ea6 d8be bb46 14bf
00000310: 8dba 9abe feb8 b13e 3b4b e73e c9cb 70be
00000320: 0cfb e63e 0878 80be d3b5 a1be e1ec b4bc
00000330: 238d bdbe c2d4 0d3f 9b9c 2d3e 00fa 493e
00000340: 0949 78bd fbdf 75be a6bb 6b3e 7b3a cdbd
00000350: 5b39 abbe c0f5 b33e cab5 943e ff46 013f
00000360: 23f0 a53e 3a52 a0ba 9cd2 e4be a3d9 91be
00000370: 7ac8 51bc 40f6 00bf c416 f23d 13e2 b3be
00000380: 8f17 c1be e1e6 fe3e 3ade 7d3e 8f0e c53e
00000390: f8f5 d6be a067 543e 8c63 0d3f 3232 a2be
000003a0: c47f 57be 45c6 b4be bb5a 753e d819 523d
000003b0: c033 e03d 1482 e43e 8d27 993e 27ed 8cbe
000003c0: 62fb 6fbe 095e d0be d29a 07bf 7e7f c33e
000003d0: 90ce 2ebf 0145 dcbc 0888 b3be 2ec0 e43d
000003e0: 9a6d e03e 0161 bcbe 9b36 b2be 0d6c 8a3e
000003f0: b8af 183e 889d 003f 77be 9dbe ca81 4fbe

encoder.2.weight f4 [128, 256]
0.08292803 0.018426783 -0.025500681 0.013138853 -0.024340883 0.0074181305 0.06333925 -0.032076787
-0.017510794 -0.032956824 -0.036750562 -0.040365677 0.009351814 0.05906247 -0.0052816807 0.058309905
-0.023395166 0.010775911 -0.031977084 0.022700977 -0.012603518 0.055066075 0.07845052 0.018402686
0.00876772 0.044733316 0.012759997 0.011403002 -0.06566064 0.07918822 0.024375562 0.0448898
0.046732735 0.073171906 -0.021268014 -0.002266757 -0.030841656 0.0070279837 -0.048048444 -0.032293867
0.07704383 0.06509632 -0.06370227 -0.0069272937 -0.029049681 -0.032609373 0.07360654 0.01776445
0.053571925 -0.05428001 0.021897666 -0.056013267 -0.02415194 0.03624344 0.020242628 0.0757775
0.008331624 -0.04916108 0.047607206 -0.014118925 0.06067825 -0.018116048 -0.04422289 0.038733877
0.03050605 0.012345854 -0.034846447 0.04577252 0.079379454 0.0104837045 0.011082177 0.08914976
0.05757202 0.05529344 -0.07091187 0.02664533 0.041134432 -0.016475936 0.018660985 -0.0076980493
-0.055724252 -0.07234078 0.033581465 0.002254555 -0.06706837 0.032120273 0.08464494 0.024661485
0.039225306 -0.065287754 0.013919443 0.017652255 0.040914353 0.07659827 0.021586867 -0.013939305
0.049192138 -0.011120878 -0.04542535 -0.029568925 -0.023273641 0.006689679 -0.02901962 -0.033586692
-0.020255292 0.03326289 -0.010932783 -0.051965307 -0.018539596 0.061428625 0.05982655 0.029961748
0.053934403 -0.0488048 -0.028811892 0.061916225 -0.017308123 0.09770031 -0.0370334 0.032502145
0.046098262 -0.0013748582 -0.013605523 -0.054373927 -0.01844026 -0.010617455 0.08325212 0.0024333443
-0.02518705 -0.02274383 -0.01764051 0.032135423 -0.10694493 0.018682908 0.011359231 -0.030261427
0.0010646009 -0.030658117 -0.008239171 -0.044844866 -0.03988942 0.0008757329 -0.021990854 0.093377724
-0.017801685 0.038640577 0.017633481 -0.008367573 0.06191058 -0.056927353 -0.0058402237 0.047510345
0.038233858 0.0329624 0.054815456 0.01760948 -0.021162288 -0.009177823 0.03632654 0.040969383
0.009597362 -0.122769035 0.01703313 0.035536822 0.062230352 0.026958233 -0.041898552 -0.026653709
0.0012529655 0.039112926 0.0031818687 0.016925309 0.021082424 0.035960477 -0.0042794724 -0.01716432
-0.022149943 0.044099726 0.07759123 0.09429036 0.07161119 0.04095221 0.03915056 0.055822294
0.025004582 0.03427833 0.0059982412 0.03280051 -0.029598385 0.020281518 0.054772064 0.03907789
-0.00040854374 0.06433948 -0.05499551 0.12064436 -0.0006062162 0.011710187 0.006113499 -0.016674362
0.037163436 0.026110368 0.034884006 0.036438543 -0.039650276 0.06916008 0.071184464 -0.02555574
0.019145245 -0.040557303 0.0056873104 -0.061701633 0.00021522511 0.004535902 -0.0029937616 0.0153044695
-0.023734288 0.021195214 0.060176034 -0.031318802 -0.02698973 0.029310673 -0.04398434 -0.015875991
0.001009529 -0.02042417 0.028840302 0.040945757 -0.047643814 0.029710017 0.06788461 -0.041636
-0.058816545 0.1253119 -0.00011705018 -0.006755836 0.059180025 -0.008673704 -0.03153979 0.01078451
0.038253967 0.079358086 0.019026373 -0.038960326 0.16614321 0.015713546 -0.029571492 0.04309605
-0.016231406 0.094349265 0.0401203 -0.0101156775 0.04386238 0.05730624 0.016272923 0.01690662
00000000: 2cd6 a93d c4f3 963c cee6 d0bc 5844 573c
00000010: 8866 c7bc ca13 f33b 02b8 813d f362 03bd
00000020: cc72 8fbc bcfd 06bd c287 16bd 7b56 25bd
00000030: 5a38 193c 7deb 713d f311 adbb 5ed6 6e3d
00000040: 38a7 bfbc 728d 303c 67fa 02bd 66f7 b93c
00000050: fc7e 4ebc f78c 613d abaa a03d 3bc1 963c
00000060: 7ca6 0f3c 483a 373d 4e0f 513c a8d3 3a3c
00000070: 1679 86bd 6f2d a23d 42af c73c 5ede 373d
00000080: d36a 3f3d 27db 953d 423a aebc df8d 14bb
00000090: a4a7 fcbc 004b e63b 72ce 44bd 9346 04bd
000000a0: 28c9 9d3d 3851 853d 5676 82bd 5afe e2bb
000000b0: 99f9 edbc 6891 05bd 07bf 963d c086 913c
000000c0: 3c6e 5b3d b754 5ebd bc62 b33c 2b6e 65bd
000000d0: 4ada c5bc 0074 143d ded3 a53c 3c31 9b3d
000000e0: 5d81 083c 215d 49bd c6ff 423d 1053 67bc
000000f0: c289 783d 1b68 94bc 1023 35bd 6aa7 1e3d
00000100: d3e7 f93c 4446 4a3c 26bb 0ebd f77b 3b3d
00000110: b291 a23d d8c3 2b3c 0592 353c 2694 b63d
00000120: a3d0 6b3d 607b 623d 3e3a 91bd 4f47 da3c
00000130: 947c 283d 8bf8 86bc ecde 983c eb3f fcbb
00000140: 1d3f 64bd 6727 94bd b88c 093d 28c1 133b
00000150: 245b 89bd 8c90 033d 545a ad3d e206 ca3c
00000160: b7aa 203d 96b5 85bd 600e 643c 769b 903c
00000170: cf95 273d 8edf 9c3d f1d6 b03c af61 64bc
00000180: b27d 493d 5834 36bc ef0f 3abd 883a f2bc
00000190: 5da8 bebc 1835 db3b 8eba edbc 3392 09bd
000001a0: 6dee a5bc ab3e 083d 6a1f 33bc 93d9 54bd
000001b0: 5ae0 97bc 959c 7b3d af0c 753d 5772 f53c
000001c0: 52ea 5c3d 8be7 47bd eb06 ecbc de9b 7d3d
000001d0: c4c9 8dbc 1a17 c83d 56b0 17bd f820 053d
000001e0: 88d1 3c3d 9634 b4ba b3e9 5ebc 32b7 5ebd
000001f0: 0710 97bc d5f4 2dbc 1680 aa3d be78 1f3b
00000200: 1355 cebc 4551 babc d582 90bc 6fa0 033d
00000210: f205 dbbd e60c 993c 111c 3a3c d0e6 f7bc
00000220: 148a 8b3a bb26 fbbc 96fd 06bc 40af 37bd
00000230: 1763 23bd 7191 653a 2a26 b4bc d23c bf3d
00000240: d7d4 91bc 9545 1e3d 1774 903c 2518 09bc
00000250: f395 7d3d a82c 69bd 595f bfbb 359a 423d
00000260: 1b9b 1c3d 9503 073d 2c86 603d c241 903c
00000270: 895c adbc 945e 16bc 23cb 143d 83cf 273d
00000280: 413e 1d3c 556e fbbd 1089 8b3c 0f8f 113d
00000290: 41e5 7e3d 83d7 dc3c d19d 2bbd e158 dabc
000002a0: 8c3a a43a e034 203d e686 503b f2a6 8a3c
000002b0: 0cb5 ac3c 4b4b 133d d13a 8cbb 309c 8cbc
000002c0: cc73 b5bc eaa1 343d 27e8 9e3d 4e1b c13d
000002d0: e3a8 923d 81bd 273d 565c 203d eba5 643d
000002e0: 69d6 cc3c 6f67 0c3d e58c c43b d459 063d
000002f0: 5078 f2bc 6d25 a63c ac58 603d 2310 203d
00000300: d031 d6b9 6bc4 833d f942 61bd 6414 f73d
00000310: 7bea 1eba 16dc 3f3c bf53 c83b ac98 88bc
00000320: b038 183d 69e5 d53c 88e2 0e3d 9540 153d
00000330: 5468 22bd cda3 8d3d 29c9 913d 455a d1bc
00000340: 7dd6 9c3c 6a1f 26bd 9e5c ba3b daba 7cbd
00000350: 0dae 6139 e7a1 943b fc32 44bb 99bf 7a3c
00000360: 696e c2bc 96a1 ad3c 257b 763d 2548 00bd
00000370: 9119 ddbc f01c f03c ec28 34bd 5e0e 82bc
00000380: 2c52 843a 9750 a7bc 7f42 ec3c bdb6 273d
00000390: 2926 43bd 6c62 f33c 1607 8b3d 838a 2abd
000003a0: 9ee9 70bd c351 003e d678 f5b8 0f60 ddbb
000003b0: c166 723d 271c 0ebc de2f 01bd 83b1 303c
000003c0: 31b0 1c3d 7e86 a23d 32dd 9b3c dd94 1fbd
000003d0: 7221 2a3e b2b9 803c ea3f f2bc 7c85 303d
000003e0: baf7 84bc 303a c13d 2f55 243d 3abc 25bc
000003f0: 0aa9 333d f3b9 6a3d cb4e 853c c07f 8a3c

encoder.2.bias f4 [128]
0.027811553 -0.055018548 -0.06430033 -0.020501846 -0.012955921 -0.06683989 -0.029538967 -0.005030763
-0.04422401 0.03732041 0.031278934 0.06697107 0.012664137 0.0021520378 0.053336114 -0.059378657
0.0033227494 0.004972792 -0.055036668 0.05397695 0.014067029 0.08911152 0.018356936 0.058440335
0.026790313 0.05750981 -0.0046116584 0.024768881 0.021043798 -0.015787844 -0.02792159 0.07878602
0.013982864 -0.0075265286 0.030195786 0.031132974 -0.0035411883 -0.025086353 -0.017163964 -0.04262874
0.08886468 -0.013219381 -0.00022810747 0.02295405 0.05681994 0.04883724 0.04661526 0.0314667
0.03116621 0.06689728 -0.004098235 0.012347927 0.03806486 0.021879168 0.04083704 0.0022179978
-0.02871367 0.020977486 0.03855312 0.07605986 0.0036040458 0.05158886 -0.036690515 -0.017575944
-0.027877625 0.08784562 0.0750802 0.018104298 0.082001746 0.03881423 -0.029641835 0.09117634
0.03102791 0.029723702 0.045804936 0.094560064 0.084752 -0.02739588 0.052713662 0.04946331
-0.021294106 0.044792064 -0.07648573 -0.06732455 0.07159263 0.06668489 0.063423544 -0.004645317
0.09389385 0.013089305 0.07261903 0.052073505 0.0751731 0.07443048 -0.021202888 -0.019710135
-0.06401614 -0.03249297 0.042959686 0.043789465 0.049971983 0.038308106 0.023062322 0.008124625
0.0913553 -0.13990222 0.00228578 0.074842565 0.009885565 0.04288881 0.08254819 -0.011785133
-0.00299824 0.088072106 0.029444775 0.00014216894 0.0045518214 0.041055832 0.10442025 0.034714688
-0.010936019 0.09546287 0.0006478465 0.025870185 0.06487027 0.058523394 -0.022477066 0.09392431
00000000: 0ed5 e33c 215b 61bd e4af 83bd 7df3 a7bc
00000010: 1245 54bc 5ae3 88bd b4fb f1bc 19d9 a4bb
00000020: 3c24 35bd 49dd 183d 571e 003d 2128 893d
00000030: 3e7d 4f3c 3409 0d3b f876 5a3d 0937 73bd
00000040: 7cc2 593b cef2 a23b 216e 61bd ef16 5d3d
00000050: 6579 663c 1a80 b63d 4961 963c 225f 6f3d
00000060: 5c77 db3c 688f 6b3d 651d 97bb 1ce8 ca3c
00000070: 0b64 ac3c 8255 81bc d1bb e4bc 915a a13d
00000080: 6218 653c 19a1 f6bb 275d f73c 940a ff3c
00000090: 4813 68bb e581 cdbc 719b 8cbc 799b 2ebd
000000a0: affe b53d 1a96 58bc 2230 6fb9 220a bc3c
000000b0: 07bc 683d 8f09 483d a5ef 3e3d 3ae3 003d
000000c0: 4850 ff3c 7101 893d 7d4a 86bb f64e 4a3c
000000d0: e6e9 1b3d f13b b33c bd44 273d d45b 113b
000000e0: ee38 ebbc fad8 ab3c e0e9 1d3d 46c5 9b3d
000000f0: db31 6c3b d74e 533d cb48 16bd 6dfb 8fbc
00000100: 9e5f e4bc 68e8 b33d a6c3 993d 774f 943c
00000110: 88f0 a73d acfb 1e3d 6fd3 f2bc a9ba ba3d
00000120: 3e2e fe3c 1f7f f33c f59d 3b3d b5a8 c13d
00000130: 7592 ad3d 536d e0bc 48ea 573d 0a9a 4a3d
00000140: fa70 aebc e277 373d 8da4 9cbd 74e1 89bd
00000150: 289f 923d 1692 883d 34e4 813d be37 98bb
00000160: 6b4b c03d 8674 563c 49b9 943d 074b 553d
00000170: 5bf4 993d 026f 983d aeb1 adbc 2677 a1bc
00000180: e51a 83bd 5917 05bd 7ff6 2f3d 955c 333d
00000190: 6caf 4c3d f6e8 1c3d 32ed bc3c 261d 053c
000001a0: 7d18 bb3d 8742 0fbe 06cd 153b 0f47 993d
000001b0: 11f7 213c 2dac 2f3d 070f a93d 6e16 41bc
000001c0: 1f7e 44bb 265f b43d 2b36 f13c 2f13 1539
000001d0: 7227 953b 292a 283d 49da d53d fd30 0e3d
000001e0: fd2c 33bc 0a82 c33d 3ed4 293a b6ed d33c
000001f0: b4da 843d 3ab6 6f3d d321 b8bc 635b c03d

encoder.4.weight f4 [64, 128]
0.11450856 -0.16989319 -0.14089979 -0.057453938 0.009742844 0.10857641 -0.049177364 0.08606311
-0.05295958 -0.030010115 0.0032120794 0.038852133 -0.044289567 0.07134851 0.08752222 -0.024514796
0.11949019 -0.02979277 -0.40186635 0.029728696 0.09568784 0.10952452 0.006855181 0.040073924
0.025103739 0.11152399 -0.04918715 -0.041743208 0.010484447 0.09924675 0.19494657 0.045820154
-0.01613342 -0.10584073 -0.02529475 -0.087602526 0.006851917 -0.019918155 -0.054358833 -0.02454964
0.11136251 0.07508022 0.012048861 0.098290905 0.1244651 0.033869058 0.039116926 0.06255763
-0.073980995 0.040853567 -0.027095145 0.011223103 -0.008810769 0.021606388 0.054534625 0.04952863
0.01904907 -0.026723027 0.07833832 0.05831964 -0.047556657 0.05432927 0.117916815 0.016333995
0.06302835 0.039145853 0.007413728 0.06091735 0.017095918 0.07523377 0.073202126 0.1119205
0.12482844 0.06335502 0.06075388 0.08042653 0.03406319 -0.031881142 0.10166659 0.06139799
-0.0087577505 0.2476188 -0.19700865 -0.018412009 -0.0444964 0.092995085 0.0023071119 0.026501466
-0.033666637 0.094686456 0.014195203 -0.038477033 0.11643267 -0.016852817 -0.045715846 -0.07121065
-0.015245669 -0.009822266 -0.04128183 0.03069432 0.13659985 -0.04562144 -0.034508355 -0.011645477
-0.06007015 0.14323168 -0.043822832 0.0029706482 -0.077024855 -0.020223541 0.07008597 -0.052264705
0.049857765 0.03552389 0.10791277 0.09365932 -0.019713745 -0.014077229 0.084133044 0.039827555
0.061688848 0.07895241 0.08288236 -0.020514205 -0.0223417 0.08709996 0.09436214 -0.02827904
0.09194815 -0.19308715 -0.08398833 -0.07568821 -0.03685142 0.077461205 0.038562413 0.0581474
0.085394874 -0.07126019 0.03020921 0.012786542 -0.0062122643 0.00336748 0.031985987 0.027270721
-0.02826253 0.053153872 -0.38001272 0.008784032 -0.05675123 0.05040574 0.038164053 -0.02990977
0.077566914 0.059334833 -0.0006746163 -0.014536067 0.018002218 0.04575195 0.030128418 0.09228612
0.11153753 -0.07907873 -0.0055698934 0.03520236 0.10229777 0.02366155 -0.004369165 0.0055584675
0.11002157 -0.03089585 -0.011804206 0.047281463 0.063701846 0.02414094 0.030221028 0.05711109
0.019862944 0.042595185 -0.029935634 0.06631536 0.0073244213 -0.06066965 -0.036088657 0.054251056
0.035743944 0.039477613 -0.0409652 0.07936262 -0.12846772 0.058681197 0.110453375 0.107398406
0.05250075 0.08052365 -0.018992698 -0.042568542 -0.004984307 0.11493645 0.010093504 0.05610497
0.029822456 0.06613772 0.03956985 -0.027356664 0.03877023 0.07923031 -0.0063920887 0.049905427
0.01835746 -0.014022606 -0.1102652 0.01225078 -0.005497961 -0.012865754 0.046610884 -0.0019644562
0.006971562 0.06916825 0.07081664 -0.05114938 -0.01838988 0.029930163 -0.025402602 -0.07683839
-0.06623575 0.09840844 0.003299747 0.09360579 0.029798849 0.0014170446 0.044705864 0.06895959
0.09961256 0.14049667 0.057510555 0.08670709 -0.005722352 0.08753553 0.045344237 0.04517607
-0.03080439 0.106742665 0.051794253 0.010494641 0.083908126 -0.050352618 0.040445212 -0.009154201
-0.057199385 0.010346861 0.0920661 0.0084822625 -0.004156593 0.03080078 -0.030559948 0.032232136
00000000: 7783 ea3d 7bf8 2dbe 0948 10be d254 6bbd
00000010: 73a0 1f3c 4f5d de3d 346e 49bd db41 b03d
00000020: 25ec 58bd c6d7 f5bc c081 523b 6a23 1f3d
00000030: fa68 35bd 2b1f 923d da3e b33d 41d3 c8bc
00000040: 46b7 f43d f80f f4bc 6dc1 cdbe 9889 f33c
00000050: fcf7 c33d 644e e03d 6da1 e03b 8e24 243d
00000060: 5ba6 cd3c b166 e43d 7778 49bd edfa 2abd
00000070: f5c6 2b3c e141 cb3d 13a0 473e eaad 3b3d
00000080: 3c2a 84bc 06c3 d8bd f036 cfbc f468 b3bd
00000090: 0c86 e03b 662b a3bc 5ea7 5ebd 541c c9bc
000000a0: 0712 e43d a9c3 993d 9668 453c be4c c93d
000000b0: 8fe7 fe3d 48ba 0a3d 1239 203d 371e 803d
000000c0: 5983 97bd 1256 273d a3f6 ddbc 1be1 373c
000000d0: 0b5b 10bc e1ff b03c b35f 5f3d 88de 4a3d
000000e0: cc0c 9c3c 40ea dabc d76f a03d 93e0 6e3d
000000f0: c5ca 42bd 5e88 5e3d 5f7e f13d dfce 853c
00000100: 0215 813d 6757 203d dcee f23b 7984 793d
00000110: bd0c 8c3c 2a14 9a3d ffea 953d 9336 e53d
00000120: 0ea6 ff3d 47c0 813d 0fd9 783d aab6 a43d
00000130: d885 0b3d cd95 02bd 9336 d03d 757c 7b3d
00000140: ab7c 0fbc c88f 7d3e a3bc 49be c8d4 96bc
00000150: db41 36bd 3574 be3d ea32 173b 9a19 d93c
00000160: 07e6 09bd f9ea c13d ff92 683c 189a 1dbd
00000170: 4074 ee3d eb0e 8abc 8a40 3bbd e4d6 91bd
00000180: f8c8 79bc 92ed 20bc 2317 29bd a872 fb3c
00000190: d5e0 0b3e 8cdd 3abd a258 0dbd accc 3ebc
000001a0: 1e0c 76bd 53ab 123e 927f 33bd 35af 423b
000001b0: 35bf 9dbd d7ab a5bc 3c89 8f3d 8413 56bd
000001c0: a837 4c3d 8081 113d 5f01 dd3d 75d0 bf3d
000001d0: b87e a1bc 2ea4 66bc f24d ac3d 3822 233d
000001e0: 72ad 7c3d cdb1 a13d 3abe a93d 680d a8bc
000001f0: f105 b7bc 7761 b23d f040 c13d 72a9 e7bc
00000200: 504f bc3d a3b8 45be 1302 acbd 6c02 9bbd
00000210: 84f1 16bd fba3 9e3d 9ff3 1d3d f82b 6e3d
00000220: 82e3 ae3d ddf0 91bd 4e79 f73c a57e 513c
00000230: 4090 cbbb f0b0 5c3b bd03 033d d966 df3c
00000240: d286 e7bc e0b7 593d 0791 c2be e7ea 0f3c
00000250: fa73 68bd 4076 4e3d e951 1c3d 5505 f5bc
00000260: 67db 9e3d 1509 733d bcd8 30ba af28 6ebc
00000270: 6379 933c 6666 3b3d dfcf f63c 8100 bd3d
00000280: ca6d e43d 07f4 a1bd a783 b6bb 5a30 103d
00000290: 7e81 d13d ded5 c13c 362b 8fbb ce23 b63b
000002a0: fd52 e13d 4b19 fdbc 6e66 41bc 35aa 413d
000002b0: 1d76 823d 38c3 c53c 1792 f73c 51ed 693d
000002c0: 9db7 a23c 4a78 2e3d 933b f5bc 59d0 873d
000002d0: b301 f03b bd80 78bd b3d1 13bd 5b36 5e3d
000002e0: 3e68 123d 47b3 213d 20cb 27bd df88 a23d
000002f0: 0b8d 03be b25b 703d 6135 e23d b2f3 db3d
00000300: 070b 573d 95e9 a43d 9396 9bbc 5a5c 2ebd
00000310: 6653 a3bb cd63 eb3d 395f 253c 53ce 653d
00000320: 394e f43c 3773 873d ff13 223d 151b e0bc
00000330: 88cd 1e3d 8043 a23d ba74 d1bb a269 4c3d
00000340: 6262 963c 13bf 65bc b9d2 e1bd 7fb7 483c
00000350: 3d28 b4bb e2ca 52bc 0eeb 3e3d 1bbe 00bb
00000360: b371 e43b 15a8 8d3d 5108 913d 0382 51bd
00000370: 60a6 96bc 1a30 f53c 1e19 d0bc 725d 9dbd
00000380: 9ca6 87bd 5d8a c93d 9140 583b 64b4 bf3d
00000390: b71c f43c 20bc b93a 7f1d 373d af3a 8d3d
000003a0: ab01 cc3d 5cde 0f3e 3090 6b3d 7d93 b13d
000003b0: 9182 bbbb d445 b33d e1ba 393d 8b0a 393d
000003c0: 7d59 fcbc e69b da3d 3626 543d b7f1 2b3c
000003d0: 06d8 ab3d 8c3e 4ebd e1a9 253d 80fb 15bc
000003e0: e749 6abd e185 293c 278d bc3d 30f9 0a3c
000003f0: 0734 88bb eb51 fc3c db58 fabc d805 043d

encoder.4.bias f4 [64]
0.03375519 0.05949549 0.046038724 -0.062005557 -0.009487437 -0.044747043 0.030517027 0.06093285
-0.0689972 0.033008642 -0.047285844 0.08542203 0.07464938 0.0036287513 -0.03700737 0.072658256
-0.029237455 0.11068558 0.07328144 -0.07870487 -0.04437591 0.032014597 0.02410273 -0.0382898
0.026265288 0.0076573803 0.09919341 0.052578818 -0.07278225 -0.08265136 -0.08769529 0.006656082
0.07348676 0.030355116 0.043481708 -0.04311851 0.058808353 0.046981025 -0.03403939 -0.024761684
-0.11580441 -0.049579393 0.0126974415 0.0276801 0.06987948 -0.043628905 0.0068246187 0.07948158
0.10763233 0.020217787 0.028869024 0.008833708 0.025709167 0.02268192 -0.0162308 0.009078116
-0.084514596 0.02335166 -0.048087217 0.037638273 0.01923197 -0.028393574 -0.028065369 -0.01994837
00000000: e242 0a3d 8bb1 733d 1a93 3c3d 8af9 7dbd
00000010: 3271 1bbc ad48 37bd d8fe f93c b994 793d
00000020: 674e 8dbd 1234 073d cdae 41bd bff1 ae3d
00000030: c6e1 983d 58d0 6d3b 0a95 17bd dacd 943d
00000040: 6383 efbc 1faf e23d 9414 963d 0530 a1bd
00000050: 84c3 35bd bd21 033d 1773 c53c c4d5 1cbd
00000060: 4d2a d73c c3ea fa3b ea25 cb3d e35c 573d
00000070: dc0e 95bd 1e45 a9bd 9799 b3bd 431b da3b
00000080: 3a80 963d 4bab f83c e019 323d 099d 30bd
00000090: 07e1 703d 2d6f 403d e36c 0bbd 04d9 cabc
000000a0: dd2a edbd c313 4bbd ee08 503c 61c1 e23c
000000b0: f91c 8f3d 39b4 32bd 0da1 df3b 3dc7 a23d
000000c0: 576e dc3d c69f a53c bb7e ec3c 42bb 103c
000000d0: 089c d23c 6fcf b93c 74f6 84bc 61bc 143c
000000e0: fd15 adbd fb4b bf3c 1af7 44bd 972a 1a3d
000000f0: 5d8c 9d3c a499 e8bc 58e9 e5bc c46a a3bc

encoder.6.weight f4 [3, 64]
0.07995121 0.052165505 -0.13285749 -0.021373259 0.2455367 -0.092213176 0.060236804 0.23621675
-0.062191427 0.07904822 -0.09416011 0.07807467 0.037313845 -0.11200419 -0.046714354 0.08397124
0.055428006 0.11665265 -0.039598934 -0.30067015 0.12128301 0.09564472 0.14550528 0.11497857
0.041125342 -0.07720986 -0.023141365 -0.080202125 0.03871355 -0.022532154 -0.09063449 0.084238455
0.06991827 0.026868204 0.013653622 -0.05955211 0.03594114 0.1037962 0.11474251 -0.09225156
-0.2486568 -0.06574172 -0.108368516 -0.055842113 -0.04772001 0.065305516 -0.009127482 0.045323357
-0.0007968801 0.13318829 -0.15145183 0.06766996 0.060956195 -0.03242515 0.085878186 0.14251935
0.022165122 0.14372113 0.067095034 -0.2017014 -0.024903093 0.13727134 -0.06431867 0.07982686
0.08925141 0.060842425 0.16906086 0.06030239 -0.47187322 -0.057087958 0.1355591 -0.5987594
0.037639994 0.03580695 -0.081793405 0.11650291 0.14670408 0.08692409 0.09999118 0.010219489
-0.093262605 0.13833775 -0.019811451 -0.17029028 0.12054134 0.2273625 -0.06450506 -0.38335603
0.05924114 0.13654117 -0.058299646 -0.094665416 0.034926493 0.05373481 -0.01754721 -0.023354376
-0.0883981 -0.017918756 -0.042580295 0.06439692 0.1429741 0.10973391 0.023720253 -0.15259114
-0.024267118 -0.016833179 0.055056382 0.012291522 0.07903265 0.05354555 -0.19205447 0.03504158
0.1349856 -0.104954734 0.104934454 -0.1730085 0.088451646 0.019289298 0.031244181 -0.012010446
-0.053572245 -0.018833503 0.02175823 -0.37017226 -0.10901541 -0.015744789 -0.02720804 0.020371528
0.14228626 0.09439226 0.100102365 -0.09362837 0.12315563 0.08289744 -0.16684105 -0.22282146
0.13909212 0.073234886 0.032491364 -0.033708688 -0.1942531 -0.11814033 -0.045014665 -0.11289285
-0.05745038 -0.013171963 -0.06507993 -0.10209137 0.1269788 -0.51286596 -0.024973005 -0.19466884
-0.15442006 0.1533332 0.13832231 -0.06121372 -0.024828618 -0.10720258 -0.035279512 -0.068540305
0.05520818 -0.09890419 -0.09682206 -0.02838889 -0.13441303 0.036307674 0.14223514 0.009486638
0.042674758 0.031225866 0.08506753 -0.15085591 0.12580846 0.046005923 -0.14153783 -0.07052366
0.10656168 0.052014254 -0.08230447 0.0062298686 -0.086140595 0.14190437 -0.021885948 -0.009407567
0.06832328 0.1124295 -0.10800841 0.4708333 0.073044196 0.12869662 -0.15062928 0.081203304
00000000: 76bd a33d 7fab 553d cb0b 08be f916 afbc
00000010: f96d 7b3e 43da bcbd deba 763d cee2 713e
00000020: 70bc 7ebd 08e4 a13d 04d7 c0bd 9de5 9f3d
00000030: 67d6 183d 7462 e5bd 8d57 3fbd 1df9 ab3d
00000040: 7a08 633d 96e7 ee3d 7e32 22bd 70f1 99be
00000050: 3a63 f83d 61e1 c33d 56ff 143e e279 eb3d
00000060: 0c73 283d 3420 9ebd f692 bdbc 0341 a4bd
00000070: 1992 1e3d 5a95 b8bc 939e b9bd 3685 ac3d
00000080: 4f31 8f3d b51a dc3c 71b3 5f3c eaec 73bd
00000090: 0437 133d 1a93 d43d 1ffe ea3d 63ee bcbd
000000a0: e39f 7ebe 98a3 86bd 50f0 ddbd b3ba 64bd
000000b0: 0f76 43bd e6be 853d 6f8b 15bc fca4 393d
000000c0: b8e5 50ba 8362 083e 3016 1bbe 8c96 8a3d
000000d0: 34ad 793d 3cd0 04bd e7e0 af3d 98f0 113e
000000e0: a193 b53c a22b 133e 1f69 893d d08a 4ebe
000000f0: 9201 ccbc dc90 0c3e 82b9 83bd 447c a33d
00000100: 71c9 b63d e835 793d 4a1e 2d3e a4ff 763d
00000110: 5e99 f1be 10d5 69bd 01d0 0a3e 4c48 19bf
00000120: 652c 1a3d 4faa 123d 4d83 a7bd 1499 ee3d
00000130: 9839 163e 4205 b23d 2dc8 cc3d a56f 273c
00000140: 7700 bfbd 69a8 0d3e a04b a2bc 9360 2ebe
00000150: 61de f63d b7d1 683e 3b1b 84bd 3e47 c4be
00000160: d6a6 723d 73d1 0b3e 9ccb 6ebd f1df c1bd
00000170: 150f 0f3d 0819 5c3d 2bbf 8fbc ad51 bfbc
00000180: 100a b5bd 5bca 92bc ad68 2ebd 88e2 833d
00000190: cd67 123e 2cbc e03d fa50 c23c da40 1cbe
000001a0: d6cb c6bc bce5 89bc cd82 613d 6162 493c
000001b0: dfdb a13d 9452 5b3d eda9 44be c387 0f3d
000001c0: aa39 0a3e 82f2 d6bd e0e7 d63d 2429 31be
000001d0: 2326 b53d 9704 9e3c ccf3 ff3c 76c7 44bc
000001e0: 926e 5bbd b848 9abc 513e b23c 3887 bdbe
000001f0: 7943 dfbd 37fb 80bc 65e3 debc 31e2 a63c
00000200: 7db3 113e bb50 c13d 7802 cd3d 3bc0 bfbd
00000210: 0539 fc3d 22c6 a93d 61d8 2abe 4f2b 64be
00000220: 2a6e 0e3e 2cfc 953d aa15 053d 1f12 0abd
00000230: 49ea 46be 8ff3 f1bd 4c61 38bd 5e34 e7bd
00000240: 1751 6bbd 38cf 57bc a048 85bd 4815 d1bd
00000250: bb06 023e 2f4b 03bf 3094 ccbc 4557 47be
00000260: 4b20 1ebe 6103 1d3e 5da4 0d3e 3dbb 7abd
00000270: 6365 cbbc 078d dbbd 4081 10bd dc5e 8cbd
00000280: f921 623d 488e cabd a54a c6bd d18f e8bc
00000290: 92a3 09be 5bb7 143d 17a6 113e d86d 1b3c
000002a0: bacb 2e3d 63cd ff3c e337 ae3d f979 1abe
000002b0: efd3 003e b570 3c3d 4bef 10be b56e 90bd
000002c0: 033d da3d e60c 553d 3f8f a8bd ed23 cc3b
000002d0: 7b6a b0bd 614f 113e 294a b3bc 3222 1abc
000002e0: 13ed 8b3d 7041 e63d 8333 ddbd 1011 f13e
000002f0: 3298 953d 0cc9 033e 903e 1abe eb4d a63d

encoder.6.bias f4 [3]
0.08550046 -0.10816333 0.0935536
00000000: dd1a af3d bc84 ddbd 0899 bf3d

decoder.0.weight f4 [64, 3]
-0.4665376 0.45798555 -0.16617347 0.35673258 -0.5365876 0.056404922 -0.011818535 0.23851618
0.40964332 0.45113978 0.28744468 -0.3509268 0.54492927 0.5540408 0.40075845 0.2621107
0.3748072 -0.41920498 -0.31678286 0.11627562 0.2459193 0.42403004 -0.11990924 -0.044818778
0.16737671 0.3994968 0.32775295 0.2770433 -0.28633147 -0.037624534 -0.12559679 -0.27226835
-0.47887954 0.17254509 -0.541343 0.17164463 -0.008049358 0.4025802 -0.57107085 0.35221776
-0.06126951 0.3286469 -0.2417843 -0.14932865 -0.014128447 -0.4998789 -0.07812021 -0.30791825
-0.31948167 0.4490948 0.5318785 0.17984903 0.33118293 -0.047319226 0.0150415655 0.095303476
-0.19718035 -0.5570558 -0.04370743 -0.533095 -0.028672397 -0.08992028 0.04288733 -0.29569623
-0.39824012 0.3426366 -0.309467 0.10547011 0.48343757 -0.5047593 0.1274138 0.1219392
0.14120844 0.51027465 0.19154164 0.2819706 0.12263944 -0.70856965 -0.18985835 -0.06606376
-0.28774983 -0.15471151 -0.19391066 -0.20630991 0.10032963 0.13053854 0.5527932 -0.27855998
0.077856064 -0.004673362 0.5976624 0.10050548 -0.39865825 0.026135989 -0.43842974 0.5974389
0.34148878 0.19999526 0.5995624 0.3674061 -0.17384645 -0.26981014 0.3810686 -0.3622274
0.5471236 0.5505584 0.17377542 -0.025821079 0.36933035 0.22137071 0.25801963 -0.54592204
-0.37969068 -0.017098606 -0.031363424 0.4082226 -0.20929137 -0.5446608 0.5001412 0.16830355
0.35107052 -0.42118767 -0.19760707 -0.14519824 0.58871865 0.01616 0.11247635 -0.0057729227
-0.28183648 -0.4944476 -0.06486082 -0.45142037 -0.3017104 0.21980178 -0.35849854 -0.59189546
-0.03384186 0.22495134 -0.40402484 -0.105104156 0.17624483 -0.36540464 0.36043262 -0.33972603
0.16966192 0.18532403 0.3603635 -0.4509362 0.1655931 0.1027241 -0.6183586 0.2298024
0.37153053 -0.18322158 -0.2547324 -0.039625667 -0.56222075 -0.2566926 0.5553602 -0.4404135
-0.11248562 0.6183215 -0.3087734 -0.31116232 -0.09445764 0.06650424 0.23153563 0.30640763
0.039789133 -0.07598771 -0.07046225 0.32641444 -0.4514107 0.08386007 -0.04536397 -0.077364855
0.37582812 -0.5287664 0.19503555 -0.03534216 -0.21577482 -0.3207335 0.08996361 -0.44353533
-0.5215879 0.31778446 0.5440244 -0.26026806 0.11078206 -0.082588285 -0.26215652 -0.055239677
00000000: 04de eebe 157d ea3e 6129 2abe a7a5 b63e
00000010: ce5d 09bf d908 673d 87a2 41bc 963d 743e
00000020: c5bc d13e cbfb e63e f32b 933e adac b3be
00000030: 7c80 0b3f 9ed5 0d3f 3630 cd3e 6033 863e
00000040: bbe6 bf3e 09a2 d6be 5d31 a2be ea21 ee3d
00000050: 45d2 7b3e 771a d93e fa92 f5bd e593 37bd
00000060: cd64 2b3e d88a cc3e 3ccf a73e 9fd8 8d3e
00000070: 0a9a 92be 2f1c 1abd 729c 00be c266 8bbe
00000080: b32f f5be a9af 303e 7495 0abf 9cc3 2f3e
00000090: 74e1 03bc fe1e ce3e b331 12bf e355 b43e
000000a0: bdf5 7abd 6844 a83e 4e96 77be 9ce9 18be
000000b0: 007b 67bc 21f0 ffbe 7dfd 9fbd 76a7 9dbe
000000c0: 1a93 a3be c1ef e53e 3029 083f 582a 383e
000000d0: cf90 a93e ced1 41bd e670 763c 782e c33d
000000e0: a5e9 49be 359b 0ebf 9006 33bd ea78 08bf
000000f0: 60e2 eabc 2028 b8bd a0aa 2f3d 7f65 97be
00000100: 21e6 cbbe 106e af3e 7572 9ebe b700 d83d
00000110: 2185 f73e e837 01bf c378 023e 42bb f93d
00000120: f298 103e 5ca1 023f 7e23 443e 735e 903e
00000130: 632a fb3d d264 35bf 3a6a 42be 704c 87bd
00000140: f253 93be b26c 1ebe 8490 46be e842 53be
00000150: 9f79 cd3d e5ab 053e db83 0d3f 6a9f 8ebe
00000160: 0073 9f3d 0023 99bb 6700 193f d1d5 cd3d
00000170: ef1c ccbe 241b d63c dd79 e0be c1f1 183f
00000180: 9ed7 ae3e 8fcb 4c3e ec7c 193f a71c bc3e
00000190: ce04 32be 8e24 8abe 6c1b c33e df75 b9be
000001a0: 4b10 0c3f 65f1 0c3f 2ff2 313e ba86 d3bc
000001b0: de18 bd3e 01af 623e 261b 843e 8cc1 0bbf
000001c0: d166 c2be 6012 8cbc ef76 00bd 8d02 d13e
000001d0: 7a50 56be e46e 0bbf 4109 003f c457 2c3e
000001e0: 84bf b33e e9a5 d7be 8259 4abe d9ae 14be
000001f0: 44b6 163f fa61 843c 005a e63d c92a bdbb
00000200: df4c 90be 3c28 fdbe c0d5 84bd 9220 e7be
00000210: c979 9abe b813 613e 1f8d b7be 7686 17bf
00000220: c39d 0abd a559 663e 58dc cebe d940 d7bd
00000230: 8679 343e 5116 bbbe a08a b83e 92f0 adbe
00000240: dbbb 2d3e 95c5 3d3e 9181 b83e 1ce1 e6be
00000250: 3d91 293e 0361 d23d c04c 1ebf 5251 6b3e
00000260: 4039 be3e 709e 3bbe 496c 82be 864e 22bd
00000270: b3ed 0fbf 366d 83be 162c 0e3f e17d e1be
00000280: dc5e e6bd 514a 1e3f 8c17 9ebe ab50 9fbe
00000290: 0273 c1bd 6033 883d ad17 6d3e 76e1 9c3e
000002a0: eef9 223d 729f 9bbd 834e 90bd cb1f a73e
000002b0: 4e1f e7be d4be ab3d 92cf 39bd 7771 9ebd
000002c0: 8b6c c03e 3c5d 07bf 66b7 473e f1c2 10bd
000002d0: 13f4 5cbe 2e37 a4be d73e b83d 1017 e3be
000002e0: c986 05bf a5b4 a23e 2f45 0b3f db41 85be
000002f0: b4e1 e23d 0c24 a9bd 6139 86be 0043 62bd

decoder.0.bias f4 [64]
0.3209057 0.054746397 -0.43744725 -0.06107843 -0.5897423 -0.1466581 -0.6072821 -0.20393911
0.24717917 -0.15737174 -0.4619254 0.41857168 0.40485337 0.1603277 -0.15978214 0.256906
-0.4569669 0.30061904 0.37918243 -0.52453685 0.20449346 -0.21814497 -0.2568663 0.37746012
0.5664132 0.4513116 -0.0062646866 0.44044092 0.011086761 -0.11128053 -0.17501274 -0.18252085
0.36505413 0.5636619 -0.053949215 -0.07643755 0.5259763 -0.43892825 -0.2588321 -0.40723968
0.21038605 0.56014144 0.39079708 -0.34522265 -0.54798925 0.27209917 0.4387419 0.25482002
0.3652639 0.554462 -0.53862643 0.54107374 0.5119052 -0.050208732 0.57729685 0.2897221
-0.5251306 0.35689452 0.0049723797 0.13749692 0.07248812 0.39888152 0.5987724 -0.1804322
00000000: c04d a43e c23d 603d 16f9 dfbe 602d 7abd
00000010: 5af9 16bf 8a2d 16be d776 1bbf 6ad5 50be
00000020: 891c 7d3e 0f26 21be 7c81 ecbe 074f d63e
00000030: f148 cf3e f22c 243e ee9d 23be 2f89 833e
00000040: 91f7 e9be bdea 993e 3324 c23e 0c48 06bf
00000050: bc66 513e 6561 5fbe fb83 83be 7442 c13e
00000060: 7500 113f 5012 e73e 0048 cdbb 7981 e13e
00000070: 3fa5 353c 0ce7 e3bd 8a36 33be bfe6 3abe
00000080: 60e8 ba3e 254c 103f daf9 5cbd 4a8b 9cbd
00000090: 62a6 063f 34bb e0be a485 84be b881 d0be
000000a0: 716f 573e 6e65 0f3f 8e16 c83e 06c1 b0be
000000b0: 0649 0cbf 9550 8b3e c7a2 e03e c577 823e
000000c0: df03 bb3e 39f1 0d3f 6ce3 09bf cf83 0a3f
000000d0: 380c 033f aca7 4dbd bac9 133f 7556 943e
000000e0: f66e 06bf e1ba b63e 58ef a23b fecb 0c3e
000000f0: a774 943d 333a cc3e 2649 193f 38c3 38be

decoder.2.weight f4 [128, 64]
-0.0029335448 0.034628227 0.02699542 0.049461257 -0.10651051 0.018767592 0.06383666 0.111135244
0.0133506395 0.15961269 -0.09919368 0.066086814 -0.023842184 0.08001372 -0.09723787 -0.0053299298
-0.10892702 -0.105097674 -0.02402737 0.124618486 0.009773367 -0.10145508 -0.0029457842 -0.068084136
0.014078099 -0.0373356 -0.04191625 0.026380526 0.04596877 -0.05127038 -0.060701035 0.033867177
-0.021685133 0.15751112 0.0997951 0.047976665 -0.08479871 0.06686954 -0.18987389 0.08154246
0.09359193 0.069974124 0.086255826 -0.08585097 -0.053401276 0.10779373 -0.0016837423 0.054364465
0.0058944877 0.1202327 0.018229729 0.11030269 -0.023789372 -0.029223729 0.10246393 0.043307927
0.1379069 0.08864746 0.0033556197 -0.07026592 0.12915337 0.090485446 0.11101385 -0.09347153
0.09422771 0.12002775 -0.0947593 0.0040195733 -0.032228842 0.059947714 -0.042055935 -0.03085278
0.007883663 -0.08871809 -0.120172724 0.029224426 -0.043302972 0.029149432 0.0014199913 -0.015398609
-0.041568615 0.0577604 0.10633417 0.042008027 0.08104831 -0.12094109 -0.08337262 0.028933749
-0.058487024 0.028245756 0.123256296 0.02900555 0.012360255 -0.007375106 0.071940675 0.038301423
-0.045595203 0.0061093317 -0.058752175 -0.08050419 0.09458037 0.10625498 -0.08229913 -0.059178352
-0.021547154 -0.08902723 -0.06900216 -0.101840094 0.00012038648 -0.11441429 0.116719395 0.07985798
-0.04328744 0.11316389 0.056922898 -0.033529986 0.066598296 0.012737101 -0.044552177 -0.05887266
-0.043168217 0.009322344 0.10400923 -0.10914315 -0.007034125 -0.115784675 -0.040206503 0.11493647
0.09314531 -0.07781418 0.016458482 -0.04570867 -0.0801429 -0.007856265 -0.110207275 0.068046704
-0.11655933 0.011550963 -0.008526757 0.09182879 0.08955653 0.027961612 -0.054297537 0.0120410025
-0.053381383 -0.0475509 -0.055074662 0.02841881 -0.102160126 -0.035039708 -0.016760603 -0.051802322
0.087197214 -0.023816422 -0.087733254 -0.11556193 -0.043302357 -0.11292221 0.034155667 0.09526175
-0.095193475 -0.073464155 -0.050016075 -0.0791439 -0.11141291 -0.077092364 -0.019918516 -0.020596132
-0.052228644 0.04664807 -0.0029605478 0.12209317 -0.09221475 -0.10710837 -0.12421797 -0.056539997
-0.057067335 0.09061323 -0.07901691 -0.048587427 0.096312866 0.055760175 -0.018613905 -0.10049398
0.054975525 0.002319023 -0.026389048 0.07574825 0.05039707 -0.10275063 -0.037944958 0.030036375
-0.09680979 0.019114614 0.12189393 -0.0692492 0.059784397 0.03468196 0.018627122 -0.081719056
-0.017993376 0.0950681 0.02157779 -0.10302697 0.09360248 0.0924536 0.017040461 0.08696607
0.013382688 -0.099445686 -0.07096577 -0.012827337 -0.11334723 -0.091012806 -0.11822614 -0.037881106
0.02986902 -0.11055803 -0.04953991 0.083017096 -0.119065896 -0.06028019 -0.0036886036 0.024188623
-0.014453754 -0.11519699 0.05983989 0.105380386 -0.10016662 -0.10900077 -0.095786825 0.069668725
-0.04097846 -0.06452295 0.07576607 -0.037485197 0.074402526 -0.085559875 0.034374565 0.015716061
-0.11317848 0.039256558 0.11273725 -0.03634718 -0.061595812 0.1018555 0.10068539 0.023279577
-0.10016739 0.031804666 0.1206872 0.089705706 0.001053229 0.124528155 -0.10068017 0.08132549
00000000: b740 40bb 54d6 0d3d 8025 dd3c e397 4a3d
00000010: 2f22 dabd 7ebe 993c cbbc 823d e09a e33d
00000020: a4bc 5a3c 8271 233e 0e26 cbbd 8658 873d
00000030: af50 c3bc 3cde a33d a624 c7bd b1a6 aebb
00000040: 2115 dfbd 733d d7bd 0cd5 c4bc fa37 ff3d
00000050: 7920 203c aec7 cfbd 0f0e 41bb b26f 8bbd
00000060: d4a7 663c 37ed 18bd 60b0 2bbd f91b d83c
00000070: c049 3c3d e400 52bd a6a1 78bd 4fb8 0a3d
00000080: 05a5 b1bc 984a 213e 6061 cc3d 2e83 443d
00000090: f2aa adbd e6f2 883d 4d6e 42be bcff a63d
000000a0: 20ad bf3d 984e 8f3d e5a6 b03d a2d2 afbd
000000b0: 4cbb 5abd f6c2 dc3d 04b1 dcba 46ad 5e3d
000000c0: 8c26 c13b 903c f63d 8356 953c 60e6 e13d
000000d0: eee1 c2bc 9a66 efbc 9cd8 d13d a763 313d
000000e0: 7737 0d3e cd8c b53d f5e9 5b3b 94e7 8fbd
000000f0: c840 043e 6f50 b93d 3b5b e33d 006e bfbd
00000100: 75fa c03d 1cd1 f53d 2a11 c2bd a0b6 833b
00000110: 6402 04bd bc8b 753d d842 2cbd f8be fcbc
00000120: 7b2a 013c d4b1 b5bd 1e1d f6bd 1068 ef3c
00000130: 755e 31bd caca ee3c 001f ba3a 734a 7cbc
00000140: da43 2abd 2b96 6c3d bbc5 d93d 9c10 2c3d
00000150: a8fc a53d f6af f7bd 44bf aabd 7806 ed3c
00000160: 1790 6fbd a563 e73c cc6d fc3d 0c9d ed3c
00000170: ab82 4a3c e0aa f1bb a255 933d f4e1 1c3d
00000180: 09c2 3abd ca30 c83b 1fa6 70bd 61df a4bd
00000190: 5ab3 c13d 369c d93d 728c a8bd 0065 72bd
000001a0: a883 b0bc e953 b6bd 0151 8dbd 8a91 d0bd
000001b0: 0078 fc38 0a52 eabd 940a ef3d 958c a33d
000001c0: 2c4e 31bd 78c2 e73d fc27 693d bd56 09bd
000001d0: b064 883d 46af 503c 587c 36bd 7524 71bd
000001e0: 28d1 30bd bfbc 183c cb02 d53d 7286 dfbd
000001f0: 847e e6bb 8420 edbd 93af 24bd d063 eb3d
00000200: f8c2 be3d 0a5d 9fbd f0d3 863c 0439 3bbd
00000210: f621 a4bd 90b7 00bc 5ab4 e1bd 125c 8b3d
00000220: a8b6 eebd 4040 3d3c d0b3 0bbc bc10 bc3d
00000230: 6a69 b73d c00f e53c 1867 5ebd a047 453c
00000240: 70a6 5abd bcc4 42bd f895 61bd 90ce e83c
00000250: 5439 d1bd cc85 0fbd 884d 89bc ac2e 54bd
00000260: 7494 b23d a81a c3bc 7ead b3bd bcab ecbd
00000270: d05d 31bd c243 e7bd d0e6 0b3d 9818 c33d
00000280: ccf4 c2bd 6074 96bd a8dd 4cbd 3216 a2bd
00000290: 742c e4bd 9ae2 9dbd 282c a3bc 38b9 a8bc
000002a0: b4ed 55bd 0c12 3f3d c005 42bb fc0b fa3d
000002b0: 16db bcbd a25b dbbd fe65 febd 7c96 67bd
000002c0: 70bf 69bd 6e93 b93d 9ed3 a1bd 9c03 47bd
000002d0: ae3f c53d c864 643d 307c 98bc cacf cdbd
000002e0: 042e 613d c0fa 173b d82d d8bc e621 9b3d
000002f0: 286d 4e3d ec6e d2bd 2c6c 1bbd d80e f63c
00000300: 3644 c6bd 4096 9c3c 86a3 f93d 86d2 8dbd
00000310: 7ce0 743d ac0e 0e3d e897 983c 525c a7bd
00000320: d866 93bc 10b3 c23d e8c3 b03c ceff d2bd
00000330: a8b2 bf3d 5058 bd3d 7098 8b3c 441b b23d
00000340: 1043 5b3c 2eaa cbbd 8056 91bd c029 52bc
00000350: 9822 e8bd ec64 babd 8c20 f2bd 3829 1bbd
00000360: e0af f43c 406c e2bd 5cea 4abd de04 aa3d
00000370: d2d8 f3bd 5ce8 76bd 80bc 71bb 3827 c63c
00000380: 70cf 6cbc 66ec ebbd ac1a 753d acd1 d73d
00000390: 2824 cdbd cc3b dfbd e22b c4bd 7aae 8e3d
000003a0: 08d9 27bd 9c24 84bd 3e2b 9b3d 148a 19bd
000003b0: 5a60 983d 043a afbd 58cc 0c3d f8be 803c
000003c0: 1eca e7bd 7ccb 203d cae2 e63d c8e0 14bd
000003d0: e44b 7cbd 9e99 d03d 2434 ce3d d0b4 be3c
000003e0: 9024 cdbd 9c45 023d da2a f73d a0b7 b73d
000003f0: 800c 8a3a 9e08 ff3d 6831 cebd fa8d a63d

decoder.2.bias f4 [128]
0.12261518 -0.080572434 -0.065985456 -0.062749505 -0.100249544 -0.0347977 0.046150632 -0.047666278
-0.055545554 -0.10588296 -0.082366325 -0.10697315 0.09886465 -0.1013899 0.12008943 0.092815965
0.03776158 -0.06930641 0.007617973 0.09851593 -0.024157539 0.11661407 -0.047575865 0.089589514
-0.060175247 0.048002716 0.013523035 0.047476035 -0.07548849 -0.059045646 0.0993003 -0.02631575
-0.062129494 -0.012795578 0.08513028 0.058262195 -0.08789445 -0.06769847 -0.01331695 -0.051570445
-0.044653337 0.048958987 0.018222934 -0.13613743 -0.10467928 0.008300651 -0.13210024 0.13807029
0.15230404 0.033614255 0.122833274 -0.020137094 0.060867954 0.016556924 0.021415548 -0.03338941
-0.10448068 -0.028127812 0.015393769 -0.005336355 0.07679284 0.011925449 0.07866767 -0.09826355
0.12826535 -0.07645397 -0.11917374 -0.10838114 0.036323134 0.07756132 0.018499458 -0.108039975
-0.118364654 0.0077067763 -0.045995213 0.07974756 -0.072628155 0.13320743 0.023206372 0.10446377
-0.10463461 -0.0021726657 0.06846633 -0.018281505 0.12103181 0.060887318 -0.08360719 -0.04751064
0.15550706 -0.012079324 -0.044462644 0.10013455 -0.09740125 0.13533232 -0.014516225 -0.09655206
0.076234594 -0.08026303 0.047862645 -0.005555372 -0.028179245 0.10544783 -0.092165984 -0.06898547
-0.018335024 -0.0710386 -0.025502127 -0.12969606 0.14724483 -0.05471677 -0.052288286 -0.07700166
0.06207092 -0.015656713 0.08326146 -0.104982406 -0.049460202 0.11847526 0.06588123 0.0056856573
-0.040013213 0.018667752 0.005037998 0.009068878 -0.09590684 0.098785155 0.1127802 0.025915664
00000000: ab1d fb3d 2903 a5bd 6223 87bd d082 80bd
00000010: a24f cdbd 0888 0ebd 7208 3d3d b73d 43bd
00000020: bc83 63bd 2ad9 d8bd adaf a8bd bd14 dbbd
00000030: 8d79 ca3d 82a5 cfbd 72f1 f53d 4c16 be3d
00000040: e3ab 1a3d 85f0 8dbd 30a0 f93b b8c2 c93d
00000050: 08e6 c5bc 5cd3 ee3d e9de 42bd b57a b73d
00000060: 527a 76bd 7f9e 443d b88f 5d3c 3b76 423d
00000070: b699 9abd d9d9 71bd f55d cb3d 2194 d7bc
00000080: 7f7b 7ebd 8ba4 51bc c958 ae3d 57a4 6e3d
00000090: 0102 b4bd 7fa5 8abd 562f 5abc 883b 53bd
000000a0: 6be6 36bd 3889 483d 4348 953c 9c67 0bbe
000000b0: 1762 d6bd 74ff 073c 4945 07be 4c62 0d3e
000000c0: 97f5 1b3e 1aaf 093d 0390 fb3d 8cf6 a4bc
000000d0: ad50 793d 63a2 873c a96f af3c 55c3 08bd
000000e0: f7f9 d5bd 4c6c e6bc 2636 7c3c 97dc aebb
000000f0: 9145 9d3d f562 433c 841c a13d 663e c9bd
00000100: fe57 033e e693 9cbd 5d11 f4bd eef6 ddbd
00000110: 91c7 143d 78d8 9e3d 2d8c 973c 1044 ddbd
00000120: 2b69 f2bd 2089 fc3b 7a65 3cbd b052 a33d
00000130: 12be 94bd 8767 083e 4a1b be3c 1af1 d53d
00000140: ac4a d6bd 4863 0ebb 1338 8c3d 18c3 95bc
00000150: 87df f73d fb64 793d 3f3a abbd 849a 42bd
00000160: 3e3d 1f3e 5be8 45bc 761e 36bd 5813 cd3d
00000170: 4e7a c7bd 8e94 0a3e 76d5 6dbc 16bd c5bd
00000180: e220 9c3d f260 a4bd 9f0b 443d d709 b6bb
00000190: 29d8 e6bc 08f5 d73d 85c1 bcbd 4148 8dbd
000001a0: 5533 96bc af7c 91bd d6e9 d0bc 0bcf 04be
000001b0: 59c7 163e b11e 60bd 3e2c 56bd 0cb3 9dbd
000001c0: 143e 7e3d 8242 80bc fc84 aa3d 0401 d7bd
000001d0: c896 4abd 28a3 f23d bdec 863d c04e ba3b
000001e0: e5e4 23bd 1ded 983c ca15 a53b a295 143c
000001f0: ce6a c4bd df4f ca3d 4ef9 e63d 164d d43c
