models/best.pth (torch_old, 343636 bytes, 16 tensors)

encoder.0.weight f4 [256, 4]
0.13856603 0.44329455 0.13166453 -0.006170341 -0.14026447 0.08459604 -0.07950854 -0.51271313
-0.3999855 0.42962185 0.33226296 0.49685982 -0.11535285 -0.48865774 0.13756873 0.13088831
0.30880433 -0.24462004 0.56211776 -0.39128354 -0.436207 0.037625726 -0.22110955 -0.2993477
0.10747332 0.4632849 -0.122581 -0.18162939 0.3917341 -0.18293007 -0.6653469 -0.19640172
-0.21695036 -0.3293295 -0.27593532 -0.08664845 -0.322391 0.20399186 0.4247675 0.5928333
0.32240048 -0.24956144 -0.11791629 -0.5573846 -0.03874222 -0.5143632 0.43543896 -0.17719589
-0.09904077 0.08792329 0.56849223 -0.17481299 -0.2034387 0.42306554 -0.5099948 -0.48700923
-0.1963373 -0.19067585 -0.23780918 0.31605318 -0.15844184 0.26977214 0.41086772 -0.16362785
-0.2420502 -0.11228594 0.30565885 0.22357734 0.49775732 -0.09937752 0.061296187 0.2979122
0.34398127 -0.18888468 0.07383381 0.51765215 -0.16944441 0.13418315 -0.18887082 0.31835642
0.14766501 -0.5463708 0.36780205 0.20217049 0.17138188 -0.35827222 0.50412685 -0.29879612
0.18753661 0.031271935 -0.02786104 -0.017142063 -0.38584226 0.06123644 0.3987608 0.32479087
0.3013222 -0.2788229 0.26499316 -0.36924767 -0.092512205 0.18857385 -0.07192487 0.21478762
0.4459135 0.43218935 0.23830499 -0.034493003 0.45207086 0.29463318 0.44342175 0.31436288
0.43347302 -0.22785223 0.25409287 0.54563564 0.47450158 0.08711449 0.30947462 -0.16987194
-0.48928759 0.18072851 0.12101365 0.4459375 -0.34537917 -0.30146167 0.29915997 0.3456895
0.35876593 -0.230631 -0.12564364 0.46346763 -0.2649125 0.5029601 0.33444393 0.28349954
-0.079944685 -0.51668894 0.32864246 -0.12551837 0.31243798 0.45410994 -0.14260241 -0.13037466
0.47453666 -0.24427903 0.023316989 0.1959673 -0.41787297 -0.29539305 -0.31643918 -0.14979762
-0.010851483 0.102715775 0.42922086 -0.57599056 0.2375335 -0.10522065 -0.018247318 -0.30768257
0.48060894 0.015666984 0.28915235 0.23551966 0.33224493 0.028402139 0.25850725 -0.11641984
-0.021265535 0.39404446 -0.12293324 -0.44235125 0.43638498 0.014310124 0.29565084 -0.33456543
-0.05185638 -0.26093733 -0.007174074 0.5199811 0.20373243 -0.16562639 -0.40397975 -0.43007448
0.14944528 0.22805224 -0.00651385 -0.021144848 0.44664901 0.45033365 -0.31402496 0.1926711
-0.48966414 -0.33395064 0.043955527 -0.15523976 -0.45073786 0.13990292 0.11741602 0.20275185
-0.24989873 0.3276237 -0.42074078 -0.49454647 -0.3053476 -0.11704089 0.41823217 0.029775858
-0.18245322 -0.32224733 0.24184227 0.30970365 0.3713399 -0.2578777 0.4632602 0.10890331
-0.52606004 0.28829232 0.23889616 -0.14561293 0.22900705 -0.43432328 -0.3314489 -0.050633095
-0.48758602 0.117355645 0.24297212 -0.016879639 0.21618207 -0.43874368 0.16203527 -0.4219988
0.23530072 -0.40085262 -0.34624907 0.04135963 -0.32345897 -0.051528554 0.4943461 0.44543102
0.27282754 0.1000537 -0.18026829 0.006374864 0.5060648 0.4356634 0.3090222 0.3254908
-0.26264283 -0.17549935 0.093592875 0.37880987 -0.46716544 -0.4335977 -0.17604531 0.10922937
00000000: 41e4 0d3e 81f7 e23e 11d3 063e 9230 cabb
00000010: 7da1 0fbe b040 ad3d 60d5 a2bd 2b41 03bf
00000020: e6ca ccbe 65f7 db3e 5f1e aa3e 6964 fe3e
00000030: 1d3e ecbd 5931 fabe d1de 0c3e 9607 063e
00000040: 9a1b 9e3e ad7d 7abe f3e6 0f3f 5156 c8be
00000050: 8656 dfbe 6f1d 1a3d 8b6a 62be 1a44 99be
00000060: f91a dc3d ae33 ed3e bf0b fbbd 0efd 39be
00000070: 5f91 c83e 0552 3bbe 2d54 2abf 881d 49be
00000080: 3c28 5ebe e09d a8be 6547 8dbe be74 b1bd
00000090: 6f10 a5be 3ee3 503e 207b d93e ecc3 173f
000000a0: ad11 a53e 098d 7fbe 197e f1bd c2b0 0ebf
000000b0: 29b0 1ebd 4fad 03bf dbf1 de3e d772 35be
000000c0: e3d5 cabd 2011 b43d b588 113f 2d02 33be
000000d0: 3c52 50be 0c9c d83e 058f 02bf 4659 f9be
000000e0: a50c 49be 8840 43be 4084 73be b9d1 a13e
000000f0: 943e 22be 931f 8a3e 415d d23e 0f8e 27be
00000100: 02dc 77be 2cf6 e5bd 517f 9c3e 75f1 643e
00000110: 0cda fe3e 7186 cbbd b611 7b3d f387 983e
00000120: 501e b03e fc6a 41be 2e36 973d da84 043f
00000130: d682 2dbe 4f67 093e 5a67 41be 9dff a23e
00000140: 7f35 173e f5de 0bbf 8d50 bc3e c805 4f3e
00000150: bb7e 2f3e 756f b7be 750e 013f cefb 98be
00000160: 9909 403e 0017 003d d63c e4bc 836d 8cbc
00000170: 1e8d c5be 10d3 7a3d 602a cc3e fd4a a63e
00000180: e746 9a3e e0c1 8ebe 2fad 873e 080e bdbe
00000190: 0a77 bdbd 8119 413e 594d 93bd 49f1 5b3e
000001a0: c64e e43e ec47 dd3e 3906 743e 8948 0dbd
000001b0: d575 e73e 29da 963e 2d08 e33e 2cf4 a03e
000001c0: 2df0 dd3e 1852 69be 7618 823e c7ae 0b3f
000001d0: dff1 f23e 1569 b23d 7573 9e3e e9f2 2dbe
000001e0: e783 fabe e510 393e 01d6 f73d ec51 e43e
000001f0: 8ad5 b0be 2f59 9abe 7f2b 993e 37fe b03e
00000200: 2bb0 b73e 882a 6cbe baa8 00be a14b ed3e
00000210: 9ca2 87be fec1 003f 3c3c ab3e da26 913e
00000220: 0aba a3bd ba45 04bf d343 a83e e387 00be
00000230: dff7 9f3e 1981 e83e 5e06 12be ef80 05be
00000240: 78f6 f23e 4824 7abe 4503 bf3c a7ab 483e
00000250: 72f3 d5be c23d 97be 5104 a2be 8c64 19be
00000260: 6bca 31bc a65c d23d d6c2 db3e 1e74 13bf
00000270: fb3b 733e ed7d d7bd 667b 95bc 9288 9dbe
00000280: 6012 f63e 0c58 803c c70b 943e 112c 713e
00000290: 021c aa3e 9aab e83c 105b 843e 866d eebd
000002a0: 0f35 aebc 32c0 c93e 6cc4 fbbd dd7b e2be
000002b0: da6d df3e 0375 6a3c 8c5f 973e 294c abbe
000002c0: 5b67 54bd 9499 85be 7f14 ebbb 7b1d 053f
000002d0: 3c9f 503e f799 29be 6fd6 cebe b932 dcbe
000002e0: 2f08 193e 8786 693e 2272 d5bb f637 adbc
000002f0: 2eaf e43e 2292 e63e e1c7 a0be 934b 453e
00000300: 42b5 fabe 94fb aabe b60a 343d 2cf7 1ebe
00000310: 1dc7 e6be b642 0f3e cf77 f03d 2e9e 4f3e
00000320: 74e5 7fbe 4bbe a73e 566b d7be 3235 fdbe
00000330: 8556 9cbe 22b3 efbd 8722 d63e 80ec f33c
00000340: 04d5 3abe 9afd a4be 80a5 773e 7a91 9e3e
00000350: 4320 be3e 8c08 84be 7130 ed3e b308 df3d
00000360: dfab 06bf 0d9b 933e 32a1 743e 8e1b 15be
00000370: d380 6a3e 9f5f debe acb3 a9be a664 4fbd
00000380: e0a4 f9be 2858 f03d afcd 783e 2b47 8abc
00000390: d55e 5d3e 03a3 e0be 93ec 253e 3a10 d8be
000003a0: acf2 703e 8e3c cdbe 8f47 b1be b768 293d
000003b0: 6a9c a5be 9b0f 53bd ef1a fd3e 890f e43e
000003c0: 0db0 8b3e f4e8 cc3d 4098 38be 3ce4 d03b
000003d0: 768d 013f 460f df3e 2838 9e3e bba6 a63e
000003e0: 1f79 86be 1ab6 33be 9fad bf3d 5ef3 c13e
000003f0: 4f30 efbe 8500 debe 3945 34be a6b3 df3d

encoder.0.bias f4 [256]
-0.075857244 0.50668997 -0.09441621 0.36495286 0.305746 -0.2616965 0.13229325 -0.47878423
0.09793989 0.34144497 -0.5899921 0.21282567 0.2616005 -0.48232093 -0.23149508 0.0145668285
-0.25187233 -0.337373 0.08967096 0.5342197 -0.19111897 -0.22437854 -0.22819701 0.56407803
-0.36941695 -0.058241688 0.3509104 -0.5007296 -0.43098587 -0.15165903 0.07360385 -0.060687866
0.0033718913 0.18592447 0.39719737 0.42582488 -0.11074471 -0.32305408 -0.4096923 0.49235758
0.5230459 -0.13144459 -0.16464263 -0.14757845 -0.3503439 0.053825628 -0.2633948 0.44731924
-0.45222712 -0.27797946 0.12181435 -0.43743655 -0.118054554 0.23358102 0.4974625 0.42056215
0.024028106 -0.25278944 0.19148889 0.08057924 -0.22735757 -0.27440175 -0.14818418 0.31975317
0.15379475 -0.14007124 -0.3590267 -0.51771426 0.13777018 -0.45564625 -0.08374386 -0.47420707
-0.28595576 0.5869201 -0.47883844 -0.3994967 0.07785904 0.26627922 -0.11368996 0.10215502
-0.30628797 -0.22261374 0.06501571 0.43713248 -0.40513706 0.37800092 -0.35781172 -0.44477424
0.5380232 -0.14477696 -0.14898504 0.35800305 0.27802947 0.28799558 0.18399313 0.14418066
-0.4298358 -0.21782273 0.06305435 0.28271022 0.10549297 0.47555697 -0.31484768 0.3042401
-0.16486974 0.49978098 -0.05456543 -0.07784478 -0.39955652 0.12881295 -0.6429439 -0.10726295
-0.3200097 -0.24521835 -0.06755004 0.41704282 -0.1744474 0.30957943 -0.009419199 0.23929834
-0.34077507 0.4569148 0.35845235 -0.13082126 -0.47369465 -0.28884494 -0.51791096 0.047924828
-0.38738018 0.12694892 -0.1187583 0.08007311 -0.47179678 -0.23104435 0.1230543 0.3569255
0.26049176 0.045372423 0.043720704 -0.24317336 -0.4519091 -0.0052003865 -0.16240363 -0.5165476
0.17204721 0.0061925263 0.2621685 -0.47332844 -0.1299021 -0.014148968 0.4919429 0.014113931
-0.39970294 -0.062293693 -0.21914542 0.37017882 -0.1876091 0.5511281 0.01745133 -0.19644235
-0.26162037 -0.2672538 -0.13090181 0.14114556 0.41018993 -0.15743583 -0.024538586 0.46368363
-0.16715276 -0.1697578 -0.45196107 0.30698308 0.51951605 0.28932968 0.4759915 -0.25869244
0.23923662 0.0998033 -0.44907093 0.32341623 -0.44333392 0.19345063 0.47587442 -0.1874343
-0.06471519 0.15866727 -0.13914956 0.08270918 -0.24287233 0.13986045 -0.21377745 0.36514664
0.42432308 -0.10043134 -0.4169836 -0.4518695 -0.2790612 0.3326796 0.46091726 -0.21967052
0.45635596 -0.23480165 -0.29511753 -0.022651443 -0.36616254 0.53630006 0.1766327 0.19845772
-0.042776406 -0.20802212 0.28840268 -0.1028084 -0.31718832 0.35088143 0.29933912 0.5002649
0.32786217 0.031463005 -0.41031736 -0.23411207 0.00015729097 -0.36322692 0.10852548 -0.34453258
-0.36769179 0.41603866 0.2720081 0.37438405 -0.3926329 0.20754398 0.5324632 -0.34331945
-0.21467984 -0.27215806 0.22196633 0.08415657 0.12468653 0.4365369 0.29644904 -0.2724877
-0.19332789 -0.41279072 -0.4979026 0.35945237 -0.60462326 -0.042057887 -0.3143079 0.12319737
0.43079948 -0.37086475 -0.30303803 0.26919827 0.13719599 0.49087712 -0.301742 -0.15441164
00000000: 0b5b 9bbd 6fb6 013f 495d c1bd 1adb ba3e
00000010: bd8a 9c3e 15fd 85be e277 073e 3523 f5be
00000020: b694 c83d e0d1 ae3e b909 17bf f9ee 593e
00000030: 80f0 853e c5f2 f6be 0c0d 6dbe b5a9 6e3c
00000040: 69f5 80be 27bc acbe 69a5 b73d 9fc2 083f
00000050: b1b4 43be 7dc3 65be 7aac 69be 6b67 103f
00000060: 3824 bdbe d68e 6ebd 87aa b33e d12f 00bf
00000070: 2eaa dcbe 814c 1bbe 9ebd 963d d793 78bd
00000080: f3fa 5c3b fc62 3e3e 745d cb3e b805 da3e
00000090: 1fce e2bd 5867 a5be 30c3 d1be 4b16 fc3e
000000a0: 56e6 053f 6999 06be 1498 28be ce1e 17be
000000b0: 4760 b3be 4378 5c3d afdb 86be 0707 e53e
000000c0: 508a e7be 5353 8ebe cd79 f93d aff7 dfbe
000000d0: 96c6 f1bd dd2f 6f3e 68b3 fe3e ec53 d73e
000000e0: 97d6 c43c 9e6d 81be aa15 443e bb06 a53d
000000f0: 6cd0 68be 637e 8cbe 98bd 17be b0b6 a33e
00000100: 5f7c 1d3e d66e 0fbe 59d2 b7be ec88 04bf
00000110: a013 0d3e 774a e9be e781 abbd 45cb f2be
00000120: cb68 92be 6540 163f 502a f5be d58a ccbe
00000130: 8f74 9f3d c055 883e 48d6 e8bd a736 d13d
00000140: c7d1 9cbe dbf4 63be f526 853d d4cf df3e
00000150: 206e cfbe 5689 c13e 1933 b7be 73b9 e3be
00000160: e3bb 093f 6940 14be 898f 18be 2d4c b73e
00000170: e159 8e3e 2874 933e b268 3c3e 18a4 133e
00000180: 7013 dcbe ec0c 5fbe a422 813d 65bf 903e
00000190: b30c d83d 347c f33e b733 a1be 5cc5 9b3e
000001a0: 9dd3 28be 4be3 ff3e 0080 5fbd 166d 9fbd
000001b0: ac92 ccbe 8be7 033e f997 24bf adac dbbd
000001c0: 50d8 a3be 851a 7bbe ad57 8abd a386 d53e
000001d0: 57a2 32be 3281 9e3e fc52 1abc a00a 753e
000001e0: 127a aebe bdf0 e93e 1187 b73e 02f6 05be
000001f0: 1b88 f2be 7ce3 93be d095 04bf d34c 443d
00000200: b256 c6be e6fe 013e 8d37 f3bd 5ffd a33d
00000210: 598f f1be e496 6cbe e503 fc3d f0be b63e
00000220: 2d5f 853e 6fd8 393d 7b14 333d 7002 79be
00000230: a160 e7be 0168 aabb 234d 26be 773c 04bf
00000240: 252d 303e adea ca3b f33a 863e 1b58 f2be
00000250: 0e05 05be 13d1 67bc f1df fb3e 1e3e 673c
00000260: dda5 ccbe ac27 7fbd a867 60be 1488 bd3e
00000270: 9a1c 40be bb16 0d3f 17f6 8e3c 2f28 49be
00000280: 1bf3 85be 7dd5 88be 200b 06be 7688 103e
00000290: 6a04 d23e dc36 21be 2505 c9bc f167 ed3e
000002a0: 182a 2bbe fdd4 2dbe 7167 e7be e32c 9d3e
000002b0: 01ff 043f 0523 943e 28b5 f33e 5673 84be
000002c0: 72fa 743e ac65 cc3d a0ec e5be d096 a53e
000002d0: aafc e2be ec17 463e d0a5 f33e c7ee 3fbe
000002e0: 6689 84bd ac79 223e 397d 0ebe 6e63 a93d
000002f0: 86b3 78be 9437 0f3e 7ae8 5abe 80f4 ba3e
00000300: e040 d93e f2ae cdbd e07e d5be 705b e7be
00000310: 1ce1 8ebe fb54 aa3e 59fd eb3e 4ff1 60be
00000320: 7da7 e93e d86f 70be a519 97be 858f b9bc
00000330: a879 bbbe f64a 093f 34df 343e 8038 4b3e
00000340: 5036 2fbd c003 55be 84a9 933e 368d d2bd
00000350: 8266 a2be bba6 b33e fa42 993e 5c11 003f
00000360: 8ddd a73e 5adf 003d 1e15 d2be 13bb 6fbe
00000370: 79ee 2439 e1f8 b9be 9b42 de3d 9366 b0be
00000380: 1942 bcbe 0503 d53e a544 8b3e 44af bf3e
00000390: 2e07 c9be 6986 543e 824f 083f 91c7 afbe
000003a0: 08d5 5bbe 4d58 8bbe 244b 633e 485a ac3d
000003b0: a75b ff3d c481 df3e 2bc8 973e 8283 8bbe
000003c0: bff7 45be 4e59 d3be 17ed febe 240a b83e
000003d0: 97c8 1abf e444 2cbd f7ec a0be e74e fc3d
000003e0: c091 dc3e fce1 bdbe cd27 9bbe 5bd4 893e
000003f0: 1b7d 0c3e 3f54 fb3e ed7d 9abe 161e 1ebe

encoder.2.weight f4 [128, 256]
0.08307803 0.0240666 -0.034198515 0.015123145 -0.02173076 -0.0069784224 0.07428612 -0.04126157
-0.018869065 -0.033412315 -0.057130102 -0.04040553 0.011516805 0.060159083 -0.0017148807 0.056309275
-0.021668307 0.002029323 -0.03294832 0.024029799 -0.007778635 0.056373596 0.064625435 0.019456288
0.033171657 0.04055131 0.018836493 -0.0011018781 -0.06967144 0.07930398 0.023806741 0.046442993
0.045511432 0.0722013 -0.020109821 0.0008254694 -0.039382335 0.013911413 -0.04594758 -0.02838286
0.0768888 0.056218755 -0.048421904 -0.0014364354 -0.02753358 -0.036664426 0.07209664 0.015798021
0.03515097 -0.059232425 0.02293358 -0.064726524 -0.02145182 0.03906073 0.02040598 0.078893006
0.0026617143 -0.04296774 0.047416862 -0.015079107 0.05735886 -0.027865477 -0.042151555 0.038115904
0.03375148 0.01804658 -0.046220727 0.025468575 0.08391715 0.0029453903 0.004568593 0.07753723
0.063901916 0.055427894 -0.062266964 0.015013828 0.04062308 -0.017129974 0.014502319 -0.006332537
-0.053967234 -0.056147404 0.034610074 0.0051072594 -0.06845163 0.032148056 0.075892836 0.026209425
0.038795542 -0.062362723 0.025098393 0.019166142 0.03650036 0.07488042 0.021875234 -0.013104982
0.048623934 -0.014488133 -0.03691831 -0.031273462 -0.021456137 0.004467061 -0.028208707 -0.033880685
-0.021588493 0.03353421 -0.008994813 -0.03128467 -0.013085949 0.06289717 0.06960434 0.023461442
0.056325156 -0.048481263 -0.025027344 0.06226292 -0.017539702 0.09896339 -0.03274997 0.031319384
0.045778975 0.004415755 -0.015148972 -0.056152433 -0.018030383 -0.0039390265 0.04704966 0.007666995
-0.0214223 -0.019650921 -0.0153571945 0.038435362 -0.12421711 0.009688875 0.020324059 -0.029377257
0.0023455452 -0.018597983 -0.029664384 -0.04131273 -0.045768302 -0.015537481 -0.023598416 0.08866224
-0.020471932 0.034654614 0.019975469 -0.020884424 0.07233729 -0.054494552 -0.0034567278 0.045354437
0.039668087 0.027380235 0.063682 0.01757121 -0.029484091 -0.0062297764 0.03670188 0.035413254
0.003787086 -0.11171537 0.009212919 0.043558877 0.061987612 0.028374383 -0.03380407 -0.025409034
0.0036444115 0.04096586 0.008359139 0.017222453 0.020314377 0.038142465 -0.005108637 -0.022966497
-0.022017686 0.04306805 0.0614767 0.095067754 0.05445497 0.0359434 0.0406107 0.052619983
0.033198576 0.03624328 0.003577901 0.034842376 -0.02374161 0.011884887 0.04882239 0.040455047
-0.00090666977 0.07049829 -0.038899347 0.07515198 -0.014737927 0.015112595 0.006790564 -0.018030103
0.03705725 0.026325166 0.032020155 0.029464383 -0.04545953 0.071093895 0.07146844 -0.02426989
0.026930286 -0.043072823 0.011686405 -0.06447848 0.008455153 0.008741962 -0.0042232033 0.01760001
-0.023975834 0.01630615 0.047473554 -0.025757452 -0.027911862 0.030168278 -0.0370209 -0.029423065
-0.004205306 -0.018537464 0.02732523 0.048509516 -0.043955207 0.030666048 0.072303645 -0.031205889
-0.05934565 0.09213812 0.00053326145 -0.004634884 0.059437938 -0.0028000593 -0.033443138 0.010946768
0.0446085 0.076235384 0.019031364 -0.039328072 0.14563024 0.02033418 -0.04254373 0.03941606
-0.01275913 0.08866245 0.051127348 -0.007864316 0.043812446 0.060139358 -0.0050711595 -0.008990408
00000000: d024 aa3d 5127 c53c be13 0cbd 11c7 773c
00000010: b504 b2bc 40ab e4bb 5223 983d e401 29bd
00000020: 4c93 9abc 5adb 08bd 4101 6abd 4580 25bd
00000030: fbb0 3c3c 5f69 763d d9c5 e0ba 8ea4 663d
00000040: bc81 b1bc 64fe 043b d1f4 06bd 24da c43c
00000050: ebe3 febb 00e8 663d 575a 843d cb62 9f3c
00000060: 01df 073d 2119 263d fd4e 9a3c e56c 90ba
00000070: e6af 8ebd 206a a23d 5b06 c33c 023b 3e3d
00000080: 326a 3a3d 46de 933d 5abd a4bc 5064 583a
00000090: 5f4f 21bd b2ec 633c 8833 3cbd 2c83 e8bc
000000a0: e077 9d3d a345 663d 0c56 46bd c646 bcba
000000b0: 1a8e e1bc 702d 16bd 67a7 933d da6a 813c
000000c0: 77fa 0f3d b39d 72bd 34df bb3c 578f 84bd
000000d0: babb afbc 25fe 1f3d 712a a73c a892 a13d
000000e0: 2870 2e3b f1fe 2fbd 2f38 423d 5c0e 77bc
000000f0: 20f1 6a3d 2446 e4bc 1ca7 2cbd 6c1f 1c3d
00000100: fe3e 0a3d 6cd6 933c f251 3dbd 79a3 d03c
00000110: c1dc ab3d 7307 413b 23b4 953b d7cb 9e3d
00000120: 02df 823d 5c08 633d a50b 7fbd 8ffc 753c
00000130: 6364 263d 2954 8cbc 229b 6d3c 2c81 cfbb
00000140: bf0c 5dbd d2fa 65bd 4bc3 0d3d cc5a a73b
00000150: 5e30 8cbd aead 033d b46d 9b3d 26b5 d63c
00000160: 13e8 1e3d 0e70 7fbd 259b cd3c 5002 9d3c
00000170: 6781 153d e85a 993d b133 b33c 47b6 56bc
00000180: e429 473d a25f 6dbc a737 17bd 9a18 00bd
00000190: c8c4 afbc 6c60 923b f215 e7bc 79c6 0abd
000001a0: 5ada b0bc 2b5b 093d fb5e 13bc 5b24 00bd
000001b0: 7366 56bc 3bd0 803d b88c 8e3d 3632 c03c
000001c0: 35b5 663d 4a94 46bd 2506 cdbc 6707 7f3d
000001d0: 6caf 8fbc 51ad ca3d d524 06bd c148 003d
000001e0: bc82 3b3d 0ab2 903b 6533 78bc 1800 66bd
000001f0: 74b4 93bc f312 81bb 25b7 403d 6a3b fb3b
00000200: d27d afbc f8fa a0bc be9c 7bbc 666e 1d3d
00000210: 8a65 febd 16be 1e3c a47e a63c 93a8 f0bc
00000220: b8b7 193b cc5a 98bc b902 f3bc 8a37 29bd
00000230: 8b77 3bbd eb90 7ebc 7751 c1bc 8c94 b53d
00000240: c1b4 a7bc fff1 0d3d 98a3 a33c d015 abbc
00000250: 9325 943d ae35 5fbd 458a 62bb 93c5 393d
00000260: 017b 223d 844c e03c b56b 823d 80f1 8f3c
00000270: 9f88 f1bc 2723 ccbb b654 163d 7d0d 113d
00000280: c330 783b 07cb e4bd c8f1 163c cb6a 323d
00000290: b9e6 7d3d 6571 e83c 2376 0abd 9b26 d0bc
000002a0: 14d7 6e3b d1cb 273d c5f4 083c 1a16 8d3c
000002b0: 566a a63c 463b 1c3d 5a66 a7bb 3c24 bcbc
000002c0: 6f5e b4bc 2068 303d fece 7b3d e2b2 c23d
000002d0: 2d0c 5f3d 6339 133d 6857 263d 0d88 573d
000002e0: 3bfb 073d d573 143d 387b 6a3b e1b6 0e3d
000002f0: c47d c2bc d4b8 423c fdf9 473d 31b4 253d
00000300: 94ad 6dba 6861 903d ec54 1fbd 48e9 993d
00000310: 5977 71bc d19a 773c 6183 de3b deb3 93bc
00000320: 58c9 173d e0a7 d73c 9127 033d 4a5f f13c
00000330: c633 3abd ad99 913d 0c5e 923d a6d1 c6bc
00000340: e79c dc3c 216d 30bd 5678 3f3c 4b0d 84bd
00000350: 7b87 0a3c 723a 0f3c cc62 8abb e52d 903c
00000360: f868 c4bc 7a94 853c a173 423d 4b01 d3bc
00000370: 6ba7 e4bc 7723 f73c 3aa3 17bd a408 f1bc
00000380: aacc 89bb e1db 97bc 29d9 df3c eab1 463d
00000390: 600a 34bd 5d37 fb3c ef13 943d 7ea3 ffbc
000003a0: 6d14 73bd e9b2 bc3d 92ca 0b3a 3ae0 97bb
000003b0: 3275 733d 3381 37bb acfb 08bd 135a 333c
000003c0: 67b7 363d 4c21 9c3d aae7 9b3c 7916 21bd
000003d0: 1820 153e de93 a63c 5642 2ebd bc72 213d
000003e0: ac0b 51bc a994 b53d e96a 513d 55d9 00bc
000003f0: ae74 333d b054 763d f82b a6bb 814c 13bc

encoder.2.bias f4 [128]
0.028429084 -0.046311196 -0.06709202 -0.015333885 -0.016986169 -0.044414707 -0.02668978 -0.0047168136
-0.04422401 0.040248014 0.026612118 0.075989015 0.007502507 -0.0014240894 0.061153173 -0.0647103
0.010059309 0.014106911 0.03254631 0.05500306 0.018342787 0.09180498 0.024647573 0.05264774
0.026492715 0.05527966 -0.0046124645 0.033683456 0.010751781 -0.008060636 -0.024563681 0.090036765
0.015017631 -0.013320651 0.040906716 0.033478417 0.005373102 -0.021587579 -0.01978655 -0.034215104
0.095857576 -0.013046034 -0.0044352366 0.021017473 0.055998437 0.04838959 0.048248082 0.0314667
0.034325134 0.07061514 -0.0017461828 0.017449204 0.041450094 0.011078619 0.043017812 -0.011599965
-0.032101754 0.011083797 0.03190431 0.07618096 0.0028440952 0.051695865 -0.027827969 -0.012939318
-0.027877625 0.09149297 0.07454458 0.017946012 0.08494928 0.048818216 -0.013635317 0.089798234
0.034922455 0.030144094 0.058201082 0.09521011 0.078271106 -0.02739588 0.056750044 0.049244624
-0.014398797 0.03942037 -0.06569635 -0.06792236 0.07010146 0.075436905 0.077012196 -0.0029281948
0.091696724 0.014587746 0.063443765 0.052073505 0.07778227 0.07330202 -0.019121956 -0.01315574
-0.06736989 -0.021872753 0.04191041 0.033193644 0.04939187 0.040111292 0.027070826 0.009377494
0.09348041 -0.13775249 -0.004074029 0.07522178 0.012513773 0.048380878 0.07588764 -0.018773846
0.0018177475 0.08558106 0.03085584 0.004980835 0.001884234 0.032596443 0.09755186 0.026469395
-0.008733859 0.09258283 -0.0075010615 0.023850225 0.07354574 0.06706878 -0.027003102 0.082458876
00000000: 1ce4 e83c cfb0 3dbd 8a67 89bd fa3a 7bbc
00000010: 9426 8bbc 32ec 35bd 87a4 dabc 808f 9abb
00000020: 3c24 35bd 1adb 243d a801 da3c 21a0 9b3d
00000030: 97d7 f53b 83a8 baba c07b 7a3d d586 84bd
00000040: cdcf 243c ac20 673c 484f 053d e34a 613d
00000050: 9d43 963c 4004 bc3d b5e9 c93c 28a5 573d
00000060: 4007 d93c ed6c 623d 2824 97bb aaf7 093d
00000070: 3d28 303c c210 04bc c639 c9bc 3265 b83d
00000080: 830c 763c dc3e 5abc cd8d 273d aa20 093d
00000090: d910 b03b 6fd8 b0bc 6717 a2bc 2325 0cbd
000000a0: fa50 c43d 08bf 55bc 7655 91bb d62c ac3c
000000b0: 9e5e 653d 2a34 463d c89f 453d 3ae3 003d
000000c0: 8398 0c3d ac9e 903d 2ce0 e4ba a2f1 8e3c
000000d0: 93c7 293d 1983 353c 7233 303d c80d 3ebc
000000e0: 217d 03bd d098 353c 18ae 023d c304 9c3d
000000f0: 0064 3a3b 0bbf 533d 7bf7 e3bc 6fff 53bc
00000100: 9e5f e4bc ab60 bb3d d4aa 983d 8403 933c
00000110: e3f9 ad3d 9cf5 473d aa66 5fbc 23e8 b73d
00000120: d90a 0f3d bff0 f63c 4264 6e3d 85fd c23d
00000130: 9a4c a03d 536d e0bc bc72 683d bbb4 493d
00000140: efe8 6bbc 4177 213d cf8b 86bd e11a 8bbd
00000150: 5b91 8f3d aa7e 9a3d 92b8 9d3d f5e6 3fbb
00000160: 7ecb bb3d 7101 6f3c ceee 813d 074b 553d
00000170: 504c 9f3d 5f1f 963d a6a5 9cbc 2c8b 57bc
00000180: 3af9 89bd 7d2e b3bc 40aa 2b3d 0ff6 073d
00000190: 214f 4a3d bd4b 243d a3c3 dd3c 10a4 193c
000001a0: a872 bf3d fd0e 0dbe 6f7f 85bb e00d 9a3d
000001b0: 9106 4d3c 072b 463d fb6a 9b3d 9ccb 99bc
000001c0: 7c41 ee3a 1f45 af3d 63c5 fc3c 4636 a33b
000001d0: 67f8 f63a d983 053d 45c9 c73d 58d6 d83c
000001e0: 7618 0fbc 119c bd3d 77cb f5bb 8c61 c33c
000001f0: 269f 963d 5b5b 893d 9c35 ddbc 33e0 a83d

encoder.4.weight f4 [64, 128]
0.11480385 -0.02214877 -0.12118555 -0.04457926 0.01322317 0.0620897 -0.046762608 0.08950879
-0.05295958 -0.027696742 0.0062389714 0.043283034 -0.04346638 0.07754195 0.08791174 -0.0542802
0.1095293 -0.030318312 -0.22721711 0.036809355 0.09309555 0.10822054 0.007253526 0.040733047
0.02583315 0.104361705 -0.0488963 -0.037658423 0.017493185 0.10418015 0.17363948 0.04910418
-0.013928413 -0.108935215 -0.024084367 -0.08734296 0.008132345 -0.016270591 -0.055440005 -0.023009147
0.1125102 0.063772306 0.012685497 0.09590185 0.12495502 0.034315847 0.038463056 0.06255763
-0.061436106 0.041394986 -0.030244464 0.01189254 -0.006135543 0.020945046 0.052767023 0.053517208
0.019990683 -0.022438986 0.08187226 0.05971215 -0.052555542 0.055155408 0.12158238 0.017502667
0.06302835 0.040892392 0.007953908 0.06029823 0.01792754 0.076982714 0.07912758 0.11594966
0.12715547 0.060986195 0.0599958 0.087015636 0.03342917 -0.031881142 0.09543083 0.06291934
-0.009209768 0.2730725 -0.12868749 -0.028734066 -0.0454488 0.093443014 0.0057188384 0.02899914
-0.034607656 0.09503309 0.019832006 -0.038477033 0.11242146 -0.014254265 -0.043242298 -0.08165707
-0.012499928 -0.005876037 -0.044917602 0.02927505 0.13299845 -0.046853397 -0.031401545 -0.0066742944
-0.06022446 0.13940233 -0.043611914 0.0047558295 -0.08074476 -0.025453623 0.06827565 -0.054426882
0.050949905 0.03743213 0.10808502 0.09352682 -0.021123825 -0.011806041 0.087539986 0.038565457
0.07145472 0.08175274 0.08536612 -0.01676346 -0.019838553 0.08818817 0.09600157 -0.018225925
0.09244033 -0.04542321 -0.06385934 -0.06262319 -0.033508416 0.030400803 0.041117594 0.061719954
0.085394874 -0.068787046 0.033427063 0.017285602 -0.005325769 0.009736756 0.032454617 -0.0025781235
-0.038112752 0.052825157 -0.2039282 0.015984012 -0.05908744 0.04934107 0.038627714 -0.029117327
0.0784568 0.05216307 -0.00018703591 -0.010229659 0.025143877 0.05075729 0.009021254 0.09557903
0.11392695 -0.08183245 -0.0043102982 0.03567075 0.103481404 0.027510824 -0.005141648 0.0071670045
0.1113447 -0.042363435 -0.011066725 0.045063354 0.064059086 0.024759587 0.029757664 0.05711109
0.032763433 0.04320497 -0.032896042 0.06720286 0.010081116 -0.061272275 -0.03760431 0.058179934
0.03685439 0.04381362 -0.03720959 0.08083187 -0.13298629 0.059647914 0.11421681 0.10868569
0.05250075 0.08244206 -0.018324915 -0.042981558 -0.0040020277 0.11673361 0.016031543 0.060110923
0.032263152 0.063868076 0.038857553 -0.020644478 0.03820362 0.07923031 -0.012300696 0.051245537
0.017950593 0.0094120875 -0.041482437 0.0021199859 -0.0062805517 -0.012354325 0.050017383 0.0006375283
0.006173031 0.06953062 0.076590165 -0.05114938 -0.022189828 0.032751832 -0.022739291 -0.08745651
-0.06366634 0.102395646 -7.9570564e-05 0.09232476 0.026216898 0.00038479854 0.04790971 0.07401799
0.099677496 0.13694291 0.05778668 0.08861042 -0.009153856 0.08222152 0.042696774 0.04283327
-0.029614786 0.10864719 0.052199177 0.010538494 0.082663275 -0.047841564 0.04383809 -0.010408116
-0.04734638 0.0132986745 0.094520874 0.012419797 -0.0015638596 0.03192984 -0.02915569 0.04213716
00000000: 481e eb3d 5671 b5bc 2130 f8bd be98 36bd
00000010: ffa5 583c c551 7e3d 268a 3fbd 6250 b73d
00000020: 25ec 58bd 47e4 e2bc 4970 cc3b 8d49 313d
00000030: ce09 32bd 50ce 9e3d 120b b43d ea54 5ebd
00000040: e650 e03d 1c5e f8bc 9aab 68be 68c5 163d
00000050: e1a8 be3d bba2 dd3d fcae ed3b b2d7 263d
00000060: 0ba0 d33c 97bb d53d 7d47 48bd b83f 1abd
00000070: de4d 8f3c 675c d53d 8cce 313e 7721 493d
00000080: 0034 64bc 6d19 dfbd 944c c5bc dee0 b2bd
00000090: 873d 053c e749 85bc 0f15 63bd ae7d bcbc
000000a0: bf6b e63d 0e9b 823d d5d6 4f3c 3068 c43d
000000b0: 6be8 ff3d c68e 0c3d 708b 1d3d 371e 803d
000000c0: 6da4 7bbd ca8d 293d 3dc3 f7bc eed8 423c
000000d0: aa0c c9bb f294 ab3c 3c22 583d dc34 5b3d
000000e0: 80c3 a33c f7d1 b7bc a5ac a73d ba94 743d
000000f0: 7b44 57bd a3ea 613d 2f00 f93d c161 8f3c
00000100: 0215 813d c87e 273d 1c51 023c 47fb 763d
00000110: c7dc 923c 1da9 9d3d a40d a23d 0477 ed3d
00000120: 0b35 023e a9cc 793d 28be 753d 4135 b23d
00000130: 06ed 083d cd95 02bd 3d71 c33d dbdb 803d
00000140: 91e4 16bc 29d0 8b3e a7c6 03be b463 ebbc
00000150: 8528 3abd 0d5f bf3d 1865 bb3b 9b8f ed3c
00000160: c2c0 0dbd b5a0 c23d bb76 a23c 189a 1dbd
00000170: 393d e63d b98a 69bc d61e 31bd d23b a7bd
00000180: 7fcc 4cbc c58b c0bb 85fb 37bd 3bd2 ef3c
00000190: bf30 083e 59e9 3fbd e89e 00bd 0ab4 dabb
000001a0: ecad 76bd 7cbf 0e3e 68a2 32bd cad6 9b3b
000001b0: 825d a5bd 1e84 d0bc 1bd4 8b3d b9ee 5ebd
000001c0: d9b0 503d 6f52 193d ae5b dd3d fd8a bf3d
000001d0: df0b adbc 206e 41bc 2a48 b33d d0f6 1d3d
000001e0: da56 923d fb6d a73d 6fd4 ae3d 8653 89bc
000001f0: 7684 a2bc 009c b43d 799c c43d 894e 95bc
00000200: 5b51 bd3d b00d 3abd b0c8 82bd 9640 80bd
00000210: 1f40 09bd 1b0b f93c ec6a 283d 10ce 7c3d
00000220: 82e3 ae3d 39e0 8cbd d1ea 083d 899a 8d3c
00000230: ca83 aebb ea86 1f3c 22ef 043d bcf5 28bb
00000240: 1e1c 1cbd 315f 583d 8ed2 50be e7f0 823c
00000250: ac05 72bd dd19 4a3d 1838 1e3d 7687 eebc
00000260: f5ad a03d f1a8 553d 121f 44b9 4d9a 27bc
00000270: 88fa cd3c e0e6 4f3d e2cd 133c f0be c33d
00000280: 8852 e93d c697 a7bd 673d 8dbb 7e1b 123d
00000290: 0fee d33d 615e e13c 457b a8bb 31d9 ea3b
000002a0: b108 e43d 4885 2dbd 3551 35bc 5a94 383d
000002b0: 6931 833d 9ed4 ca3c 58c6 f33c 51ed 693d
000002c0: f332 063d b2f7 303d 00be 06bd a7a1 893d
000002d0: 442b 253c a3f8 7abd fa06 1abd 154e 6e3d
000002e0: a1f4 163d e975 333d 1569 18bd 2e8b a53d
000002f0: 8f2d 08be 5f51 743d 81ea e93d 9a96 de3d
00000300: 070b 573d 62d7 a83d 221e 96bc 6e0d 30bd
00000310: 7123 83bb 0812 ef3d 9554 833c df36 763d
00000320: 5e26 043d 44cd 823d 1929 1f3d 9c1e a9bc
00000330: 667b 1c3d 8043 a23d dc88 49bc d7e6 513d
00000340: 1f0d 933c 2835 1a3c 7de9 29bd 76ef 0a3b
00000350: 16cd cdbb cb69 4abc 07df 4c3d cd1f 273a
00000360: 2347 ca3b 1266 8e3d 4edb 9c3d 0382 51bd
00000370: 71c7 b5bc c926 063d c047 babc 661c b3bd
00000380: 8063 82bd cfb4 d13d 1fdf a6b8 c414 bd3d
00000390: d2c4 d63c c9be c939 f93c 443d be96 973d
000003a0: b723 cc3d c33a 0c3e bab1 6c3d 6179 b53d
000003b0: 0efa 15bc c263 a83d d0e2 2e3d f071 2f3d
000003c0: b59a f2bc 6b82 de3d cece 553d a6a9 2c3c
000003d0: 5d4b a93d 84f5 43bd 928f 333d cd86 2abc
000003e0: 47ee 41bd afe2 593c 2994 c13d 677c 4b3c
000003f0: 6cfa ccba ddc8 023d ead7 eebc 0498 2c3d

encoder.4.bias f4 [64]
0.034695778 0.06052611 0.045217376 -0.061331186 -0.008086822 -0.044747043 0.045514256 0.037248876
-0.060024492 0.032727804 -0.04781744 0.0862347 0.07381076 0.00604728 -0.035577375 0.072560556
-0.033747423 0.10992865 0.07328144 -0.06562599 -0.04473236 -0.012124416 0.018257687 -0.041485593
0.027739141 0.010586315 0.09975597 0.060980085 -0.0713153 -0.07466922 -0.08727155 0.0040333974
0.07268124 0.027882297 0.048352737 -0.04149292 0.05887615 0.04624669 -0.027848655 -0.026281206
-0.10687859 -0.04146215 0.016546672 0.044824354 0.07497623 -0.043628905 0.009656037 0.078620575
0.108760916 0.018786663 0.030665778 0.0066005415 0.03568534 0.02512624 -0.018512692 0.0072976556
-0.082213916 0.025868358 -0.052514445 0.046940707 0.017618738 -0.02938643 -0.034272276 -0.017061282
00000000: 291d 0e3d 3aea 773d db35 393d 6936 7bbd
00000010: 977e 04bc ad48 37bd 286d 3a3d 4792 183d
00000020: 3edc 75bd 970d 063d 38dc 43bd d29b b03d
00000030: 192a 973d 4328 c63b 95b9 11bd a19a 943d
00000040: bd3a 0abd 4622 e13d 9414 963d eb66 86bd
00000050: 4739 37bd 7da5 46bc 2591 953c ccec 29bd
00000060: 323d e33c 3972 2d3c dc4c cc3d 41c6 793d
00000070: c20d 92bd 2dec 98bd 6dbb b2bd 972a 843b
00000080: e7d9 943d 6a69 e43c 850d 463d 7bf4 29bd
00000090: 1e28 713d 2b6d 3d3d dd22 e4bc af4b d7bc
000000a0: 2ae3 dabd 37d4 29bd e38c 873c be99 373d
000000b0: 238d 993d 39b4 32bd 5b34 1e3c d303 a13d
000000c0: 0bbe de3d 7de6 993c cc36 fb3c 5b49 d83b
000000d0: cb2a 123d 8bd5 cd3c eea7 97bc 2c21 ef3b
000000e0: c55f a8bd e1e9 d33c 6319 57bd e644 403d
000000f0: 2c55 903c cfbb f0bc 1661 0cbd 1ac4 8bbc

encoder.6.weight f4 [3, 64]
0.07942309 0.055987854 -0.08290089 -0.012938109 0.22595197 -0.092213176 0.05233211 0.056329355
-0.06073736 0.08688868 -0.08953277 0.07335544 0.023979587 -0.104359575 -0.04501067 0.07238053
0.055846415 0.12728281 -0.039598934 -0.23926942 0.13076404 0.017609656 0.14280078 -0.041999657
0.025615457 -0.075636804 -0.020250963 -0.092543826 0.034886647 -0.0340663 -0.090652764 0.08693075
0.07862682 0.037863076 0.02567813 -0.05160443 0.04102959 0.1087555 0.12195348 -0.10049537
-0.07802312 -0.0744881 -0.10892772 -0.0656014 -0.046877027 0.065305516 -0.046673514 0.0602868
-0.00040402322 0.13806747 -0.14445032 0.061556835 0.06677263 -0.03220929 0.09371769 0.14048822
0.022547785 0.14627934 0.04758763 -0.1915494 -0.025315173 0.1435693 -0.06286677 0.0903781
0.08836291 0.06061665 0.103274845 0.06297892 -0.37279382 -0.057087958 0.05627623 -0.372101
0.035436988 0.03674811 -0.08377481 0.10667488 0.1313919 0.067700095 0.101562425 -0.0021553761
-0.090468645 0.13758476 -0.019811451 -0.08292346 0.12097097 0.09990569 -0.06395916 -0.23731257
0.040695008 0.13657364 -0.05954946 -0.08606846 0.034471843 0.062215474 -0.01759614 -0.021871792
-0.09056901 -0.022576082 -0.035309404 0.06513757 0.1417282 0.10998663 0.025485883 -0.14315595
-0.027978651 -0.020561531 0.05635104 0.019503519 0.07793384 0.05354555 -0.19537076 0.03428731
0.1357688 -0.10393257 0.10840395 -0.1611108 0.08749095 0.018490117 0.033423256 -0.012071074
-0.05436839 -0.017144863 -0.0012904017 -0.3798677 -0.09919195 -0.016033376 -0.025424864 0.01857258
0.14048617 0.093061574 0.090576164 -0.093177974 0.095753886 0.08289744 -0.10451034 -0.099141605
0.13203697 0.068929456 0.02696818 -0.024714846 -0.17359602 -0.10852376 -0.04674013 -0.09971801
-0.04985329 -0.01389883 -0.06507993 -0.12161617 0.12602016 -0.22182998 -0.0204525 -0.1011703
-0.1365616 0.1511013 0.13574226 -0.056884564 -0.023831196 -0.11704621 -0.03523411 -0.0712573
0.06003075 -0.09609699 -0.1073998 -0.031660713 -0.13351092 0.03667903 0.14181983 0.008916302
-0.015910845 0.038630903 0.08549459 -0.15794009 0.12393121 0.046005923 -0.10869408 -0.06954201
0.10273792 0.051738787 -0.0872087 0.005901322 -0.090285964 0.14063518 -0.020983126 -0.0047592106
0.06855024 0.11344679 -0.09352726 0.47492188 0.056331538 0.13005213 -0.15409139 0.07950659
00000000: 93a8 a23d 8553 653d f1c7 a9bd 5dfa 53bc
00000010: f45f 673e 43da bcbd 325a 563d 9cb9 663d
00000020: bdc7 78bd b1f2 b13d f55c b7bd 603b 963d
00000030: d770 c43c 79ba d5bd 1c5d 38bd 3e3c 943d
00000040: 36bf 643d 6d56 023e 7e32 22bd 0b03 75be
00000050: 02e7 053e 2042 903c 5e3a 123e d507 2cbd
00000060: 82d7 d13c 78e7 9abd 59e5 a5bc 9e87 bdbd
00000070: 4de5 0e3d 1b89 0bbd 28a8 b9bd c008 b23d
00000080: 1907 a13d 5016 1b3d f15a d23c 2b5f 53bd
00000090: a50e 283d 34bb de3d bfc2 f93d 84d0 cdbd
000000a0: 96ca 9fbd 388d 98bd 7f15 dfbd 075a 86bd
000000b0: 2002 40bd e6be 853d ba2c 3fbd 4bef 763d
000000c0: 14d3 d3b9 8f61 0d3e c9ea 13be 0523 7c3d
000000d0: 17c0 883d e3ed 03bd 0fef bf3d 25dc 0f3e
000000e0: 22b6 b83c 40ca 153e 3feb 423d 8725 44be
000000f0: c461 cfbc d503 133e 4bc0 80bd 2718 b93d
00000100: 9df7 b43d 2a49 783d c381 d33d 18fb 803d
00000110: d5de bebe 10d5 69bd e781 663d 0684 bebe
00000120: 6026 113d 3085 163d 2192 abbd 5c78 da3d
00000130: 998b 063e 59a6 8a3d f6ff cf3d 3641 0dbb
00000140: a047 b9bd 05e3 0c3e a04b a2bc c6d3 a9bd
00000150: a1bf f73d 5b9b cc3d 05fd 82bd 1102 73be
00000160: cfaf 263d f6d9 0b3e 22ea 73bd a944 b0bd
00000170: 5932 0d3d a7d5 7e3d c825 90bc 792c b3bc
00000180: 3f7c b9bd 7af1 b8bc 98a0 10bd d966 853d
00000190: 3221 113e ac40 e13d c5c7 d03c 7997 12be
000001a0: 7c33 e5bc a870 a8bc 59d0 663d d8c5 9f3c
000001b0: c79b 9f3d 9452 5b3d 460f 48be da70 0c3d
000001c0: fa06 0b3e 99da d4bd e402 de3d 3bfa 24be
000001d0: 752e b33d 9678 973c d3e6 083d c1c5 45bc
000001e0: 64b1 5ebd 6273 8cbc b222 a9ba 057e c2be
000001f0: 2625 cbbd 6d58 83bc ce47 d0bc 8625 983c
00000200: 9bdb 0f3e 1197 be3d ff7f b93d 18d4 bebd
00000210: 9d1a c43d 22c6 a93d 8409 d6bd c10a cbbd
00000220: b334 073e e32a 8d3d 5fec dc3c ca76 cabc
00000230: 28c3 31be b541 debd 9472 3fbd f538 ccbd
00000240: f732 4cbd ebb7 63bc a048 85bd e611 f9bd
00000250: 6e0b 013e 6627 63be 008c a7bc 6032 cfbd
00000260: ced6 0bbe 4dba 1a3e 0500 0b3e caff 68bd
00000270: a439 c3bc ecb5 efbd a451 10bd 59ef 91bd
00000280: cee2 753d 80ce c4bd 6df4 dbbd aaae 01bd
00000290: 16b7 08be c03c 163d 3839 113e ae15 123c
000002a0: 7657 82bc 703b 1e3d ca17 af3d 0cbb 21be
000002b0: a5cf fd3d b570 3c3d 009b debd 0b6c 8ebd
000002c0: 4268 d23d 0dec 533d 7a9a b2bd e05f c13b
000002d0: d9e7 b8bd ab02 103e cee4 abbc 27f3 9bbb
000002e0: 1164 8c3d ca56 e83d 388b bfbd f628 f33e
000002f0: e6bb 663d 632c 053e 22ca 1dbe 5ad4 a23d

encoder.6.bias f4 [3]
0.08041275 -0.10793829 0.09409483
00000000: 71af a43d c00e ddbd cab4 c03d

decoder.0.weight f4 [64, 3]
-0.45624045 0.47287768 -0.14876832 0.3514634 -0.5127356 0.03568435 -0.01498446 0.2268664
0.3981005 0.44429597 0.2894157 -0.33483675 0.5488683 0.55177504 0.40191764 0.2627114
0.3801615 -0.39898 -0.34348747 0.076246396 0.2417159 0.41525534 -0.12045097 -0.049373575
0.17673972 0.39364955 0.33476198 0.26768127 -0.27877468 -0.03319238 -0.12559679 -0.27226835
-0.47887954 0.17749561 -0.5309545 0.1697362 -0.009377184 0.4186683 -0.53369105 0.3535747
-0.04798853 0.32385725 -0.2417843 -0.14932865 -0.014128447 -0.48022726 -0.11931756 -0.34579763
-0.32627591 0.43789408 0.5190503 0.18949361 0.33011296 -0.036866084 0.019860964 0.10032768
-0.18673033 -0.5570558 -0.04370743 -0.533095 -0.01813335 -0.08883745 0.049866598 -0.33065653
-0.44677788 0.25072083 -0.29648155 0.11428102 0.48624912 -0.5071468 0.12860884 0.12269048
0.14349031 0.50838405 0.19481154 0.27580276 0.121799506 -0.68286884 -0.18985835 -0.06606376
-0.28774983 -0.17967954 -0.17007925 -0.21808805 0.12136533 0.13706061 0.55044115 -0.27855998
0.077856064 -0.004673362 0.5806245 0.095190026 -0.3998301 -0.00053851644 -0.44057104 0.59088594
0.3600255 0.21746254 0.61199284 0.3655964 -0.16406007 -0.2631449 0.38499385 -0.3548095
0.5404529 0.54473364 0.17456026 -0.015166063 0.38425398 0.2343389 0.27590835 -0.54592204
-0.37969068 -0.017098606 -0.041153032 0.39981353 -0.21042098 -0.5309476 0.5068377 0.16990192
0.33838224 -0.39024606 -0.20319672 -0.14218774 0.58354837 0.0146766845 0.123031795 0.0063326983
-0.26559368 -0.4944476 -0.06486082 -0.45142037 -0.3017104 0.21980178 -0.35849854 -0.58507997
-0.02722218 0.23143804 -0.40440503 -0.10149233 0.17786239 -0.33338478 0.3919301 -0.30276883
0.18861203 0.19259076 0.375199 -0.43467483 0.1864913 0.10514018 -0.60840887 0.21805443
0.37328026 -0.17305325 -0.22373585 -0.01638717 -0.58126503 -0.2666622 0.54443026 -0.45094055
-0.12345286 0.598462 -0.32535607 -0.24120437 -0.112117216 0.079046234 0.23876603 0.30652955
0.039789133 -0.07598771 -0.07046225 0.3223748 -0.44952795 0.08144619 -0.04737402 -0.06990255
0.36815062 -0.5241393 0.19861156 -0.02944625 -0.23641686 -0.36766872 0.06332469 -0.43572634
-0.49157253 0.34110367 0.554066 -0.24419777 0.12327173 -0.082588285 -0.26215652 -0.055239677
00000000: 5998 e9be 061d f23e b956 18be 03f3 b33e
00000010: a442 03bf c129 123d 6181 75bc aa4f 683e
00000020: d4d3 cb3e c37a e33e 4b2e 943e b96f abbe
00000030: a282 0c3f 2141 0d3f 26c8 cd3e 1c82 863e
00000040: 87a4 c23e 1b47 ccbe 97dd afbe 1227 9c3d
00000050: 5f84 773e 599c d43e 00af f6bd f23b 4abd
00000060: 42fb 343e 6f8c c93e ec65 ab3e 850d 893e
00000070: 8ebb 8ebe bcf4 07bd 729c 00be c266 8bbe
00000080: b32f f5be 69c1 353e a2ec 07bf 54cf 2d3e
00000090: c3a2 19bc b15b d63e fa9f 08bf be07 b53e
000000a0: 9f8f 44bd 9ed0 a53e 4e96 77be 9ce9 18be
000000b0: 007b 67bc 59e0 f5be c45c f4bd 630c b1be
000000c0: a30d a7be a733 e03e 7be0 043f 9d0a 423e
000000d0: 9104 a93e e400 17bd 76b3 a23c 9978 cd3d
000000e0: 3c36 3fbe 359b 0ebf 9006 33bd ea78 08bf
000000f0: 648c 94bc 69f0 b5bd eb40 4c3d d04b a9be
00000100: 12c0 e4be 7b5e 803e 6ecc 97be 2b0c ea3d
00000110: a5f5 f83e 5fd4 01bf 09b2 033e 2545 fb3d
00000120: 20ef 123e 7525 023f ad7c 473e 0536 8d3e
00000130: 0572 f93d 7ed0 2ebf 3a6a 42be 704c 87bd
00000140: f253 93be eafd 37be 4129 2ebe 7952 5fbe
00000150: 638e f83d 9e59 0c3e b6e9 0c3f 6a9f 8ebe
00000160: 0073 9f3d 0023 99bb cfa3 143f fdf2 c23d
00000170: 88b6 ccbe 3a2b 0dba 8792 e1be 4d44 173f
00000180: 4355 b83e 80ae 5e3e 90ab 1c3f 742f bb3e
00000190: 5dff 27be eeba 86be ea1d c53e 97a9 b5be
000001a0: 1f5b 0a3f aa73 0b3f edbf 323e 147b 78bc
000001b0: f0bc c43e 89f6 6f3e dc43 8d3e 8cc1 0bbf
000001c0: d166 c2be 6012 8cbc 1590 28bd 5cb4 cc3e
000001d0: 9978 57be 2fec 07bf 1ec0 013f c5fa 2d3e
000001e0: 7040 ad3e 55ce c7be cd12 50be aa99 11be
000001f0: 6d63 153f 7a76 703c 18f8 fb3d 8682 cf3b
00000200: e5fb 87be 3c28 fdbe c0d5 84bd 9220 e7be
00000210: c979 9abe b813 613e 1f8d b7be cdc7 15bf
00000220: 0d01 dfbc 18fe 6c3e 2d0e cfbe 36db cfbd
00000230: 8f21 363e 69b1 aabe 10ab c83e 8404 9bbe
00000240: 8323 413e 8336 453e 151a c03e b38d debe
00000250: 93f7 3e3e bc53 d73d afc0 1bbf a949 5f3e
00000260: 971e bf3e df34 31be 031b 65be 633e 86bc
00000270: c9cd 14bf f387 88be c85f 0b3f aee1 e6be
00000280: dad4 fcbd ce34 193f 1295 a6be 47fe 76be
00000290: b69d e5bd fee2 a13d 157f 743e 71f1 9c3e
000002a0: eef9 223d 729f 9bbd 834e 90bd 4f0e a53e
000002b0: 8728 e6be 43cd a63d 430b 42bd 1129 8fbd
000002c0: 3d7e bc3e fe2d 06bf d460 4b3e 4339 f1bc
000002d0: 4317 72be 133f bcbe 60b0 813d 8617 dfbe
000002e0: 65af fbbe 24a5 ae3e 45d7 0d3f fb0e 7abe
000002f0: e475 fc3d 0c24 a9bd 6139 86be 0043 62bd

decoder.0.bias f4 [64]
0.33443087 0.03233855 -0.43120062 -0.04359623 -0.58262897 -0.14065422 -0.5915814 -0.20937833
0.26005712 -0.1625648 -0.4619254 0.41256523 0.43459097 0.16387236 -0.15978214 0.22330754
-0.4475509 0.30421543 0.36291265 -0.52453685 0.20160893 -0.26372394 -0.25907043 0.37563667
0.5635072 0.45259547 -0.0062646866 0.43948087 0.020966323 -0.11128053 -0.17507859 -0.20106845
0.3883409 0.5652689 -0.0432968 -0.062491305 0.5335376 -0.43892825 -0.24777636 -0.40787408
0.20171458 0.5567379 0.37553814 -0.34522265 -0.54798925 0.27471218 0.43882105 0.2906365
0.37459558 0.55702037 -0.55295646 0.5568653 0.5010487 -0.036157012 0.59210503 0.29851204
-0.5251306 0.35283488 0.0047437632 0.13930483 0.03736764 0.40178514 0.5998181 -0.1804322
00000000: 863a ab3e 6d75 043d 54c6 dcbe f691 32bd
00000010: 2c27 15bf a907 10be e171 17bf 4667 56be
00000020: 3526 853e 6377 26be 7c81 ecbe c03b d33e
00000030: b582 de3e 28ce 273e ee9d 23be bbaa 643e
00000040: 6425 e5be 20c2 9b3e b0cf b93e 0c48 06bf
00000050: 9272 4e3e d306 87be e1a4 84be 7353 c03e
00000060: 0242 103f 98ba e73e 0048 cdbb a303 e13e
00000070: 91c1 ab3c 0ce7 e3bd cd47 33be e3e4 4dbe
00000080: 9ed4 c63e 76b5 103f fc57 31bd e2f6 7fbd
00000090: ec95 083f 34bb e0be 16b9 7dbe dfd4 d0be
000000a0: 448e 4e3e 6086 0e3f 8946 c03e 06c1 b0be
000000b0: 0649 0cbf 13a7 8c3e 27ad e03e 4fce 943e
000000c0: feca bf3e e398 0e3f 8e8e 0dbf b98e 0e3f
000000d0: ba44 003f 6019 14bd 3294 173f 92d6 983e
000000e0: f66e 06bf c6a6 b43e 9271 9b3b eda5 0e3e
000000f0: cf0e 193d c8b6 cd3e ae8d 193f 38c3 38be

decoder.2.weight f4 [128, 64]
-0.0048798313 0.018396497 0.027912177 0.054309044 -0.105773084 0.022046477 0.0687345 0.108603925
0.0141611155 0.1298858 -0.09919368 0.05489159 -0.01821141 0.079099186 -0.09723787 -0.036313713
-0.10571474 -0.10345756 -0.025114236 0.124618486 0.009088621 -0.023172982 -0.005990836 -0.06254281
0.015290534 -0.048460513 -0.04191625 -0.017051185 0.045854058 -0.05127038 -0.054215457 0.030751169
-0.021791836 0.15521544 0.09731348 0.04798128 -0.08464845 0.06686954 -0.17697692 0.08055312
0.07760914 0.07290167 0.08723487 -0.08585097 -0.053401276 0.12020069 0.008785828 0.044113576
0.0060585295 0.120424315 0.02430074 0.10842728 -0.02486573 -0.034087513 0.074278265 0.043862868
0.1379069 0.084166035 0.0015491687 -0.07931126 0.04703605 0.08124604 0.10927746 -0.09347153
0.09623873 0.12002775 -0.0947593 0.0040195733 -0.032228842 0.059947714 -0.042055935 -0.03085278
0.010039678 -0.08871809 -0.120172724 0.030114196 -0.041503586 0.030373875 0.0014199913 -0.015300323
-0.04150465 0.05960655 0.107805744 0.042008027 0.08191764 -0.12094109 -0.08337262 0.03083603
-0.055811625 0.029415162 0.123256296 0.03019023 0.01375245 -0.007375106 0.071940675 0.038301423
-0.04319381 0.0076748086 -0.058752175 -0.08031206 0.09701266 0.10625498 -0.08229913 -0.059178352
-0.021547154 -0.086398624 -0.06773877 -0.101840094 0.00012038648 -0.1129096 0.11850552 0.081492744
-0.04111527 0.115491934 0.056922898 -0.03182202 0.06864699 0.013377498 -0.042878553 -0.056841757
-0.043168217 0.010007976 0.10460156 -0.10803712 -0.007034125 -0.11459856 -0.038298946 0.11493647
0.09314531 -0.07781418 0.016458482 -0.04570867 -0.0801429 -0.007856265 -0.110207275 0.068046704
-0.11655933 0.011550963 -0.008526757 0.09182879 0.08955653 0.027961612 -0.054297537 0.0120410025
-0.053381383 -0.0475509 -0.055074662 0.02841881 -0.102160126 -0.035039708 -0.016760603 -0.051802322
0.087197214 -0.023816422 -0.087733254 -0.11556193 -0.043302357 -0.11292221 0.034155667 0.09526175
-0.095193475 -0.073464155 -0.050016075 -0.0791439 -0.11141291 -0.077092364 -0.019918516 -0.020596132
-0.052228644 0.04664807 -0.0029605478 0.12209317 -0.09221475 -0.10710837 -0.12421797 -0.056539997
-0.057067335 0.09061323 -0.07901691 -0.048587427 0.096312866 0.055760175 -0.018613905 -0.10049398
0.054975525 0.002319023 -0.026389048 0.07574825 0.05039707 -0.10275063 -0.037944958 0.030036375
-0.09680979 0.019114614 0.12189393 -0.0692492 0.059784397 0.03468196 0.018627122 -0.081719056
-0.017993376 0.0950681 0.02157779 -0.10302697 0.09360248 0.0924536 0.017040461 0.08696607
0.013382688 -0.099445686 -0.07096577 -0.012827337 -0.11334723 -0.091012806 -0.11822614 -0.037881106
0.02986902 -0.11055803 -0.04953991 0.083017096 -0.119065896 -0.06028019 -0.0036886036 0.024188623
-0.014453754 -0.11519699 0.05983989 0.105380386 -0.10016662 -0.10900077 -0.095786825 0.069668725
-0.04097846 -0.06452295 0.07576607 -0.037485197 0.074402526 -0.085559875 0.034374565 0.015716061
-0.11317848 0.039256558 0.11273725 -0.03634718 -0.061595812 0.1018555 0.10068539 0.023279577
-0.10016739 0.031804666 0.1206872 0.089705706 0.001053229 0.124528155 -0.10068017 0.08132549
00000000: fee6 9fbb 40b4 963c 14a8 e43c 2973 5e3d
00000010: 8f9f d8bd d09a b43c acc4 8c3d bc6b de3d
00000020: 0604 683c c800 053e 0e26 cbbd 01d6 603d
00000030: 1830 95bc c1fe a13d a624 c7bd b0bd 14bd
00000040: f880 d8bd 8fe1 d3bd 5fbc cdbc fa37 ff3d
00000050: 70e8 143c 44d5 bdbc c64e c4bb 7216 80bd
00000060: 2685 7a3c 887e 46bd 60b0 2bbd edae 8bbc
00000070: 77d1 3b3d e400 52bd 0711 5ebd e0e9 fb3c
00000080: cb84 b2bc ccf0 1e3e 4a4c c73d 0588 443d
00000090: 2b5c adbd e6f2 883d 7039 35be 09f9 a43d
000000a0: 8af1 9e3d 794d 953d 32a8 b23d a2d2 afbd
000000b0: 4cbb 5abd c82b f63d 6ff2 0f3c 70b0 343d
000000c0: a186 c63b 06a1 f63d 5812 c73c 1f0f de3d
000000d0: 37b3 cbbc 599f 0bbd 341f 983d 8da9 333d
000000e0: 7737 0d3e 3e5f ac3d 7a0d cb3a f16d a2bd
000000f0: e0a8 403d 5364 a63d dccc df3d 006e bfbd
00000100: d018 c53d 1cd1 f53d 2a11 c2bd a0b6 833b
00000110: 6402 04bd bc8b 753d d842 2cbd f8be fcbc
00000120: 767d 243c d4b1 b5bd 1e1d f6bd 0cb2 f63c
00000130: aaff 29bd a2d2 f83c 001f ba3a 35ae 7abc
00000140: c800 2abd ff25 743d 42c9 dc3d 9c10 2c3d
00000150: 70c4 a73d f6af f7bd 44bf aabd d89b fc3c
00000160: bb9a 64bd 11f8 f03c cc6d fc3d 8051 f73c
00000170: f551 613c e0aa f1bb a255 933d f4e1 1c3d
00000180: feeb 30bd f67c fb3b 1fa6 70bd a67a a4bd
00000190: 93ae c63d 369c d93d 728c a8bd 0065 72bd
000001a0: a883 b0bc c3f1 b0bd a0ba 8abd 8a91 d0bd
000001b0: 0078 fc38 263d e7bd 06b3 f23d abe5 a63d
000001c0: 7c68 28bd 0987 ec3d fc27 693d ce57 02bd
000001d0: cb96 8c3d 4b2d 5b3c 6ca1 2fbd e7d2 68bd
000001e0: 28d1 30bd 7ef8 233c 5839 d63d 9142 ddbd
000001f0: 847e e6bb a6b2 eabd 5bdf 1cbd d063 eb3d
00000200: f8c2 be3d 0a5d 9fbd f0d3 863c 0439 3bbd
00000210: f621 a4bd 90b7 00bc 5ab4 e1bd 125c 8b3d
00000220: a8b6 eebd 4040 3d3c d0b3 0bbc bc10 bc3d
00000230: 6a69 b73d c00f e53c 1867 5ebd a047 453c
00000240: 70a6 5abd bcc4 42bd f895 61bd 90ce e83c
00000250: 5439 d1bd cc85 0fbd 884d 89bc ac2e 54bd
00000260: 7494 b23d a81a c3bc 7ead b3bd bcab ecbd
00000270: d05d 31bd c243 e7bd d0e6 0b3d 9818 c33d
00000280: ccf4 c2bd 6074 96bd a8dd 4cbd 3216 a2bd
00000290: 742c e4bd 9ae2 9dbd 282c a3bc 38b9 a8bc
000002a0: b4ed 55bd 0c12 3f3d c005 42bb fc0b fa3d
000002b0: 16db bcbd a25b dbbd fe65 febd 7c96 67bd
000002c0: 70bf 69bd 6e93 b93d 9ed3 a1bd 9c03 47bd
000002d0: ae3f c53d c864 643d 307c 98bc cacf cdbd
000002e0: 042e 613d c0fa 173b d82d d8bc e621 9b3d
000002f0: 286d 4e3d ec6e d2bd 2c6c 1bbd d80e f63c
00000300: 3644 c6bd 4096 9c3c 86a3 f93d 86d2 8dbd
00000310: 7ce0 743d ac0e 0e3d e897 983c 525c a7bd
00000320: d866 93bc 10b3 c23d e8c3 b03c ceff d2bd
00000330: a8b2 bf3d 5058 bd3d 7098 8b3c 441b b23d
00000340: 1043 5b3c 2eaa cbbd 8056 91bd c029 52bc
00000350: 9822 e8bd ec64 babd 8c20 f2bd 3829 1bbd
00000360: e0af f43c 406c e2bd 5cea 4abd de04 aa3d
00000370: d2d8 f3bd 5ce8 76bd 80bc 71bb 3827 c63c
00000380: 70cf 6cbc 66ec ebbd ac1a 753d acd1 d73d
00000390: 2824 cdbd cc3b dfbd e22b c4bd 7aae 8e3d
000003a0: 08d9 27bd 9c24 84bd 3e2b 9b3d 148a 19bd
000003b0: 5a60 983d 043a afbd 58cc 0c3d f8be 803c
000003c0: 1eca e7bd 7ccb 203d cae2 e63d c8e0 14bd
000003d0: e44b 7cbd 9e99 d03d 2434 ce3d d0b4 be3c
000003e0: 9024 cdbd 9c45 023d da2a f73d a0b7 b73d
000003f0: 800c 8a3a 9e08 ff3d 6831 cebd fa8d a63d

decoder.2.bias f4 [128]
0.12253034 -0.07780241 -0.065985456 -0.062749505 -0.09669323 -0.030669488 0.047412287 -0.046491224
-0.04981052 -0.10613731 -0.07211186 -0.104588464 0.11989242 -0.09840644 0.12269753 0.09363647
0.04277032 -0.06599949 0.007543683 0.0957109 -0.024157539 0.114425294 -0.0681339 0.087774895
-0.063442945 0.043834195 0.005233217 0.05121952 -0.07466834 -0.05686049 0.107835524 -0.028986135
-0.06381576 -0.00404892 0.08694962 0.06294398 -0.09054142 -0.067094155 -0.012099524 -0.04383861
-0.045930523 0.050270714 0.020958174 -0.12985732 -0.10751262 0.007426963 -0.13305674 0.14061023
0.13114177 0.04888076 0.11776969 -0.013392433 0.066197485 0.014302444 0.019214105 -0.0344821
-0.099003695 -0.02695941 0.019375397 0.0005467637 0.07873494 0.016131498 0.08133783 -0.09826355
0.06462698 -0.07645397 -0.11917374 -0.10922506 0.034057137 0.07756132 0.021512037 -0.10779274
-0.10821875 0.0077067763 -0.038399976 0.073807 -0.064470485 0.12739025 0.02077629 0.11613083
-0.12819996 -0.0040732366 0.05253712 -0.007689529 0.11542974 0.03484524 -0.07710828 -0.04751064
0.15016177 -0.017549453 -0.023313668 0.10133217 -0.09740125 0.13460141 -0.021084514 -0.09766576
0.07527347 -0.082388155 0.058422703 0.012500633 -0.020459143 0.10215674 -0.08567221 -0.06522747
-0.019829454 -0.07207408 -0.014035976 -0.1250023 0.15135278 -0.05760644 -0.039401803 -0.07700166
0.06218726 -0.0152655775 0.084831774 -0.104982406 -0.049460202 0.11893158 0.07812375 0.0056856573
-0.025713336 0.018440569 0.0065805656 0.0139979 -0.09590684 0.08146894 0.11235874 0.034915872
00000000: 30f1 fa3d df56 9fbd 6223 87bd d082 80bd
00000010: 1a07 c6bd 943e fbbc 6333 423d 956d 3ebd
00000020: 1e06 4cbd 855e d9bd 62af 93bd 7a32 d6bd
00000030: 288a f53d 5189 c9bd d848 fb3d 7ac4 bf3d
00000040: ee2f 2f3d be2a 87bd 0031 f73b 1404 c43d
00000050: 08e6 c5bc cf57 ea3d c989 8bbd 53c3 b33d
00000060: 60ee 81bd 7c8b 333d 687b ab3b 8fcb 513d
00000070: b7eb 98bd 8ce6 68bd dfd8 dc3d 5574 edbc
00000080: d6b1 82bd cdac 84bb a412 b23d c6e8 803d
00000090: c86d b9bd a968 89bd 153d 46bc 1d90 33bd
000000a0: a521 3cbd aae8 4d3d 7ab0 ab3c 51f9 04be
000000b0: 942f dcbd e25d f33b 0740 08be 21fc 0f3e
000000c0: 074a 063e 3137 483d 3c31 f13d ef6b 5bbc
000000d0: 8c92 873d cc54 6a3c e666 9d3c 1a3d 0dbd
000000e0: 73c2 cabd fbd9 dcbc 27b9 9e3c b154 0f3a
000000f0: c93f a13d 3426 843c 7394 a63d 663e c9bd
00000100: 265b 843d e693 9cbd 5d11 f4bd 63b1 dfbd
00000110: 7f7f 0b3d 78d8 9e3d 033a b03c 71c2 dcbd
00000120: cba1 ddbd 2089 fc3b 4b49 1dbd 2028 973d
00000130: 1a09 84bd 9772 023e 0a33 aa3c 00d6 ed3d
00000140: da46 03be c978 85bb 2a31 573d 72f8 fbbb
00000150: 6d66 ec3d e2b9 0e3d f2ea 9dbd 849a 42bd
00000160: 02c4 193e dfc3 8fbc 4efc bebc 3e87 cf3d
00000170: 4e7a c7bd f4d4 093e 6eb9 acbc fc04 c8bd
00000180: fa28 9a3d 1fbb a8bd a54c 6f3d 74cf 4c3c
00000190: ef99 a7bc 8e37 d13d e974 afbd fb95 85bd
000001a0: 6171 a2bc 939b 93bd 26f7 65bc 9a00 00be
000001b0: 39fc 1a3e bbf4 6bbd c963 21bd 0cb3 9dbd
000001c0: 11b8 7e3d 791c 7abc 48bc ad3d 0401 d7bd
000001d0: c896 4abd 6692 f33d 58ff 9f3d c04e ba3b
000001e0: c6a4 d2bc ad10 973c c9a1 d73b 7357 653c
000001f0: ce6a c4bd 30d9 a63d 571c e63d f203 0f3d
