models/latest.pth (torch_old, 343636 bytes, 16 tensors)

encoder.0.weight f4 [256, 4]
00000000: 9ecd 0b3e f4e1 e03e eca1 0a3e 2649 1b3c
00000010: e457 17be eb24 5d3d af12 aebd ed21 00bf
00000020: 5bcc bcbe a2e9 da3e 4b5f a33e a9e8 053f
00000030: ac22 84bd c84d fdbe e18e 2f3e 7cfb 713d
00000040: 58fa 8a3e 54db 6fbe f85f 143f 17fe cfbe
00000050: 75f0 eabe 130d ae3d 7de2 4ebe 763e 9fbe
00000060: c33f b13d 4980 df3e fe37 13be 89dc 48be
00000070: ce43 c63e 5edb 3abe 2bba 29bf c0a0 1bbe
00000080: 1aa0 65be 1a4e a1be 2ed0 7ebe 9b79 87bd
00000090: 7ddf 93be 553a 6d3e 64e9 be3e 0507 293f
000000a0: eeb4 953e 1d98 4fbe 3754 5dbd 9d86 1cbf
000000b0: 782d babd a4ed 11bf 36c3 c83e 23eb 0cbe
000000c0: f6f4 9abd 9b02 913d b1ea 153f e3d4 13be
000000d0: 1867 4cbe 3560 e33e ed2b fdbe 5da8 fbbe
000000e0: 0194 70be e5e2 5abe 0c7b 63be f7dc a43e
000000f0: 57b5 3ebe 10f3 603e ec86 d43e 2845 2abe
00000100: a809 82be ba7f ffbd 1af8 983e 1d4d 573e
00000110: 6831 fa3e 5d94 dabd 0178 3e3d f558 9d3e
00000120: 7443 a83e a01f 4cbe de4b de3d 8c16 043f
00000130: 7c2d 31be c7ea fe3d 71e6 66be dad8 a33e
00000140: 8bdc 013e 7795 18bf 08c9 ba3e 63bc 3c3e
00000150: 318c 3b3e 4cee 9cbe f60c 0b3f 5da2 c9be
00000160: 26bd 3e3e 01e3 553d 4bb4 29bd a52f a13a
00000170: b022 bfbe dc3e 963d feaf b73e 8be1 a53e
00000180: 6de2 8c3e a4d9 85be a2a2 ab3e 04db cabe
00000190: d8be e0bd f310 543e 63e9 86bd ce1d 823e
000001a0: 26a1 e33e 1764 d93e 5dd9 613e 7afd 99bd
000001b0: 6535 e53e a5b0 9d3e 34d3 d23e d149 bb3e
000001c0: e74b de3e 6855 37be 4000 7c3e a7f2 183f
000001d0: ee3f f13e d041 c53d f826 853e f6b3 11be
000001e0: 1fb7 fabe 08f2 3e3e 53f7 263e 8862 da3e
000001f0: f59e b4be 65e4 a1be d2a7 9c3e 7fe3 a93e
00000200: 8536 a83e c824 64be 2a66 b7bd e447 f23e
00000210: 3cca 81be ff49 013f a43a b43e eb4e 6b3e
00000220: e8c9 cabd d52c 0bbf 3bad a53e 2518 a7bd
00000230: cb99 9c3e bba7 e23e 7ed5 17be dddf 07be
00000240: f5f7 f23e 680b 70be 1cf8 883c b253 433e
00000250: b8ea d9be d08d 88be 7422 a4be d3b2 08be
00000260: 1aa2 043b 2c15 a83d 67c6 f53e cf6b 24bf
00000270: 66aa 6c3e f767 eebd 365a 2ebd cd32 9fbe
00000280: b9b5 f73e 23b6 623c a0f6 8b3e ba7d 7c3e
00000290: 6766 a13e 6943 953c fe14 753e 4244 d7bd
000002a0: e3c7 8fbd f111 a93e 2345 19be 4c1e 10bf
000002b0: b15c e03e 21d8 e53c 281a 833e d0ec 9bbe
000002c0: d738 08bd 6d89 68be fd2c dc3c fb9f 0c3f
000002d0: 4176 2c3e a5af 03be 5cc4 c8be cb33 efbe
000002e0: 9f45 193e ccf2 4c3e c591 9cbd dc09 9cbb
000002f0: 2b7e e43e a385 e23e c9fb a5be 6f16 273e
00000300: 4e9c 04bf 9c7a b5be a579 073d 43f9 0cbe
00000310: f1a0 debe d86d 1c3e 439b ba3d c061 803e
00000320: 8651 67be 9faa 9e3e 6605 d4be 84f2 04bf
00000330: c29c 83be 4f05 14be c620 db3e 2a59 e1bc
00000340: 7aac 4bbe 05ad aebe db49 783e 8627 973e
00000350: 1bc9 ba3e c4f6 81be b8d0 f53e df49 ca3d
00000360: 979d 0abf 4619 7d3e 3b10 833e eef4 07be
00000370: 304c 7d3e 421f c0be 8a05 a9be 148c c3bd
00000380: 1773 01bf 45ad 353d 94ed 533e d03b 39bd
00000390: 584e 763e f59f cbbe 1572 693e 59f1 d5be
000003a0: bfba 6a3e 723a b7be ae28 b5be ecec f43a
000003b0: 414a a2be 2bb7 41bd 84c3 043f fad8 dd3e
000003c0: 8727 873e accf c33d f905 41be 8a19 2bbb
000003d0: 3171 fe3e c197 e13e a7ad b03e 9db5 ae3e
000003e0: f735 8bbe 8196 15be 8648 a53d 8698 c53e
000003f0: ac3b e8be 87f1 c3be c69e 43be bcf0 ed3d
0.13652655 0.4392239 0.13538331 0.009477889 -0.14779621 0.053990286 -0.08499657 -0.50051767
-0.3687466 0.42756373 0.3190864 0.52308136 -0.06451926 -0.49473405 0.17144348 0.059077725
0.27144122 -0.23423511 0.57958937 -0.40623543 -0.4588658 0.084985875 -0.20203586 -0.3110234
0.0865474 0.4365256 -0.14376828 -0.19615377 0.38723606 -0.18247744 -0.66299695 -0.1519804
-0.22424355 -0.315049 -0.24884102 -0.06614991 -0.28881446 0.23166783 0.37287438 0.66026336
0.292396 -0.2027287 -0.05403539 -0.61142904 -0.09090704 -0.57003236 0.39211434 -0.13761573
-0.07566254 0.07080575 0.58561236 -0.14436679 -0.19961202 0.44409338 -0.49447575 -0.49151888
-0.23493959 -0.21375616 -0.22214907 0.32199833 -0.18623863 0.21967721 0.41509187 -0.16627944
-0.25397992 -0.12475534 0.29876786 0.2102551 0.4886582 -0.10672829 0.046501163 0.3073193
0.32863963 -0.19933939 0.10854314 0.51596904 -0.17302507 0.12447124 -0.22548844 0.32001382
0.12681787 -0.59603065 0.364815 0.18431239 0.18315198 -0.30650556 0.5431665 -0.39381686
0.18626842 0.05221844 -0.041431706 0.0012297524 -0.37331152 0.07336208 0.3587646 0.32398638
0.275165 -0.2614261 0.33522516 -0.3962022 -0.109739006 0.2070959 -0.06587484 0.25413364
0.44458884 0.42459175 0.22055574 -0.0751905 0.447673 0.30798832 0.4117676 0.36579755
0.43417284 -0.17903674 0.2460947 0.5974526 0.47119087 0.09631693 0.26006293 -0.14228806
-0.48967835 0.18647015 0.16305284 0.42653298 -0.35277525 -0.31619564 0.30596787 0.33181378
0.32854095 -0.22279656 -0.08955033 0.47320473 -0.25349605 0.50503534 0.3520099 0.22979324
-0.09901792 -0.54365283 0.32358727 -0.08158902 0.30586085 0.44268593 -0.14827535 -0.13268991
0.474548 -0.23441851 0.01671987 0.19074896 -0.4256189 -0.26670694 -0.32057536 -0.13349466
0.0020238222 0.08207163 0.4800293 -0.64227 0.23111877 -0.116409235 -0.0425665 -0.31093445
0.4838083 0.01383737 0.27336597 0.24657336 0.3152344 0.01822062 0.23933789 -0.10511066
-0.07020547 0.330215 -0.1496778 -0.5629623 0.43820718 0.02805716 0.25605893 -0.3045411
-0.03325733 -0.22708674 0.02687692 0.5493161 0.16841985 -0.12859972 -0.3921231 -0.46719202
0.14967965 0.20014495 -0.07644991 -0.0047619175 0.4462751 0.44242582 -0.3241866 0.16317151
-0.51801 -0.35445106 0.033074994 -0.13766961 -0.43482164 0.15276277 0.09111645 0.25074577
-0.22589692 0.3098955 -0.4141037 -0.5193255 -0.25705534 -0.1445515 0.42798442 -0.027508337
-0.19890013 -0.34116378 0.24246924 0.2952234 0.36481556 -0.2538358 0.48010802 0.09877371
-0.54146713 0.24716672 0.2559832 -0.13277027 0.24736094 -0.37523848 -0.33012038 -0.09548202
-0.5056624 0.044354696 0.20696098 -0.045223057 0.24053323 -0.39770475 0.22797425 -0.41785696
0.229228 -0.35786778 -0.353826 0.0018686331 -0.31697276 -0.047293823 0.51860833 0.43329602
0.26397344 0.09561095 -0.18849935 -0.0026107752 0.49695733 0.44061092 0.34507486 0.34122935
-0.2718961 -0.14608194 0.080704734 0.3859293 -0.45358026 -0.38270208 -0.19103536 0.11618182

encoder.0.bias f4 [256]
00000000: d099 a1bd e6f7 053f f1db 03be 9694 c63e
00000010: 8010 a33e 7d92 89be 7902 e03d bb5a f3be
00000020: fb9c ff3d b413 b63e 68ca 18bf 5216 603e
00000030: d3e6 813e 7180 08bf 0a93 6cbe 1dd8 3fbb
00000040: 9b64 85be 7ae8 b9be 48c5 c43d 99fd 093f
00000050: ce82 38be 4cea 38be be66 7dbe 36a1 153f
00000060: f991 c5be 5753 c2bd 2a26 bb3e cb8d 01bf
00000070: b046 e0be 30ae 2cbe a236 823d f1e3 51bd
00000080: 0d08 0cbd 455c 1d3e 4344 d43e c3e6 d63e
00000090: 71ff d1bd 1120 a8be 5498 d6be 695e ff3e
000000a0: 2fce 053f 5672 38be 1fdd 75be 7cec 34be
000000b0: 4219 b0be 1e6a a03d 2ef3 98be 1ae7 e63e
000000c0: 3a23 e2be 1e46 8cbe 57b2 033e c992 e1be
000000d0: d231 dfbd 7352 763e 5748 023f 7a8c e13e
000000e0: d4e8 a63c 826f 89be 3c6a 3d3e 20e2 c53d
000000f0: 939e 86be 557f 8ebe a565 1abe 5207 ad3e
00000100: 3ae7 1f3e 12f7 10be a184 abbe 6ba8 0dbf
00000110: 7445 e03d d15b 00bf c27e 9cbd 7ed1 0fbf
00000120: 4109 91be dd75 193f b88c f3be 5018 d9be
00000130: 92e5 8a3d 9dde 853e d394 1bbe 5cad c13d
00000140: 4c90 a7be 7685 8abe ab69 883d 9ea7 e13e
00000150: b48b f3be e6c7 da3e a9f1 c1be a9d3 e3be
00000160: 92be 0c3f 307c 38be 0016 31be e7b9 b63e
00000170: 5458 8d3e 993c 933e c9d3 1c3e b43d b23d
00000180: f8c0 0abf 5afb 84be 1d03 833d a22e 9e3e
00000190: 92ee d13d 1931 fd3e 7678 a3be 63ee 9e3e
000001a0: 9923 29be 9166 fb3e 9db4 9abd ed71 10be
000001b0: b39d d3be 438b 0f3e 9867 27bf 8b26 18be
000001c0: 58f5 a3be 921d 7fbe 0607 9fbd e6af d53e
000001d0: 2808 4bbe 6718 a23e c344 03bc cb94 493e
000001e0: 5a43 c3be b5be e23e cb83 ba3e 2103 d7bd
000001f0: 8c49 06bf 9da0 8bbe c832 2ebf 5fd5 f03c
00000200: 113b dcbe 4ff3 0c3e e8de 3cbe 7345 b53d
00000210: 4973 f6be 9553 68be 3fa3 1e3e ecc8 bc3e
00000220: 84b8 8a3e 8c47 433d dfe7 86bb d360 88be
00000230: b280 06bf d233 55bd 15a1 13be 67d6 16bf
00000240: 9c73 2a3e a5d2 e43c 3126 563e 2a30 eebe
00000250: a639 58be cabd 56bd e1f5 013f 37cc 813c
00000260: 2752 d1be 23c8 b9bd a822 63be b745 c53e
00000270: acd1 4ebe 2a9b 0e3f 8fbd 4a3c ffbe 51be
00000280: 07b2 9abe ae6d 83be d607 f3bd a525 163e
00000290: 4078 cd3e 0ef1 1cbe c8ab cdbc 27ea eb3e
000002a0: 1988 0cbe 6262 3abe a828 e2be ef17 993e
000002b0: 1738 073f 241f 983e 53c7 f73e 9aee 8ebe
000002c0: ff6c 603e b318 df3d d4de dcbe 9bdf a63e
000002d0: cb5d 05bf fa50 5b3e 5a95 f33e 648d 3cbe
000002e0: 5094 d9bc c5a8 1d3e 9070 10be 7e3b bf3d
000002f0: 101e b0be 2e28 ef3d 65e7 67be de01 d23e
00000300: 7857 dc3e 27e6 16be 989c d8be bb3a 14bf
00000310: 91b6 9abe 71b4 b13e 7e45 e73e 83d4 70be
00000320: 82fb e63e 1574 80be f1b2 a1be 1b0e b5bc
00000330: 048c bdbe e0d2 0d3f 2497 2d3e c8f6 493e
00000340: a831 78bd f5cd 75be d9b8 6b3e d636 cdbd
00000350: aa39 abbe 1df4 b33e 1ab9 943e 0846 013f
00000360: 61f1 a53e 331c 9eba e8cb e4be 3cd5 91be
00000370: 385b 51bc 5ae4 00bf 3213 f23d c7e1 b3be
00000380: d214 c1be 76dd fe3e 2edd 7d3e 230e c53e
00000390: 6bfc d6be f062 543e 6161 0d3f d737 a2be
000003a0: 8081 57be ddbd b4be fb56 753e 1ef6 513d
000003b0: e71e e03d 7383 e43e 3927 993e 4def 8cbe
000003c0: cbf0 6fbe 1762 d0be a499 07bf 327a c33e
000003d0: e4ca 2ebf 62c1 dcbc ac78 b3be 0fcd e43d
000003e0: a270 e03e da5d bcbe 4b34 b2be 5d6b 8a3e
000003f0: a4af 183e 6b9c 003f 54be 9dbe db81 4fbe
-0.078906655 0.5233139 -0.1287687 0.38785237 0.31848526 -0.26869574 0.109379716 -0.4753016
0.124811135 0.35561907 -0.5968385 0.21883515 0.25371417 -0.53320986 -0.23102966 -0.00292731
-0.26053318 -0.36310178 0.09607941 0.53902584 -0.18018648 -0.18058127 -0.24746224 0.58449113
-0.3858793 -0.09488552 0.36552554 -0.50606984 -0.4380393 -0.16863322 0.06358077 -0.051242772
-0.034187365 0.1536723 0.4145833 0.41972932 -0.102538 -0.32836965 -0.41913092 0.49876717
0.52267736 -0.18012366 -0.24010132 -0.17668337 -0.3439427 0.0783274 -0.2987303 0.45098191
-0.441675 -0.27397245 0.12861 -0.440573 -0.10898174 0.2405489 0.5089163 0.44052488
0.020374693 -0.26842886 0.18497556 0.096622705 -0.26292858 -0.27831522 -0.15077837 0.33794647
0.1561555 -0.1415675 -0.33499625 -0.5533511 0.10950747 -0.501401 -0.07641365 -0.56179035
-0.28327373 0.5994547 -0.47568297 -0.4240136 0.06782068 0.26146403 -0.1519349 0.09456894
-0.32727277 -0.27054948 0.066607796 0.44073194 -0.47567523 0.42730635 -0.37879685 -0.4449742
0.5497829 -0.18016124 -0.17293549 0.35688707 0.27606452 0.2875717 0.15315165 0.08703175
-0.54200697 -0.25973016 0.06397078 0.30894953 0.10250582 0.4945152 -0.31927842 0.3104125
-0.16517486 0.4910169 -0.075539805 -0.14105959 -0.41331252 0.14017968 -0.65392447 -0.14858453
-0.3202312 -0.24913624 -0.077650115 0.41735762 -0.1982733 0.31659243 -0.008012 0.19685666
-0.38137323 0.44286123 0.36428675 -0.10498644 -0.52455974 -0.27270976 -0.68046236 0.029398618
-0.43013814 0.1376469 -0.18444407 0.08851137 -0.4813483 -0.22688134 0.15491961 0.3687204
0.270939 0.047675654 -0.0041169967 -0.2663637 -0.52540123 -0.052051373 -0.14416917 -0.589209
0.16645664 0.027932474 0.20913006 -0.4652112 -0.21115741 -0.05242709 0.50765806 0.015844448
-0.4088299 -0.09071376 -0.22181189 0.3852975 -0.20197171 0.5570551 0.012374296 -0.20483015
-0.3021395 -0.25669616 -0.11866729 0.14662798 0.40130806 -0.1532633 -0.025106326 0.46077082
-0.13723792 -0.18201593 -0.44171643 0.29901072 0.5281996 0.29711258 0.4839426 -0.27916414
0.21916579 0.10893383 -0.43138754 0.32592472 -0.5209624 0.21417609 0.47574884 -0.18413311
-0.026559979 0.15396412 -0.14105439 0.09337519 -0.34397936 0.116775855 -0.22646864 0.4101705
0.43035483 -0.14736234 -0.42306972 -0.57902116 -0.30217412 0.34707978 0.45170206 -0.23518567
0.4511376 -0.25088564 -0.31581834 -0.022101453 -0.37020886 0.55399895 0.16952187 0.19723046
-0.06059423 -0.24004348 0.23019733 -0.10020225 -0.33442432 0.3514718 0.2904747 0.50497484
0.3241072 -0.0012062847 -0.44686818 -0.28482997 -0.012778096 -0.50348437 0.118200675 -0.35133192
-0.37711197 0.49778336 0.24791405 0.38487348 -0.41989455 0.20740867 0.55226713 -0.31683227
-0.21045494 -0.35301104 0.23958962 0.051260106 0.10943394 0.44631538 0.29912737 -0.27526322
-0.23431699 -0.40699837 -0.5296881 0.38179165 -0.68278337 -0.02694768 -0.35053003 0.11171924
0.43835932 -0.36790353 -0.3480552 0.27035037 0.14910752 0.50238675 -0.3080927 -0.2026438

encoder.2.weight f4 [128, 256]
00000000: 7ed9 a93d 94ec 963c 61f6 d0bc ef54 573c
00000010: 9a6a c7bc 82b1 f23b 34b6 813d e567 03bd
00000020: 4574 8fbc 2302 07bd f598 16bd 3552 25bd
00000030: 0a4f 193c e5d8 713d b01f adbb 4ad8 6e3d
00000040: 2ead bfbc 6e5b 303c fbfd 02bd 99f5 b93c
00000050: df63 4ebc 4d97 613d 2cb2 a03d 13bf 963c
00000060: 6f01 103c 4832 373d bffe 503c 72e7 3a3c
00000070: 8d82 86bd 6f2d a23d 339e c73c 03de 373d
00000080: c662 3f3d 95dc 953d dd35 aebc eef5 14bb
00000090: 59ce fcbc 295a e63b 9ad8 44bd 964d 04bd
000000a0: 00c8 9d3d b44c 853d e475 82bd f3f1 e2bb
000000b0: 4ff1 edbc e4a7 05bd 4bca 963d c177 913c
000000c0: a365 5b3d 7a64 5ebd 8247 b33c 5485 65bd
000000d0: c9d4 c5bc ca73 143d 2fcf a53c 3332 9b3d
000000e0: 9c54 083c ce43 49bd 3bfb 423d 106b 67bc
000000f0: 5387 783d fd67 94bc 041e 35bd 43a7 1e3d
00000100: 36d1 f93c 284a 4a3c bfbf 0ebd 7d80 3b3d
00000110: e391 a23d 70ca 2b3c ef6f 353c 2597 b63d
00000120: eddd 6b3d 517b 623d 542f 91bd b344 da3c
00000130: 3168 283d 8bfd 86bc bcc9 983c 1cc9 fcbb
00000140: d757 64bd 5820 94bd 6390 093d 8762 133b
00000150: 6563 89bd fa92 033d d85d ad3d 8527 ca3c
00000160: baa6 203d 03c1 85bd 3083 643c 22a0 903c
00000170: da91 273d 37dc 9c3d e3d1 b03c 698c 64bc
00000180: 31aa 493d f34b 36bc b10f 3abd ed45 f2bc
00000190: bea2 bebc 0f25 db3b dec8 edbc 1494 09bd
000001a0: 52ea a5bc 353f 083d 093b 33bc 1cbb 54bd
000001b0: b9c9 97bc 179e 7b3d df23 753d 056d f53c
000001c0: c2ee 5c3d 05ea 47bd a0fe ebbc da99 7d3d
000001d0: 6684 8dbc 1e16 c83d 75aa 17bd 1921 053d
000001e0: a1cf 3c3d ad0d b4ba 59ef 5ebc 0bba 5ebd
000001f0: 90fb 96bc d7e2 2dbc 5978 aa3d 4380 1f3b
00000200: 5e5e cebc b34e babc 0085 90bc f29f 033d
00000210: 6c1d dbbd 5df5 983c c7f3 393c 3fea f7bc
00000220: 9f98 8b3a 8439 fbbc 6974 07bc b5a6 37bd
00000230: fd74 23bd 85ef 5e3a 7528 b4bc 4047 bf3d
00000240: 02de 91bc ed47 1e3d 2877 903c 0265 09bc
00000250: 8090 7d3d ef3e 69bd f17f bfbb e696 423d
00000260: f08c 1c3d 53fc 063d 7a91 603d bd48 903c
00000270: aa80 adbc 6e5b 16bc 6dca 143d 0fcf 273d
00000280: 883f 1d3c 806b fbbd 147f 8b3c fe81 113d
00000290: b2e1 7e3d a8e5 dc3c ca96 2bbd 9453 dabc
000002a0: bd9d a33a a734 203d 3d49 513b 80a5 8a3c
000002b0: adae ac3c b950 133d e73a 8cbb caa1 8cbc
000002c0: 2e72 b5bc fd9f 343d 09ef 9e3d ec19 c13d
000002d0: 35c2 923d 37b8 273d 9c59 203d 53a3 643d
000002e0: 41c8 cc3c e964 0c3d 0e49 c43b 865a 063d
000002f0: b878 f2bc e314 a63c f45b 603d 3912 203d
00000300: 0dd8 d7b9 3ac7 833d 721b 61bd a302 f73d
00000310: 9be2 23ba 9acd 3f3c ca50 c83b 76a7 88bc
00000320: 8238 183d 7bd4 d53c 68d8 0e3d 9e42 153d
00000330: 887b 22bd c9a3 8d3d 71c9 913d 305a d1bc
00000340: 97cb 9c3c 022b 26bd 3e68 ba3b febf 7cbd
00000350: 0c64 5f39 976c 943b e6da 44bb 0ba7 7a3c
00000360: 3e6c c2bc 5792 ad3c ab9a 763d e948 00bd
00000370: 8d23 ddbc faef ef3c 3e29 34bd 4e22 82bc
00000380: 5f92 823a a547 a7bc bc2f ec3c a3b6 273d
00000390: e026 43bd b75d f33c ed05 8b3d 687e 2abd
000003a0: ceec 70bd f94b 003e 9d58 f8b8 6e57 ddbb
000003b0: 0668 723d 5327 0ebc 9635 01bd 65a1 303c
000003c0: 4b9b 1c3d d07b a23d eec7 9b3c 0597 1fbd
000003d0: b422 2a3e 62bf 803c c745 f2bc 5680 303d
000003e0: fcf5 84bc 5c37 c13d 766b 243d e6cb 25bc
000003f0: efa4 333d 13b9 6a3d 8837 853c 5286 8a3c
0.082934365 0.018423356 -0.025508108 0.013142808 -0.024342824 0.0074064145 0.063335806 -0.032081503
-0.017511496 -0.032961022 -0.036766965 -0.0403616 0.009357223 0.059044737 -0.0052833185 0.058311738
-0.023398008 0.010763986 -0.031980496 0.022700118 -0.012597053 0.055075932 0.078464836 0.018401658
0.008789404 0.044725686 0.012756049 0.01140772 -0.06567869 0.07918822 0.024367427 0.04488946
0.046725057 0.07317463 -0.021265918 -0.0022729593 -0.030860113 0.007029791 -0.04805813 -0.032300554
0.077041626 0.065087706 -0.06370142 -0.0069258153 -0.029045729 -0.032630816 0.07362803 0.017757298
0.053563725 -0.05429504 0.021884684 -0.056035355 -0.024149315 0.036243238 0.020240394 0.07577934
0.008320954 -0.04913693 0.047602873 -0.014124647 0.06067593 -0.018115992 -0.04421808 0.038733732
0.030495267 0.012346782 -0.034850832 0.045776833 0.07937982 0.010485277 0.01107405 0.08915547
0.05758469 0.055293385 -0.07089105 0.026644086 0.04111499 -0.01647832 0.018650882 -0.007714404
-0.055747833 -0.072327316 0.033584964 0.0022489147 -0.06708411 0.03212259 0.08465165 0.024677048
0.039221503 -0.06530955 0.013947293 0.017654482 0.04091058 0.0765919 0.021584457 -0.013949492
0.049234573 -0.011126506 -0.04542512 -0.029574359 -0.02327096 0.0066877673 -0.029026445 -0.033588484
-0.020253334 0.033263404 -0.010939368 -0.051936254 -0.018528806 0.061430063 0.059848662 0.029959211
0.053938635 -0.048807163 -0.028807938 0.061914302 -0.017275047 0.097698435 -0.037027795 0.032502268
0.046096448 -0.0013736986 -0.01360687 -0.054376643 -0.018430501 -0.010613165 0.08323736 0.0024337925
-0.025191482 -0.022742605 -0.017641544 0.032134958 -0.10698971 0.018671686 0.011349625 -0.030263064
0.0010650343 -0.030667074 -0.0082675 -0.04483672 -0.03990649 0.0008504319 -0.021991948 0.09339762
-0.017806057 0.038642813 0.017634943 -0.008385899 0.061905384 -0.056944784 -0.005844109 0.04750719
0.038220346 0.03295548 0.054826237 0.01761281 -0.021179516 -0.009177072 0.03632586 0.04096895
0.009597667 -0.122763634 0.017028369 0.03552436 0.06222696 0.026964977 -0.04189185 -0.026651181
0.0012482923 0.039112713 0.0031934523 0.01692462 0.021079386 0.035965655 -0.0042794826 -0.01716699
-0.022149172 0.04409789 0.07760436 0.09428772 0.07165948 0.040947165 0.03914796 0.05581982
0.024997832 0.034275923 0.005990154 0.032801174 -0.029598579 0.020273631 0.054775193 0.03907988
-0.00041168966 0.06434484 -0.054957815 0.1206105 -0.00062517234 0.011706734 0.0061131464 -0.016681414
0.037163265 0.026102295 0.03487435 0.036440484 -0.03966859 0.06916005 0.071185 -0.0255557
0.019140048 -0.04056836 0.005688696 -0.061706536 0.00021304208 0.0045295465 -0.00300377 0.015298615
-0.023733255 0.021187944 0.060206097 -0.031319533 -0.026994491 0.029289234 -0.043984644 -0.015885498
0.0009961835 -0.020419905 0.028831355 0.04094566 -0.047644496 0.029707773 0.0678824 -0.041624457
-0.058819585 0.12528981 -0.00011842067 -0.006754807 0.059181236 -0.008676368 -0.031545244 0.010780667
0.038234036 0.079337716 0.019016232 -0.038962383 0.166148 0.015716258 -0.029574288 0.04309114
-0.016230576 0.09434387 0.040141545 -0.010119414 0.043858465 0.057305407 0.01626183 0.016909752

encoder.2.bias f4 [128]
00000000: c8cc e33c 2649 61bd b3a6 83bd 72da a7bc
00000010: e040 54bc bfe8 88bd 59f9 f1bc e1fd a4bb
00000020: 3c24 35bd 76db 183d 3121 003d 2e28 893d
00000030: e586 4f3c e7a5 0d3b d770 5a3d 1946 73bd
00000040: 979b 5a3b 27e9 a23b be79 61bd 981a 5d3d
00000050: 6497 663c 647a b63d b94e 963c fe68 6f3d
00000060: 9578 db3c 727a 6b3d 5720 97bb d717 cb3c
00000070: 5150 ac3c 4758 81bc fdd1 e4bc 0257 a13d
00000080: 8318 653c b318 f7bb 2462 f73c a619 ff3c
00000090: 6511 68bb f16f cdbc 849e 8cbc f79e 2ebd
000000a0: 85fa b53d 08ca 58bc f4fe 6cb9 fa12 bc3c
000000b0: 92ad 683d f104 483d 54ee 3e3d 3ae3 003d
000000c0: d263 ff3c 9bfe 883d 2d54 86bb 2921 4a3c
000000d0: e8e0 1b3d 3626 b33c 1441 273d 364d 103b
000000e0: 0e2d ebbc 9bc3 ab3c e5ea 1d3d d7c2 9b3d
000000f0: e099 6c3b e24e 533d 5a41 16bd dbfd 8fbc
00000100: 9e5f e4bc 73e3 b33d 91c2 993d 3f59 943c
00000110: b6f0 a73d b1f4 1e3d bde4 f2bc c1b6 ba3d
00000120: c124 fe3c 7475 f33c 7595 3b3d 98a4 c13d
00000130: c58d ad3d 536d e0bc c2df 573d 0f99 4a3d
00000140: f67a aebc 9676 373d da9c 9cbd e8df 89bd
00000150: b69c 923d e08d 883d 33de 813d 586d 98bb
00000160: 9853 c03d c33e 563c c8b7 943d 074b 553d
00000170: 20ed 993d c76b 983d d6b7 adbc 6470 a1bc
00000180: 5f1d 83bd cc0b 05bd 5feb 2f3d 5a5a 333d
00000190: 94a9 4c3d beea 1c3d 70f0 bc3c f718 053c
000001a0: 2917 bb3d 7344 0fbe ab88 153b d542 993d
000001b0: 6f01 223c 2dac 2f3d 4b06 a93d 0045 41bc
000001c0: 46f7 44bb 2d5b b43d a736 f13c 8531 0739
000001d0: 0231 953b 312d 283d a3d3 d53d 1525 0e3d
000001e0: 7cf9 32bc 8a80 c33d fbf7 263a eef8 d33c
000001f0: ddd9 843d 43af 6f3d 3f32 b8bc 4e48 c03d
0.027807608 -0.0550014 -0.0642828 -0.020489905 -0.0129549205 -0.06685018 -0.029537844 -0.0050351475
-0.04422401 0.03731867 0.031281654 0.06697117 0.012666439 0.0021613778 0.05333027 -0.059393022
0.00333569 0.0049716416 -0.055047743 0.05398044 0.01407418 0.08910063 0.018348085 0.058449738
0.026790896 0.05748982 -0.0046120095 0.024791641 0.021034392 -0.015789164 -0.027932161 0.078779235
0.013982895 -0.007540786 0.030198164 0.03114016 -0.0035410759 -0.025077792 -0.01716543 -0.04263207
0.088856734 -0.013231762 -0.00022601691 0.022958267 0.056806155 0.048832837 0.046614006 0.0314667
0.031175528 0.06689187 -0.00409939 0.012337008 0.038056284 0.021868806 0.040833548 0.0022018678
-0.028708007 0.020967295 0.03855409 0.07605522 0.0036102459 0.0515889 -0.036683418 -0.017577102
-0.027877625 0.08783617 0.07507814 0.018108962 0.08200209 0.038807575 -0.029650087 0.09116889
0.031023385 0.029719092 0.04579683 0.09455222 0.08474306 -0.02739588 0.052703626 0.049462374
-0.021298867 0.044790827 -0.076471046 -0.0673216 0.071587965 0.066676855 0.06341209 -0.0046517067
0.09390944 0.013076487 0.07261616 0.052073505 0.07515931 0.07442432 -0.021205824 -0.019706912
-0.064020865 -0.032481954 0.042949077 0.043787338 0.04996641 0.038309805 0.023063868 0.008123628
0.09135277 -0.13990955 0.0022817056 0.0748345 0.009888037 0.04288881 0.082531534 -0.011796236
-0.0030054613 0.08806453 0.029445006 0.00012893051 0.0045529613 0.041058723 0.10440757 0.034703333
-0.0109237395 0.09546001 0.00063693494 0.025875535 0.064868666 0.058516752 -0.022484897 0.09388791

encoder.4.weight f4 [64, 128]
00000000: a97f ea3d 7dea 2dbe 284b 10be 4f58 6bbd
00000010: 3790 1f3c 1e45 de3d fa74 49bd 853f b03d
00000020: 25ec 58bd 62e8 f5bc b119 523b 431c 1f3d
00000030: 0470 35bd 251d 923d ac3a b33d abea c8bc
00000040: 48af f43d 131f f4bc 35b5 cdbe ef82 f33c
00000050: 2ef3 c33d 544a e03d f74a e03b 301c 243d
00000060: 6197 cd3c 055f e43d 397f 49bd 9100 2bbd
00000070: cabc 2b3c 433e cb3d 2b98 473e 2da9 3b3d
00000080: 2a37 84bc 23e3 d8bd 8e40 cfbc c46c b3bd
00000090: 1f5d e03b 9d3a a3bc ceac 5ebd c529 c9bc
000000a0: 040e e43d b8bb 993d 794b 453c df47 c93d
000000b0: a1df fe3d 72b2 0a3d 652e 203d 371e 803d
000000c0: d583 97bd ac4e 273d c80a debc 20c3 373c
000000d0: b272 10bc f4f6 b03c ea57 5f3d 0eda 4a3d
000000e0: 0002 9c3c aaf0 dabc c26b a03d e3d9 6e3d
000000f0: bde4 42bd 2e81 5e3d f57a f13d d3c0 853c
00000100: 0215 813d 3251 203d 65b2 f23b 4d7b 793d
00000110: ce00 8c3c 3411 9a3d 72e8 953d a136 e53d
00000120: f3a1 ff3d 6abc 813d a0d0 783d 7db2 a43d
00000130: 8775 0b3d cd95 02bd d92e d03d ce74 7b3d
00000140: 1ea5 0fbc 518a 7d3e 2baf 49be f6f7 96bc
00000150: ab4d 36bd f26f be3d 7d3d 163b 9507 d93c
00000160: 8fed 09bd 20e7 c13d 227d 683c 189a 1dbd
00000170: 9e6f ee3d a11c 8abc 0e48 3bbd 15dc 91bd
00000180: ffef 79bc d205 21bc 8d1f 29bd c85a fb3c
00000190: f9de 0b3e 31e4 3abd c95c 0dbd 30e9 3ebc
000001a0: 4013 76bd 60a7 123e c387 33bd 6c33 423b
000001b0: fbc3 9dbd d7ab a5bc e774 8f3d 9f1f 56bd
000001c0: 8731 4c3d a07a 113d 24fe dc3d 1acc bf3d
000001d0: 2790 a1bc d2be 66bc 3f4d ac3d fc1a 233d
000001e0: 57ba 7c3d 78ae a13d c9bb a93d b514 a8bc
000001f0: 5316 b7bc 8d5d b23d 1238 c13d 6fb2 e7bc
00000200: 8e4b bc3d 8caa 45be 3c08 acbd 2404 9bbd
00000210: a3f5 16bd c28b 9e3d efec 1d3d 7c27 6e3d
00000220: 82e3 ae3d fbf4 91bd 526c f73c fc61 513c
00000230: 59c8 cbbb 676f 5c3b 68fb 023d ca4f df3c
00000240: afa6 e7bc 5cb0 593d af84 c2be a5dd 0f3c
00000250: a77d 68bd 316e 4e3d f446 1c3d fd15 f5bc
00000260: a9d7 9e3d 00fa 723d 1286 32ba 283e 6ebc
00000270: 7474 933c 405f 3b3d 4690 f63c 25fe bc3d
00000280: 966a e43d 4714 a2bd dca9 b6bb c028 103d
00000290: 127f d13d afc6 c13c 2056 8fbb 31ee b53b
000002a0: 054f e13d 2038 fdbc 6f83 41bc 86a0 413d
000002b0: 1e6e 823d bab3 c53c ea7c f73c 51ed 693d
000002c0: 88b5 a23c ee70 2e3d cd4f f5bc a6cc 873d
000002d0: eed2 ef3b fa84 78bd 6dd9 13bd dc31 5e3d
000002e0: e062 123d e2af 213d 0bd3 27bd 8c85 a23d
000002f0: 5493 03be 9054 703d fc31 e23d 32f0 db3d
00000300: 070b 573d 86e6 a43d a4a5 9bbc 7565 2ebd
00000310: 8d82 a3bb d860 eb3d ff4b 253c a2ce 653d
00000320: d93d f43c 666f 873d a30b 223d 162b e0bc
00000330: 74bd 1e3d 8043 a23d 31ed d1bb ff61 4c3d
00000340: 0d4e 963c 8215 66bc c0b7 e1bd 9271 483c
00000350: 4385 b4bb 9eec 52bc 26dc 3e3d f04c 01bb
00000360: 6535 e43b 45a4 8d3d ae05 913d 0382 51bd
00000370: ccb8 96bc bb22 f53c 0a28 d0bc be62 9dbd
00000380: a0ab 87bd 5487 c93d 7bbb 573b 89ae bf3d
00000390: 1e0e f43c 12e9 b83a 6f19 373d 2837 8d3d
000003a0: 1bfe cb3d 76da 0f3e 1788 6b3d ae8f b13d
000003b0: 11cf bbbb d445 b33d dc91 393d 1afe 383d
000003c0: 8965 fcbc 8a98 da3d d21f 543d 15cf 2b3c
000003d0: b4d3 ab3d 1545 4ebd 8da8 253d 2618 16bc
000003e0: b53c 6abd 906b 293c bf8a bc3d bdea 0a3c
000003f0: 6875 88bb 5242 fc3c cf7c fabc 6001 043d
0.114501305 -0.16983981 -0.1409117 -0.057457265 0.009738973 0.10853027 -0.049183823 0.086058654
-0.05295958 -0.030018035 0.003205877 0.03884531 -0.04429628 0.07134465 0.08751425 -0.02452596
0.11947495 -0.029799974 -0.40177312 0.02972552 0.09567867 0.10951677 0.006844874 0.040065944
0.025096597 0.11150936 -0.049193595 -0.041748587 0.010482023 0.09923985 0.19491641 0.045815635
-0.016139586 -0.10590198 -0.025299337 -0.0876098 0.0068470384 -0.01992541 -0.05436402 -0.02455605
0.11135486 0.07506508 0.01204192 0.098281614 0.124449976 0.033861585 0.039106745 0.06255763
-0.07398192 0.04084651 -0.02710475 0.011215955 -0.008816408 0.021602131 0.0545272 0.04952436
0.019043922 -0.026726086 0.07833053 0.05831326 -0.047581423 0.054322414 0.1179103 0.016327297
0.06302835 0.039139934 0.00740652 0.060908604 0.017090227 0.075228125 0.07319726 0.1119206
0.12482061 0.06334765 0.060745835 0.080418564 0.03404763 -0.031881142 0.101651855 0.06139069
-0.008767394 0.24759795 -0.19695728 -0.018428784 -0.044507664 0.092986956 0.0022924833 0.026492873
-0.03367382 0.09467912 0.01418999 -0.038477033 0.11642383 -0.016859354 -0.045723014 -0.071220554
-0.015254973 -0.009828048 -0.041289855 0.030682936 0.13659276 -0.045627777 -0.034512315 -0.011652276
-0.060076952 0.14321661 -0.043830644 0.00296327 -0.07703396 -0.020223541 0.07004719 -0.05227625
0.04985192 0.035517335 0.10790661 0.09365101 -0.019722058 -0.014083581 0.08413171 0.039820656
0.061701145 0.078946054 0.0828777 -0.020517686 -0.022349512 0.0870925 0.09434523 -0.028283326
0.091940984 -0.1930334 -0.08400008 -0.07569149 -0.03685535 0.077415004 0.038556036 0.058143124
0.085394874 -0.071268044 0.030203018 0.012779709 -0.0062189517 0.0033635737 0.03197804 0.027259726
-0.028277723 0.053146705 -0.37991855 0.0087808715 -0.056760456 0.050398055 0.038153604 -0.029917711
0.07755978 0.05932045 -0.0006810139 -0.014541186 0.017999865 0.045745134 0.030098092 0.09228162
0.11153142 -0.07914024 -0.005574448 0.035195112 0.10229315 0.02365431 -0.0043742806 0.0055520763
0.110014 -0.030910552 -0.011811121 0.047272228 0.063686594 0.024133552 0.03021093 0.05711109
0.019861951 0.042588167 -0.029945279 0.066308305 0.007318846 -0.06067369 -0.036096025 0.05424677
0.035738826 0.039474376 -0.04097275 0.07935628 -0.1284917 0.058674395 0.1104469 0.10739173
0.05250075 0.08051781 -0.018999882 -0.042577226 -0.004989928 0.11493081 0.01008892 0.056105264
0.029814648 0.066130444 0.03956188 -0.027364295 0.038754895 0.07923031 -0.0064064492 0.049898144
0.018347764 -0.014043214 -0.11021376 0.0122341085 -0.00550905 -0.012873797 0.04659667 -0.0019729696
0.006964373 0.069160976 0.070811614 -0.05114938 -0.018398665 0.029923787 -0.025409717 -0.07684849
-0.06624532 0.09840265 0.0032918144 0.09359462 0.029791888 0.0014107546 0.04470199 0.06895286
0.09960576 0.1404818 0.057502832 0.08669983 -0.0057314713 0.08753553 0.045305118 0.045164205
-0.030810134 0.10673626 0.05178816 0.010486384 0.083899885 -0.05035885 0.040443946 -0.009161031
-0.0571868 0.010340586 0.09206151 0.0084788175 -0.0041643865 0.030793343 -0.030577092 0.032227874

encoder.4.bias f4 [64]
00000000: fe38 0a3d bca7 733d 2e88 3c3d b5f5 7dbd
00000010: b666 1bbc ad48 37bd 71fc f93c 3485 793d
00000020: c64c 8dbd 6d2c 073d 1db1 41bd 7bf3 ae3d
00000030: 35e3 983d 5640 6e3b 0a95 17bd 7bd5 943d
00000040: 3475 efbc 1faf e23d 9414 963d d81c a1bd
00000050: 3fca 35bd 8f1c 033d 4f79 c53c fcd6 1cbd
00000060: 644b d73c eaa9 fa3b de23 cb3d e35c 573d
00000070: 1d0c 95bd 1e45 a9bd 9799 b3bd 0449 da3b
00000080: 1f7f 963d fbbc f83c e019 323d 689c 30bd
00000090: aae3 703d 246d 403d 3875 0bbd 6fd6 cabc
000000a0: d032 edbd c313 4bbd ee08 503c 61c1 e23c
000000b0: 8b18 8f3d 39b4 32bd 4b8b e03b 0dc9 a23d
000000c0: d26a dc3d a09e a53c f181 ec3c 3ac2 103c
000000d0: 089c d23c 47c0 b93c c9f2 84bc ebc5 143c
000000e0: fd15 adbd e941 bf3c a1ef 44bd 972a 1a3d
000000f0: 458d 9d3c 39a5 e8bc f5d5 e5bc a57a a3bc
0.03374576 0.059486136 0.04602831 -0.062001903 -0.009484937 -0.044747043 0.030515881 0.060918048
-0.06899409 0.033001352 -0.04728805 0.08542534 0.07465211 0.0036354265 -0.03700737 0.07267281
-0.029230691 0.11068558 0.07328144 -0.0786683 -0.04438233 0.032009657 0.024105696 -0.038290963
0.026281066 0.00764965 0.099189505 0.052578818 -0.07277701 -0.08265136 -0.08769529 0.006661536
0.07348465 0.03036355 0.043481708 -0.04311791 0.058810867 0.046979085 -0.034047335 -0.024760453
-0.11581957 -0.049579393 0.0126974415 0.0276801 0.06987103 -0.043628905 0.0068525425 0.07948504
0.10762562 0.02021724 0.028870555 0.00883537 0.025709167 0.022674693 -0.01622905 0.00908039
-0.084514596 0.023346858 -0.04808009 0.037638273 0.019232402 -0.028399097 -0.028056124 -0.019955942

encoder.6.weight f4 [3, 64]
00000000: e2be a33d b4b0 553d bde0 07be 1309 afbc
00000010: 118a 7b3e 43da bcbd 43cb 763d fa8f 713e
00000020: 45b8 7ebd cae4 a13d 06cf c0bd 08e8 9f3d
00000030: e8d1 183d 245c e5bd 8d57 3fbd 77f4 ab3d
00000040: d10a 633d 64e9 ee3d 7e32 22bd 1ae0 99be
00000050: ca65 f83d f09b c33d 71ff 143e 2708 eb3d
00000060: 8e66 283d 101e 9ebd 9c86 bdbc 0341 a4bd
00000070: fa96 1e3d 5a95 b8bc 939e b9bd 5a86 ac3d
00000080: 6233 8f3d c227 dc3c 71b3 5f3c c8e4 73bd
00000090: 5b3b 133d 1e95 d43d 4b00 eb3d efef bcbd
000000a0: 1e59 7ebe 98a3 86bd 50f0 ddbd b3ba 64bd
000000b0: 9472 43bd e6be 853d 6d72 15bc 60aa 393d
000000c0: 6603 50ba 3363 083e be13 1bbe b594 8a3d
000000d0: 34ad 793d 15cd 04bd 1de3 af3d 9df1 113e
000000e0: a193 b53c bc2b 133e 0863 893d d08a 4ebe
000000f0: 2911 ccbc ad91 0c3e 7db5 83bd f07e a33d
00000100: 46c8 b63d 1e34 793d 66f8 2c3e 46ff 763d
00000110: 547d f1be 10d5 69bd ddbf 0a3e 2330 19bf
00000120: bc2c 1a3d 67aa 123d 857e a7bd 4794 ee3d
00000130: 8435 163e 00ed b13d 2dc8 cc3d 2d1e 273c
00000140: 0300 bfbd 78a7 0d3e a04b a2bc b445 2ebe
00000150: cddd f63d 58a0 683e 7b1a 84bd 3920 c4be
00000160: f594 723d 00d1 0b3e ecce 6ebd f1df c1bd
00000170: 980c 0f3d 0819 5c3d 2bbf 8fbc 4e51 bfbc
00000180: 420b b5bd 6bd2 92bc ad68 2ebd 97e1 833d
00000190: 4167 123e e6ba e03d e351 c23c 1d3b 1cbe
000001a0: 251c c6bc bce5 89bc cd82 613d 6162 493c
000001b0: 32db a13d 9452 5b3d 0cac 44be 7785 0f3d
000001c0: 6f39 0a3e 10f3 d6bd e2e8 d63d 0726 31be
000001d0: 2326 b53d 7301 9e3c cdf2 ff3c ecc5 44bc
000001e0: 926e 5bbd d345 9abc 491d b23c 3887 bdbe
000001f0: 5735 dfbd 31fd 80bc a7e5 debc addc a63c
00000200: 7db1 113e f94c c13d f4b2 cc3d 40c3 bfbd
00000210: b334 fc3d 22c6 a93d a8cf 2abe 1b0b 64be
00000220: 9f69 0e3e 05f8 953d 31fa 043d b312 0abd
00000230: cae8 46be 00ef f1bd 4c61 38bd ea30 e7bd
00000240: f352 6bbd d8ea 57bc a048 85bd 611e d1bd
00000250: cb04 023e 8832 03bf 2e9b ccbc 7441 47be
00000260: 891e 1ebe 6801 1d3e 42a2 0d3e 3dbb 7abd
00000270: 0871 cbbc 078d dbbd 4081 10bd d961 8cbd
00000280: 911b 623d a98c cabd a54a c6bd baa3 e8bc
00000290: 18a5 09be bbb0 143d 37a4 113e 6b66 1b3c
000002a0: e667 2e3d 63cd ff3c e337 ae3d f979 1abe
000002b0: 23d2 003e b570 3c3d aaec 10be e171 90bd
000002c0: 1239 da3d c206 553d 6b93 a8bd 44d6 cb3b
000002d0: 7b6a b0bd 9f4d 113e 5a55 b3bc 2e37 1abc
000002e0: 13ed 8b3d a33d e63d ef33 ddbd 1011 f13e
000002f0: 3281 953d 70c7 033e 673f 1abe c449 a63d
0.079953924 0.05217047 -0.13269325 -0.021366632 0.24564387 -0.092213176 0.06025244 0.23590079
-0.062187452 0.07904966 -0.094144866 0.07807928 0.037309557 -0.11199215 -0.046714354 0.08396237
0.055430237 0.116656095 -0.039598934 -0.30053788 0.1212879 0.09551227 0.14550568 0.11476164
0.04111343 -0.07720578 -0.023135476 -0.080202125 0.0387182 -0.022532154 -0.09063449 0.08424063
0.06992222 0.026874427 0.013653622 -0.059544355 0.035945278 0.10380004 0.11474665 -0.09225451
-0.24838683 -0.06574172 -0.108368516 -0.055842113 -0.047716692 0.065305516 -0.0091215195 0.045328498
-0.0007935077 0.13319091 -0.1514425 0.06766645 0.060956195 -0.032422144 0.0858824 0.14252324
0.022165122 0.14372152 0.06708342 -0.2017014 -0.024910526 0.13727446 -0.064311005 0.07983196
0.08924918 0.06084072 0.16891631 0.06030204 -0.4716593 -0.057087958 0.13549753 -0.59839076
0.03764032 0.03580704 -0.081784286 0.116493754 0.14668852 0.08687782 0.09999118 0.010200066
-0.09326174 0.13833416 -0.019811451 -0.17018777 0.12054024 0.22717416 -0.06450363 -0.38305834
0.059224088 0.13653946 -0.058302805 -0.094665416 0.03492412 0.05373481 -0.01754721 -0.023354199
-0.08840038 -0.0179226 -0.042580295 0.06439512 0.142972 0.10973148 0.023720687 -0.15256925
-0.024183342 -0.016833179 0.055056382 0.012291522 0.07903136 0.05354555 -0.19206256 0.03503939
0.13498472 -0.10495579 0.104936376 -0.17299663 0.088451646 0.0192878 0.031243706 -0.012010079
-0.053572245 -0.018832123 0.02174248 -0.37017226 -0.10898846 -0.015745731 -0.027209116 0.020368898
0.14227863 0.094385095 0.0999507 -0.09363413 0.12314739 0.08289744 -0.16680777 -0.22269861
0.13907479 0.073226966 0.032465164 -0.03370924 -0.1942474 -0.11813164 -0.045014665 -0.112886265
-0.057452153 -0.01317855 -0.06507993 -0.102108724 0.12697141 -0.5124898 -0.02497634 -0.19458562
-0.15441336 0.15332568 0.13831428 -0.06121372 -0.024834171 -0.10720258 -0.035279512 -0.068546005
0.05520207 -0.0989011 -0.09682206 -0.028398383 -0.13441885 0.036301356 0.14222799 0.009484868
0.042579554 0.031225866 0.08506753 -0.15085591 0.12580161 0.046005923 -0.1415278 -0.07052971
0.106554165 0.052008398 -0.08231243 0.006220611 -0.086140595 0.14189766 -0.021891285 -0.00941257
0.06832328 0.11242225 -0.10800921 0.4708333 0.07300033 0.12869048 -0.15063249 0.081195384

encoder.6.bias f4 [3]
00000000: 671b af3d 4b85 ddbd 6d95 bf3d
0.085501485 -0.10816439 0.093546726

decoder.0.weight f4 [64, 3]
00000000: e5df eebe e47b ea3e 492a 2abe 62a4 b63e
00000010: 3f5c 09bf 9c07 673d f1af 41bc d939 743e
00000020: 27bb d13e a2fb e63e 132b 933e d9aa b3be
00000030: 0c80 0b3f cfd4 0d3f 882f cd3e 4f33 863e
00000040: 67e6 bf3e 64a0 d6be 2635 a2be be24 ee3d
00000050: 2bd1 7b3e d218 d93e 2c97 f5bd 5fa1 37bd
00000060: 2665 2b3e 8f89 cc3e 89cf a73e 42d7 8d3e
00000070: a897 92be 5f19 1abd 729c 00be c266 8bbe
00000080: b32f f5be edb3 303e 3594 0abf c7c4 2f3e
00000090: 0d02 04bc e71e ce3e 8a30 12bf 4755 b43e
000000a0: a1eb 7abd e243 a83e 4e96 77be 9ce9 18be
000000b0: 007b 67bc 21f0 ffbe 7dfd 9fbd 76a7 9dbe
000000c0: 1295 a3be efed e53e ba27 083f d42c 383e
000000d0: 3a90 a93e 54c9 41bd 17a4 763c 5b30 c33d
000000e0: 7be5 49be 359b 0ebf 9006 33bd ea78 08bf
000000f0: 27ac eabc 1528 b8bd 35af 2f3d 6561 97be
00000100: dfee cbbe fe63 af3e 2c72 9ebe 6c05 d83d
00000110: e984 f73e 8c37 01bf a079 023e 34c0 f93d
00000120: 6e99 103e 14a1 023f 5224 443e 875d 903e
00000130: d628 fb3d dd63 35bf 3a6a 42be 704c 87bd
00000140: f253 93be fe7b 1ebe b581 46be 4d4a 53be
00000150: 2f76 cd3d 23a9 053e 0883 0d3f 6a9f 8ebe
00000160: 0073 9f3d 0023 99bb 81ff 183f 91d7 cd3d
00000170: f81a ccbe 5100 d63c 657a e0be d1f0 183f
00000180: 9bd6 ae3e f5c9 4c3e 367c 193f b01d bc3e
00000190: effe 31be ae21 8abe 8a1a c33e e175 b9be
000001a0: 950f 0c3f 13f1 0c3f 30f0 313e 1d7a d3bc
000001b0: b719 bd3e 20b0 623e b81b 843e 8cc1 0bbf
000001c0: d166 c2be 6012 8cbc 956e 00bd 1801 d13e
000001d0: 9e51 56be 426e 0bbf d509 003f e457 2c3e
000001e0: ddbf b33e 319e d7be dc5b 4abe e4ad 14be
000001f0: bfb5 163f 3c5e 843c 6f59 e63d 4557 bcbb
00000200: 4b4c 90be 3c28 fdbe c0d5 84bd 9220 e7be
00000210: c979 9abe b813 613e 1f8d b7be 7c86 17bf
00000220: c59a 0abd 265a 663e 6adc cebe 9740 d7bd
00000230: 987a 343e 2018 bbbe ef8a b83e 44ee adbe
00000240: 2fbc 2d3e cbc2 3d3e 8680 b83e dedf e6be
00000250: 4794 293e b95e d23d ed4c 1ebf c04a 6b3e
00000260: 2838 be3e a5b1 3bbe e16a 82be 504e 22bd
00000270: 39ee 0fbf 916d 83be 642b 0e3f 9580 e1be
00000280: 1e63 e6bd bd48 1e3f 8d0f 9ebe fd3c 9fbe
00000290: 3292 c1bd 7a30 883d 6214 6d3e 5ce0 9c3e
000002a0: eef9 223d 729f 9bbd 834e 90bd 1820 a73e
000002b0: 011d e7be 15c2 ab3d 6fc9 39bd 186d 9ebd
000002c0: f06b c03e 205d 07bf f4b7 473e e4c4 10bd
000002d0: fa1b 5dbe dd26 a4be 3726 b83d 8f17 e3be
000002e0: fd85 05bf 2db6 a23e 7f45 0b3f 6e3f 85be
000002f0: 70e4 e23d 0c24 a9bd 6139 86be 0043 62bd
-0.46655193 0.45797646 -0.16617693 0.3567229 -0.5365638 0.05640374 -0.011821733 0.23850192
0.40963098 0.45113856 0.287438 -0.35091284 0.5449226 0.55402845 0.40075326 0.2621102
0.3748047 -0.41919243 -0.31681174 0.11628102 0.2459151 0.4240175 -0.11991724 -0.04483163
0.16737804 0.399487 0.32775524 0.2770329 -0.2863133 -0.037621852 -0.12559679 -0.27226835
-0.47887954 0.17256136 -0.54132396 0.17164908 -0.00805713 0.40257952 -0.57105315 0.3522131
-0.06125987 0.3286429 -0.2417843 -0.14932865 -0.014128447 -0.4998789 -0.07812021 -0.30791825
-0.3194967 0.4490809 0.5318562 0.1798585 0.3311785 -0.047311142 0.0150537705 0.095307074
-0.19716446 -0.5570558 -0.04370743 -0.533095 -0.028646542 -0.0899202 0.0428917 -0.29566494
-0.39830682 0.34255975 -0.3094648 0.10547909 0.4834359 -0.5047538 0.12741709 0.12194863
0.14121029 0.51027036 0.1915448 0.28196356 0.12263648 -0.70855504 -0.18985835 -0.06606376
-0.28774983 -0.15476987 -0.19385417 -0.20633812 0.10032307 0.13052802 0.5527806 -0.27855998
0.077856064 -0.004673362 0.5976487 0.10050882 -0.39864326 0.026123198 -0.4384338 0.59742457
0.34148106 0.19998915 0.59955156 0.367414 -0.17382406 -0.2697882 0.38106185 -0.36222747
0.54711276 0.5505535 0.1737678 -0.025815064 0.3693368 0.22137499 0.25802398 -0.54592204
-0.37969068 -0.017098606 -0.03135546 0.40821147 -0.20929572 -0.54465115 0.50015 0.16830403
0.35107318 -0.42112878 -0.19761604 -0.14519459 0.5887107 0.016158216 0.11247527 -0.005747708
-0.28183207 -0.4944476 -0.06486082 -0.45142037 -0.3017104 0.21980178 -0.35849854 -0.5918958
-0.033839006 0.22495326 -0.40402538 -0.105103664 0.17624891 -0.36541843 0.36043498 -0.33970845
0.16966318 0.18531339 0.36035556 -0.45092672 0.1656047 0.10271973 -0.6183613 0.22977734
0.3715222 -0.18329485 -0.25472167 -0.039625466 -0.56222874 -0.2566953 0.5553496 -0.44043413
-0.11249374 0.6182974 -0.3087124 -0.31101218 -0.09451713 0.06649871 0.23152307 0.30639923
0.039789133 -0.07598771 -0.07046225 0.32641673 -0.45139316 0.083866276 -0.045358118 -0.07735652
0.3758235 -0.5287647 0.19503766 -0.03534402 -0.21592703 -0.320609 0.08991664 -0.4435391
-0.52157575 0.31779614 0.5440292 -0.26024956 0.11078727 -0.082588285 -0.26215652 -0.055239677

decoder.0.bias f4 [64]
00000000: f54d a43e 7937 603d 9bf8 dfbe 7524 7abd
00000010: 42f9 16bf 302d 16be 1675 1bbf f7d7 50be
00000020: 8e1a 7d3e c124 21be 7c81 ecbe 0e4e d63e
00000030: 404a cf3e 582c 243e ee9d 23be 2f89 833e
00000040: 18f8 e9be e4e7 993e 0421 c23e 0c48 06bf
00000050: c064 513e fb64 5fbe c284 83be b142 c13e
00000060: fbff 103f 8912 e73e 0048 cdbb 5d7e e13e
00000070: 806a 353c 0ce7 e3bd 7d2e 33be a5ec 3abe
00000080: 34e8 ba3e 5f4d 103f 5ff3 5cbd 0687 9cbd
00000090: 92a5 063f 34bb e0be d483 84be b380 d0be
000000a0: c371 573e e164 0f3f 2b13 c83e 06c1 b0be
000000b0: 0649 0cbf 694f 8b3e 22a2 e03e f679 823e
000000c0: 3800 bb3e 91f1 0d3f eae4 09bf b682 0a3f
000000d0: 360c 033f b67d 4dbd 3ccc 133f b454 943e
000000e0: f66e 06bf 33bc b63e 2e0d a33b edc8 0c3e
000000f0: 8a5b 943d 3139 cc3e 1249 193f 38c3 38be
0.32090726 0.054740403 -0.43744358 -0.061069924 -0.5897409 -0.14665675 -0.60725534 -0.20394884
0.24717161 -0.15736677 -0.4619254 0.41856426 0.40486336 0.16032541 -0.15978214 0.256906
-0.45697093 0.3005973 0.37915814 -0.52453685 0.2044859 -0.21815865 -0.25687224 0.37746194
0.56640595 0.4513133 -0.0062646866 0.4404172 0.011072755 -0.11128053 -0.17498203 -0.18254335
0.36505282 0.5636806 -0.053943034 -0.07642941 0.5259639 -0.43892825 -0.25881827 -0.4072319
0.2103949 0.56013304 0.39077124 -0.34522265 -0.54798925 0.27209023 0.43873698 0.25483674
0.36523604 0.55446726 -0.5386492 0.541057 0.5119051 -0.050168715 0.5773351 0.28970873
-0.5251306 0.3569046 0.0049759364 0.13748522 0.07244022 0.39887384 0.5987712 -0.1804322

decoder.2.weight f4 [128, 64]
00000000: 8ef3 3fbb a7c2 0d3d 1538 dd3c ca9f 4a3d
00000010: 481e dabd 34df 993c 0add 823d 699a e33d
00000020: 00dd 5a3c 3967 233e 0e26 cbbd d851 873d
00000030: 8b1a c3bc e4e0 a33d a624 c7bd b1a6 aebb
00000040: bc0e dfbd 4039 d7bd 62cd c4bc fa37 ff3d
00000050: c435 203c 0bbc cfbd ca53 40bb 646c 8bbd
00000060: 78c9 663c 7cd3 18bd 60b0 2bbd af04 d83c
00000070: 1451 3c3d e400 52bd 949a 78bd 4aba 0a3d
00000080: 6497 b1bc b44a 213e 0f63 cc3d ff88 443d
00000090: 96a7 adbd e6f2 883d 995e 42be ca05 a73d
000000a0: d296 bf3d 2554 8f3d 40b3 b03d a2d2 afbd
000000b0: 4cbb 5abd 73c6 dc3d 7556 dbba 4585 5e3d
000000c0: 2660 c13b ba40 f63d b281 953c 83ef e13d
000000d0: bedc c2bc 2d5c efbc cad8 d13d 936b 313d
000000e0: 7737 0d3e d289 b53d 214f 5c3b 65ea 8fbd
000000f0: 2c23 043e 9052 b93d b95c e33d 006e bfbd
00000100: 75fa c03d 1cd1 f53d 2a11 c2bd a0b6 833b
00000110: 6402 04bd bc8b 753d d842 2cbd f8be fcbc
00000120: 7b2a 013c d4b1 b5bd 1e1d f6bd 1068 ef3c
00000130: 755e 31bd caca ee3c 001f ba3a 734a 7cbc
00000140: da43 2abd 2b96 6c3d bbc5 d93d 9c10 2c3d
00000150: a8fc a53d f6af f7bd 44bf aabd 7806 ed3c
00000160: 1790 6fbd a563 e73c cc6d fc3d 0c9d ed3c
00000170: ab82 4a3c e0aa f1bb a255 933d f4e1 1c3d
00000180: 09c2 3abd ca30 c83b 1fa6 70bd 61df a4bd
00000190: 5ab3 c13d 369c d93d 728c a8bd 0065 72bd
000001a0: a883 b0bc e953 b6bd 0151 8dbd 8a91 d0bd
000001b0: 0078 fc38 0a52 eabd 940a ef3d 958c a33d
000001c0: 2c4e 31bd 78c2 e73d fc27 693d bd56 09bd
000001d0: b064 883d 46af 503c 587c 36bd 7524 71bd
000001e0: 28d1 30bd bfbc 183c cb02 d53d 7286 dfbd
000001f0: 847e e6bb 8420 edbd 93af 24bd d063 eb3d
00000200: f8c2 be3d 0a5d 9fbd f0d3 863c 0439 3bbd
00000210: f621 a4bd 90b7 00bc 5ab4 e1bd 125c 8b3d
00000220: a8b6 eebd 4040 3d3c d0b3 0bbc bc10 bc3d
00000230: 6a69 b73d c00f e53c 1867 5ebd a047 453c
00000240: 70a6 5abd bcc4 42bd f895 61bd 90ce e83c
00000250: 5439 d1bd cc85 0fbd 884d 89bc ac2e 54bd
00000260: 7494 b23d a81a c3bc 7ead b3bd bcab ecbd
00000270: d05d 31bd c243 e7bd d0e6 0b3d 9818 c33d
00000280: ccf4 c2bd 6074 96bd a8dd 4cbd 3216 a2bd
00000290: 742c e4bd 9ae2 9dbd 282c a3bc 38b9 a8bc
000002a0: b4ed 55bd 0c12 3f3d c005 42bb fc0b fa3d
000002b0: 16db bcbd a25b dbbd fe65 febd 7c96 67bd
000002c0: 70bf 69bd 6e93 b93d 9ed3 a1bd 9c03 47bd
000002d0: ae3f c53d c864 643d 307c 98bc cacf cdbd
000002e0: 042e 613d c0fa 173b d82d d8bc e621 9b3d
000002f0: 286d 4e3d ec6e d2bd 2c6c 1bbd d80e f63c
00000300: 3644 c6bd 4096 9c3c 86a3 f93d 86d2 8dbd
00000310: 7ce0 743d ac0e 0e3d e897 983c 525c a7bd
00000320: d866 93bc 10b3 c23d e8c3 b03c ceff d2bd
00000330: a8b2 bf3d 5058 bd3d 7098 8b3c 441b b23d
00000340: 1043 5b3c 2eaa cbbd 8056 91bd c029 52bc
00000350: 9822 e8bd ec64 babd 8c20 f2bd 3829 1bbd
00000360: e0af f43c 406c e2bd 5cea 4abd de04 aa3d
00000370: d2d8 f3bd 5ce8 76bd 80bc 71bb 3827 c63c
00000380: 70cf 6cbc 66ec ebbd ac1a 753d acd1 d73d
00000390: 2824 cdbd cc3b dfbd e22b c4bd 7aae 8e3d
000003a0: 08d9 27bd 9c24 84bd 3e2b 9b3d 148a 19bd
000003b0: 5a60 983d 043a afbd 58cc 0c3d f8be 803c
000003c0: 1eca e7bd 7ccb 203d cae2 e63d c8e0 14bd
000003d0: e44b 7cbd 9e99 d03d 2434 ce3d d0b4 be3c
000003e0: 9024 cdbd 9c45 023d da2a f73d a0b7 b73d
000003f0: 800c 8a3a 9e08 ff3d 6831 cebd fa8d a63d
-0.0029289457 0.034609463 0.027004281 0.049468793 -0.10650307 0.01878319 0.06389816 0.11113436
0.013358355 0.15957345 -0.09919368 0.06607407 -0.023816368 0.08001879 -0.09723787 -0.0053299298
-0.10891482 -0.105089664 -0.024023715 0.124618486 0.009778444 -0.10143288 -0.0029346817 -0.06807783
0.01408612 -0.037311062 -0.04191625 0.02636942 0.04597576 -0.05127038 -0.060694292 0.033869065
-0.021678634 0.15751153 0.099798314 0.047982212 -0.0847923 0.06686954 -0.18981399 0.08155401
0.093549386 0.06998471 0.08627939 -0.08585097 -0.053401276 0.10780039 -0.001673414 0.054326314
0.0059013544 0.12024064 0.01825032 0.11032011 -0.023786899 -0.029218758 0.10246427 0.04331548
0.1379069 0.08864178 0.00336165 -0.07027129 0.12904042 0.09048951 0.1110167 -0.09347153
0.09422771 0.12002775 -0.0947593 0.0040195733 -0.032228842 0.059947714 -0.042055935 -0.03085278
0.007883663 -0.08871809 -0.120172724 0.029224426 -0.043302972 0.029149432 0.0014199913 -0.015398609
-0.041568615 0.0577604 0.10633417 0.042008027 0.08104831 -0.12094109 -0.08337262 0.028933749
-0.058487024 0.028245756 0.123256296 0.02900555 0.012360255 -0.007375106 0.071940675 0.038301423
-0.045595203 0.0061093317 -0.058752175 -0.08050419 0.09458037 0.10625498 -0.08229913 -0.059178352
-0.021547154 -0.08902723 -0.06900216 -0.101840094 0.00012038648 -0.11441429 0.116719395 0.07985798
-0.04328744 0.11316389 0.056922898 -0.033529986 0.066598296 0.012737101 -0.044552177 -0.05887266
-0.043168217 0.009322344 0.10400923 -0.10914315 -0.007034125 -0.115784675 -0.040206503 0.11493647
0.09314531 -0.07781418 0.016458482 -0.04570867 -0.0801429 -0.007856265 -0.110207275 0.068046704
-0.11655933 0.011550963 -0.008526757 0.09182879 0.08955653 0.027961612 -0.054297537 0.0120410025
-0.053381383 -0.0475509 -0.055074662 0.02841881 -0.102160126 -0.035039708 -0.016760603 -0.051802322
0.087197214 -0.023816422 -0.087733254 -0.11556193 -0.043302357 -0.11292221 0.034155667 0.09526175
-0.095193475 -0.073464155 -0.050016075 -0.0791439 -0.11141291 -0.077092364 -0.019918516 -0.020596132
-0.052228644 0.04664807 -0.0029605478 0.12209317 -0.09221475 -0.10710837 -0.12421797 -0.056539997
-0.057067335 0.09061323 -0.07901691 -0.048587427 0.096312866 0.055760175 -0.018613905 -0.10049398
0.054975525 0.002319023 -0.026389048 0.07574825 0.05039707 -0.10275063 -0.037944958 0.030036375
-0.09680979 0.019114614 0.12189393 -0.0692492 0.059784397 0.03468196 0.018627122 -0.081719056
-0.017993376 0.0950681 0.02157779 -0.10302697 0.09360248 0.0924536 0.017040461 0.08696607
0.013382688 -0.099445686 -0.07096577 -0.012827337 -0.11334723 -0.091012806 -0.11822614 -0.037881106
0.02986902 -0.11055803 -0.04953991 0.083017096 -0.119065896 -0.06028019 -0.0036886036 0.024188623
-0.014453754 -0.11519699 0.05983989 0.105380386 -0.10016662 -0.10900077 -0.095786825 0.069668725
-0.04097846 -0.06452295 0.07576607 -0.037485197 0.074402526 -0.085559875 0.034374565 0.015716061
-0.11317848 0.039256558 0.11273725 -0.03634718 -0.061595812 0.1018555 0.10068539 0.023279577
-0.10016739 0.031804666 0.1206872 0.089705706 0.001053229 0.124528155 -0.10068017 0.08132549

decoder.2.bias f4 [128]
00000000: a420 fb3d 2903 a5bd 6223 87bd d082 80bd
00000010: 9752 cdbd 9c94 0ebd 2206 3d3d 773b 43bd
00000020: bc83 63bd a6e5 d8bd 49ad a8bd 4f14 dbbd
00000030: ef76 ca3d 6ca5 cfbd 98f4 f53d 3010 be3d
00000040: 53b7 1a3d feed 8dbd a027 f93b 24bf c93d
00000050: 08e6 c5bc 7ad0 ee3d 45fc 42bd 8074 b73d
00000060: 4674 76bd 6c84 443d 404c 5d3c 2080 423d
00000070: 52a0 9abd d9d9 71bd 3157 cb3d 768f d7bc
00000080: e570 7ebd 2c51 51bc 185b ae3d a8aa 6e3d
00000090: b907 b4bd 06a0 8abd 4f3f 5abc c02d 53bd
000000a0: c7ed 36bd 987a 483d b834 953c e169 0bbe
000000b0: c667 d6bd 3bc3 073c 2e45 07be d561 0d3e
000000c0: 34ee 1b3e ecbb 093d 3c94 fb3d c7d6 a4bc
000000d0: 2240 793d c396 873c 5152 af3c 5aba 08bd
000000e0: ddf2 d5bd 0972 e6bc fd51 7c3c a9da aebb
000000f0: fb3e 9d3d a8a1 433c c11e a13d 663e c9bd
00000100: 1a3f 033e e693 9cbd 5d11 f4bd 44fc ddbd
00000110: 78d2 143d 78d8 9e3d ec89 973c 4242 ddbd
00000120: 3a6c f2bd 2089 fc3b 2e59 3cbd 7050 a33d
00000130: c0bb 94bd 8765 083e 801a be3c 70fb d53d
00000140: 0663 d6bd 4161 0ebb e838 8c3d 35dd 95bc
00000150: 2fde f73d 6c6e 793d 413a abbd 849a 42bd
00000160: 3b3b 1f3e 820a 46bc e710 36bd 4e14 cd3d
00000170: 4e7a c7bd b796 0a3e 89fd 6dbc dbbc c5bd
00000180: b423 9c3d 8261 a4bd d80a 443d 86b6 b5bb
00000190: 4acb e6bc 4af4 d73d 6ebf bcbd 6d46 8dbd
000001a0: aa2d 96bc 007c 91bd 6ade d0bc 0bcf 04be
000001b0: cbca 163e 1826 60bd 3e2c 56bd 0cb3 9dbd
000001c0: da38 7e3d d23b 80bc 6c7e aa3d 0401 d7bd
000001d0: c896 4abd 639c f23d acf5 863d c04e ba3b
000001e0: 24db 23bd 9bfd 983c b605 a53b d47b 143c
000001f0: ce6a c4bd ea45 ca3d 1cfa e63d 0c49 d43c
0.12262085 -0.080572434 -0.065985456 -0.062749505 -0.100255184 -0.034809694 0.046148427 -0.047664132
-0.055545554 -0.10590677 -0.082361765 -0.10697233 0.09885966 -0.101389736 0.12009543 0.09280431
0.037772488 -0.06930159 0.0076036006 0.0985091 -0.024157539 0.116608575 -0.047603864 0.089577675
-0.06016948 0.04797785 0.013506949 0.04748547 -0.0755011 -0.059045646 0.0992874 -0.026313525
-0.062119383 -0.012775701 0.085134685 0.05826822 -0.087905355 -0.06768803 -0.013320758 -0.051557302
-0.044660356 0.04894504 0.018213615 -0.13614608 -0.10469012 0.008286293 -0.13209984 0.13806851
0.15227586 0.033626482 0.12284133 -0.020121945 0.060852177 0.016551381 0.021401556 -0.033380844
-0.10446713 -0.028130548 0.015400407 -0.005336125 0.07678028 0.011940397 0.07867194 -0.09826355
0.1281704 -0.07645397 -0.11917374 -0.108391315 0.03633353 0.07756132 0.018498383 -0.10803653
-0.11837049 0.0077067763 -0.045983486 0.079743266 -0.07262373 0.1331998 0.023205996 0.104483485
-0.10468106 -0.0021725448 0.068467915 -0.018293956 0.12102925 0.060896322 -0.083607204 -0.04751064
0.15549938 -0.012087466 -0.044449713 0.100136384 -0.09740125 0.13534056 -0.0145257795 -0.09655162
0.07623997 -0.08026411 0.047861904 -0.00554544 -0.028173108 0.10544641 -0.092162 -0.06898198
-0.018332321 -0.07103729 -0.02549668 -0.12969606 0.14725797 -0.05472383 -0.052288286 -0.07700166
0.062065937 -0.015653525 0.08324894 -0.104982406 -0.049460202 0.11846235 0.06589827 0.0056856573
-0.04000391 0.018675616 0.005036081 0.009062726 -0.09590684 0.09876616 0.11278173 0.025913738
